stubs/sample_conv_vae.pt (torch, 243008 bytes, 126 tensors)

encoder.0.weight f4 [8, 2, 3, 3]
0.22916447 0.03858336 0.07632306 0.14196292 -0.15663329 -0.2684255 0.030259434 0.19813216
0.059278954 0.21679437 -0.14678231 -0.25297713 -0.05585802 -0.21188912 -0.031872187 0.03489499
-0.18054499 -0.017610284 -0.043427873 -0.07316709 -0.0029871378 -0.2126769 0.14929691 -0.18229279
0.036951147 -0.09500129 0.054503452 0.20040993 -0.14714198 0.14245324 0.15431087 0.017990228
-0.046882894 -0.034715205 -0.16679311 -0.21608546 -0.11426466 -0.08690575 0.19671011 -0.24375531
-0.0116612725 0.1501451 0.10228119 0.009259216 0.20535955 -0.21848547 -0.16494365 0.18077882
0.02771949 -0.14502905 -0.036165286 -0.04221435 0.11991623 0.07261721 0.23112953 -0.08495331
0.25483692 0.14541791 -0.021063354 -0.22409742 -0.026734708 -0.034333587 -0.13287415 -1.5173064e-05
-0.14010756 0.09859338 -0.10107474 -0.1665362 0.19548742 0.10583654 0.04744886 -0.15692845
-0.1674476 -0.25236627 -0.2129206 0.13089328 0.087421745 -0.16125828 0.10910998 -0.11144531
-0.017722465 0.20345815 -0.041343354 0.14993368 0.19806598 0.17197475 0.047810517 0.17666681
0.16128749 -0.13261555 -0.116580166 0.16106385 0.114357546 -0.24845342 0.022953233 0.11941758
-0.034613866 0.08006632 0.14647901 -0.1429623 -0.13892381 -0.013157143 0.095302016 0.18908525
-0.1018892 0.13469319 -0.23860948 -0.0354381 -0.01297054 0.17661795 0.17925926 -0.03533464
-0.018772507 -0.020675728 0.11238348 -0.19223125 -0.11241584 0.14290623 0.07841804 0.05527821
-0.14695849 -0.10464898 -0.06885785 0.19104452 0.088284664 0.19565824 -0.10932292 -0.2098334
-0.16349164 0.1945461 -0.23378918 -0.16380498 -0.095367 -0.14963594 0.18077803 -0.17422967
-0.048131254 -0.1940856 0.19643718 0.04112975 0.109258965 -0.03789865 0.12897845 0.1822737
00000000: 17aa 6a3e 9609 1e3d 444f 9c3d ba5e 113e
00000010: 7a64 20be 116f 89be a2e2 f73c 28e3 4a3e
00000020: 7dce 723d 58ff 5d3e 1a4e 16be 3886 81be
00000030: 61cb 64bd 76f9 58be 698c 02bd 0dee 0e3d
00000040: c9e0 38be 7143 90bc 6de1 31bd a1d8 95bd
00000050: dbc3 43bb f9c7 59be 4ae1 183e f6aa 3abe
00000060: 165a 173d 0990 c2bd 033f 5f3d 4338 4d3e
00000070: 63ac 16be 43df 113e ab03 1e3e 3e60 933c
00000080: 4708 40bd 8831 0ebd d0cb 2abe 8245 5dbe
00000090: 9703 eabd a4fb b1bd 606e 493e fe9a 79be
000000a0: ec0e 3fbc a3bf 193e cd78 d13d f7b3 173c
000000b0: c649 523e a8ba 5fbe fde6 28be 151e 393e
000000c0: fc13 e33c 7f82 14be 0d22 14bd f4e8 2cbd
000000d0: a496 f53d 55b8 943d 38ad 6c3e 00fc adbd
000000e0: fc79 823e 6fe8 143e 0e8d acbc cb79 65be
000000f0: bf02 dbbc 60a1 0cbd 2910 08be d08f 7eb7
00000100: 5b78 0fbe 53eb c93d 4600 cfbd 7788 2abe
00000110: db2d 483e d4c0 d83d bc59 423d dab1 20be
00000120: 6277 2bbe 2736 81be dc07 5abe e308 063e
00000130: 2c0a b33d e420 25be 0e75 df3d 703d e4bd
00000140: b42e 91bc 5557 503e a657 29bd 3788 193e
00000150: cfd1 4a3e 261a 303e f6d4 433d 25e8 343e
00000160: 8c28 253e 5fcc 07be 95c1 eebd eced 243e
00000170: 4a34 ea3d 936a 7ebe 6b08 bc3c 3491 f43d
00000180: 45c7 0dbd d0f9 a33d 98fe 153e b664 12be
00000190: 0b42 0ebe 0f91 57bc b42d c33d 909f 413e
000001a0: 49ab d0bd 03ed 093e 0b56 74be 8b27 11bd
000001b0: 6382 54bc 56db 343e bd8f 373e 0ebb 10bd
000001c0: cdc8 99bc 2560 a9bc 4f29 e63d 45d8 44be
000001d0: 473a e6bd 0356 123e a399 a03d 686b 623d
000001e0: 497c 16be 3452 d6bd 5805 8dbd 2da1 433e
000001f0: 97ce b43d a25a 483e b2e4 dfbd 91de 56be
00000200: 5a6a 27be 1837 473e 6e66 6fbe 7ebc 27be
00000210: c64f c3bd 2a3a 19be e01d 393e 4369 32be
00000220: 4725 45bd 60be 46be d426 493e ab77 283d
00000230: 2ac3 df3d 9d3b 1bbd ed12 043e f5a5 3a3e

encoder.0.bias f4 [8]
0.1858795 -0.034744434 0.04251659 -0.06298121 -0.014615488 -0.24833608 -0.13248889 0.0240035
00000000: 3257 3e3e 2e50 0ebd e025 2e3d 4bfc 80bd
00000010: cd75 6fbc d04b 7ebe 2bab 07be fda2 c43c

encoder.1.groupnorm_1.weight f4 [8]
1.0205982 1.0084689 0.9837946 1.0177737 1.0217423 0.966393 0.9703849 1.0003693
00000000: f6a2 823f 8215 813f f7d9 7b3f 6946 823f
00000010: 74c8 823f 8865 773f 256b 783f 1a0c 803f

encoder.1.groupnorm_1.bias f4 [8]
-0.00833145 -0.024170944 -0.017230088 -0.0049870173 0.0063570747 -0.05106978 -0.029414942 0.025261533
00000000: a280 08bc 2502 c6bc 1d26 8dbc 226a a3bb
00000010: 024f d03b 8c2e 51bd 9bf7 f0bc 46f1 ce3c

encoder.1.conv_1.weight f4 [8, 8, 3, 3]
-0.014675486 -0.036892325 -0.0046071 -0.035530403 0.044674005 -0.07427436 0.2093953 -0.038375884
0.008407286 -0.10497246 -0.033146363 0.08498266 -0.03045397 0.056927036 0.092971265 0.095897466
-0.07339544 0.065022245 0.10266135 -0.06095189 -0.104010195 -0.112123415 -0.015779303 -0.084238574
0.031714395 -0.10346419 -0.006833875 -0.09005324 -0.09325854 -0.057907645 -0.03766193 0.08193735
0.10884252 0.084457785 0.1327813 0.054326497 -0.13521378 -0.001400603 0.0039637303 0.15449423
0.08940813 0.059009537 0.048715558 -0.0164447 -0.03529368 0.06598755 0.020692542 -0.06850742
-0.096896425 -0.09706916 0.014689015 -0.10743309 -0.11580143 0.0003355981 -0.1175474 -0.14417793
-0.06568829 0.0007896679 0.085288316 -0.005766244 0.056093354 0.08041781 -0.03584123 0.023466378
-0.028747719 -0.057513602 0.044798844 -0.009437149 -0.08124983 0.09787898 0.009340228 -0.0686083
-0.007981775 -0.11130197 -0.016473353 0.12456127 0.11141543 0.12823518 0.15677653 0.106375605
-0.0027087778 -0.068933904 -0.06184533 -0.04920877 -0.052224923 0.06021671 -0.11958097 -0.025093688
-0.055465188 -0.015271894 0.029361082 0.10256829 0.08061022 -0.06287516 -0.111685224 -0.08534721
-0.072509356 0.12792636 0.10074018 0.107302055 -0.12900153 -0.07760973 -0.013376614 -0.097853884
0.07078139 0.08048248 -0.107565 0.12408874 0.121758915 -0.060498808 -0.12210527 0.005341887
-0.06910836 -0.057211112 -0.15989271 0.12118174 0.09790101 -0.041858222 0.0037768278 -0.019824123
-0.07802767 0.07496764 0.009765725 0.060693495 -0.04442831 0.10072972 -0.08342039 -0.06685323
-0.059787054 -0.03765486 0.07210841 -0.05295386 0.025199305 0.01711921 -0.024795724 -0.033640303
0.118929036 0.06613124 -0.076629475 0.053659506 -0.025307227 -0.054511514 0.101637274 0.05539965
0.014662072 -0.06651065 0.08905433 -0.12160868 0.07740119 -0.024331626 -0.0437376 -0.11825128
-0.048533544 -0.06729087 0.046498403 -0.061217472 0.027007781 -0.061438724 0.055452015 0.038921196
-0.01822758 -0.025536917 0.023695687 -0.027829316 -0.12767237 -0.06522616 0.08011277 0.054574285
0.04304222 0.013263653 -0.03057995 0.0892529 0.042969584 -0.11031854 -0.063125595 0.049530093
0.07369483 0.06251476 0.017887654 -0.055688396 -0.06050144 0.062204488 0.089960456 0.06126633
0.055429496 0.1281207 -0.10695085 -0.0784766 -0.10237679 0.10337282 0.06693678 -0.06955464
-0.083453104 0.04396273 -0.077455394 0.05776356 -0.041700386 -0.10667791 0.040378083 0.012428541
0.031787828 -0.025312314 0.0052465987 0.08650893 -0.0050432063 -0.10165477 0.039935313 0.09005952
0.10368402 -0.100249976 0.06335508 0.076495595 -0.09339653 0.08135063 0.17905171 -0.0066860756
0.087934144 -0.039114643 -0.0033442725 -0.06853862 0.053806126 0.018371081 -0.10817325 0.04774869
-0.023148375 0.12704405 0.07896598 -0.062080346 -0.08330478 -0.13988823 0.078719735 0.082857735
0.021638134 -0.12315566 0.11649092 -0.010654043 0.046033237 -0.09572391 0.03666835 0.11960852
0.013576334 0.04739679 0.09733983 -0.04290106 -0.0199692 0.110092014 -0.10963301 0.0596292
0.09264214 0.008330323 0.14686133 -0.13771988 -0.09420706 -0.037249148 -0.034978386 0.05763399
00000000: 7371 70bc 681c 17bd 28f7 96bb 5488 11bd
00000010: 17fc 363d 281d 98bd b96b 563e 0830 1dbd
00000020: b7be 093c cdfb d6bd 7bc4 07bd 640b ae3d
00000030: 9b7a f9bc 532c 693d b867 be3d e465 c43d
00000040: 5950 96bd 622a 853d 1d40 d23d b0a8 79bd
00000050: 4c03 d5bd f6a0 e5bd 9943 81bc 4685 acbd
00000060: f4e6 013d 09e5 d3bd b3ee dfbb d56d b8bd
00000070: 55fe bebd 9130 6dbd 6543 1abd c5ce a73d
00000080: d4e8 de3d 34f8 ac3d d2f7 073e 7685 5e3d
00000090: 7b75 0abe 7094 b7ba 2ee2 813b bc33 1e3e
000000a0: 9c1b b73d fcb3 713d f789 473d 09b7 86bc
000000b0: 1b90 10bd 7b24 873d 6883 a93c 9e4d 8cbd
000000c0: a271 c6bd 32cc c6bd 32aa 703c e105 dcbd
000000d0: 4d29 edbd 37f3 af39 b1bc f0bd 61a3 13be
000000e0: 9587 86bd b701 4f3a a4ab ae3d c3f2 bcbb
000000f0: 25c2 653d 18b2 a43d 41ce 12bd 903c c03c
00000100: 5680 ebbc 6293 6bbd fe7e 373d 469e 1abc
00000110: 5066 a6bd c674 c83d c107 193c 8282 8cbd
00000120: fec5 02bc 4af2 e3bd 20f3 86bc fb19 ff3d
00000130: c62d e43d 1550 033e 078a 203e 74db d93d
00000140: c085 31bb 382d 8dbd 8751 7dbd 238f 49bd
00000150: cde9 55bd cca5 763d dee6 f4bd 4791 cdbc
00000160: 772f 63bd f736 7abc a786 f03c 530f d23d
00000170: f916 a53d b1c4 80bd 39bb e4bd 85ca aebd
00000180: c97f 94bd 21ff 023e de50 ce3d 2ec1 db3d
00000190: fa18 04be daf1 9ebd 9629 5bbc 9e67 c8bd
000001a0: d5f5 903d 00d4 a43d 0a4b dcbd 3d22 fe3d
000001b0: bd5c f93d 99cd 77bd 5412 fabd ff0a af3b
000001c0: af88 8dbd 3356 6abd eaba 23be 222e f83d
000001d0: 5380 c83d 8773 2bbd a884 773b 3366 a2bc
000001e0: f9cc 9fbd a288 993d 6b00 203c be99 783d
000001f0: 76fa 35bd 624b ce3d 4fd8 aabd 59ea 88bd
00000200: 45e3 74bd fc3b 1abd 93ad 933d 26e6 58bd
00000210: c66e ce3c 963d 8c3c 6720 cbbc 6aca 09bd
00000220: 1191 f33d d16f 873d eaef 9cbd 12ca 5b3d
00000230: 1a51 cfbc 7747 5fbd 3427 d03d beea 623d
00000240: 3039 703c bc36 88bd 1e62 b63d f90d f9bd
00000250: 8484 9e3d 1e53 c7bc 3326 33bd ba2d f2bd
00000260: 1ccb 46bd cccf 89bd 1c75 3e3d 2cbf 7abd
00000270: 6c3f dd3c 2ca7 7bbd a721 633d d56b 1f3d
00000280: 0152 95bc cc32 d1bc 751d c23c 4efa e3bc
00000290: 8cbc 02be 4b95 85bd 2a12 a43d 4989 5f3d
000002a0: 0a4d 303d cb4f 593c ce82 fabc 39ca b63d
000002b0: e000 303d b0ee e1bd fe47 81bd 11e0 4a3d
000002c0: 51ed 963d bd07 803d 2189 923c 8419 64bd
000002d0: 5cd0 77bd 22ca 7e3d 303d b83d 67f2 7a3d
000002e0: 0a0a 633d 1332 033e 0c09 dbbd 57b8 a0bd
000002f0: ecaa d1bd 21b5 d33d 2716 893d aa72 8ebd
00000300: 76e9 aabd 4312 343d efa0 9ebd 7c99 6c3d
00000310: 06ce 2abd f379 dabd 7d63 253d 14a1 4b3c
00000320: f433 023d c55b cfbc a9eb ab3b 982b b13d
00000330: 7b41 a5bb 6030 d0bd 3693 233d 2071 b83d
00000340: 4a58 d43d dc4f cdbd 4fc0 813d b9a9 9c3d
00000350: ae46 bfbd 299b a63d 5559 373e de16 dbbb
00000360: d116 b43d ad36 20bd 952b 5bbb fa5d 8cbd
00000370: d063 5c3d f37e 963c f089 ddbd 2194 433d
00000380: a9a1 bdbc d617 023e eab8 a13d f647 7ebd
00000390: b29b aabd dc3e 0fbe d037 a13d 51b1 a93d
000003a0: 7542 b13c 0939 fcbd cb92 ee3d 4c8e 2ebc
000003b0: 598d 3c3d e60a c4bd 8d31 163d 50f5 f43d
000003c0: 466f 5e3c 2323 423d 1b5a c73d 06b9 2fbd
000003d0: 7396 a3bc ec77 e13d 4687 e0bd bf3d 743d
000003e0: 2abb bd3d e87b 083c d162 163e 7106 0dbe
000003f0: a2ef c0bd 9092 18bd 7f45 0fbd 9e11 6c3d

encoder.1.conv_1.bias f4 [8]
-0.13034746 -0.12401481 0.10839651 0.082651526 -0.029117584 -0.047946125 0.1308701 0.09691025
00000000: ce79 05be 7afb fdbd fdfe dd3d 3445 a93d
00000010: 0088 eebc 2863 44bd d002 063e e278 c63d

encoder.1.groupnorm_2.weight f4 [8]
0.9832011 1.0215362 0.9825711 1.0131088 1.0768197 0.9738653 1.0365552 0.9380732
00000000: 11b3 7b3f b3c1 823f c889 7b3f 8dad 813f
00000010: 3ad5 893f 3c4f 793f d7ad 843f 9125 703f

encoder.1.groupnorm_2.bias f4 [8]
-0.005356518 0.008135551 0.026824476 -0.037552733 -0.0019961388 0.010075368 0.014204025 -0.074942484
00000000: bb85 afbb f94a 053c 01bf db3c e5d0 19bd
00000010: a7d1 02bb 2813 253c 00b8 683c 727b 99bd

encoder.1.conv_2.weight f4 [8, 8, 3, 3]
0.051942393 0.03213419 -0.027728101 0.06560671 -0.013780162 -0.00307669 -0.035762534 0.13684013
-0.09522376 -0.0154477935 0.008610941 0.05276126 0.048305765 0.12544675 0.07770823 -0.09325053
-0.026617227 -0.01954327 -0.03187514 0.08237998 0.086477324 -0.033241883 0.008884278 -0.081068374
0.011622863 -0.021395324 -0.09337135 0.049467314 0.03785707 0.106620304 0.12832004 -0.16930008
-0.0079401815 -0.018846663 0.1058407 0.036134683 0.124287695 0.022278642 -0.014650278 -0.08776797
0.024258599 0.044686615 -0.07080047 0.0017038189 0.05636005 0.06444455 0.09708541 0.03734664
0.103726946 -0.091456555 -0.096715756 -0.012118031 0.08597919 -0.05027285 0.0863601 -0.03940069
-0.035562214 0.0046006637 -0.06500617 0.060044285 0.08038961 -0.105559364 0.10775155 0.07955003
0.04004545 -0.043288674 0.08374208 -0.05851824 0.0011338011 -0.08656391 -0.10378994 -0.03892293
-0.092530824 -0.08669148 0.08318898 -0.020677865 0.082368106 -0.0681595 0.05059792 -0.039859686
0.028966542 -0.14497566 -0.0044191945 0.018680384 0.073650725 -0.03489482 0.09589684 -0.07849847
0.041582108 0.04562059 -0.042605344 -0.071121104 -0.026469195 0.036465127 -0.048285753 -0.062362004
-0.078231946 -0.089025676 0.083522394 -0.0854477 -0.0680519 0.009059896 -0.05408109 -0.07487251
-0.069633715 0.10268242 -0.0077523254 -0.050413586 0.018768726 -0.13059622 -0.02292788 -0.041570365
0.06848633 0.1328797 0.022676777 -0.033387102 0.10932483 0.009246368 0.013757149 -0.03932291
0.04811721 -0.068789974 -0.098355174 -0.09097316 -0.06231559 0.14725958 0.046312205 -0.10603623
-0.049809035 0.031007575 -0.044390775 -0.014618713 -0.03137616 0.083872184 0.053006012 -0.13832437
-0.07991358 -0.06923877 -0.01723251 0.07721557 0.052528437 -0.08954537 -0.017853543 0.09712979
0.047895033 -0.029830044 -0.08475474 0.14970928 0.107811175 -0.10755888 -0.026107261 0.0134433145
-0.027529724 0.027755387 0.09194589 -0.14206232 0.040890824 0.12315839 0.0027822987 0.033836022
0.07434624 -0.13784103 -0.030597739 -0.106346965 0.085592635 0.03915561 -0.0747822 0.00037599454
-0.059483554 -0.0074168625 0.12345722 -0.09670064 0.024222827 -0.025026856 0.14229017 -0.014840111
0.081121705 0.15234837 0.06967961 0.10065992 0.04511533 0.0087121995 -0.11500841 -0.104429185
0.006030058 0.09537902 -0.124785356 -0.021431522 -0.019207628 0.12960339 -0.06467783 -0.08377629
0.020112375 0.012045368 -0.05418485 -0.06276692 -0.045069892 -0.02819387 -0.1757974 -0.07263482
0.06744543 0.042660423 -0.04742946 0.030477878 0.017247105 0.15185076 -0.088618904 0.012714182
-0.11738149 -0.14002213 0.09630613 -0.07351138 0.107778706 0.1341154 -0.102444746 -0.05986864
-0.07722657 -0.0041284068 -0.13173014 -0.04231745 -0.065456524 0.060219243 -0.021641556 0.037124235
-0.042858757 0.0528018 -0.008007375 -0.0003060232 -0.11914118 -0.036337525 0.006045579 -0.08371497
-0.10123231 0.017349087 0.085199215 -0.03076715 -0.058964673 -0.03360341 0.0026263103 -0.042611554
-0.0047893114 -0.020316644 -0.06546999 0.022672735 0.105321854 -0.0060195634 0.094020166 0.047472164
-0.007436457 0.12402154 -0.058548518 -0.049664106 0.15777968 0.095527075 -0.15078619 0.1358556
00000000: 8cc1 543d 249f 033d 0b26 e3bc d05c 863d
00000010: 30c6 61bc 4ba2 49bb bc7b 12bd d21f 0c3e
00000020: ad04 c3bd be18 7dbc e714 0d3c 311c 583d
00000030: 44dc 453d 1d75 003e 7e25 9f3d 22fa bebd
00000040: 5f0c dabc 3519 a0bc 828f 02bd d6b6 a83d
00000050: 061b b13d a428 08bd 5d8f 113c 2d07 a6bd
00000060: d26d 3e3c 3f45 afbc 7a39 bfbd 3d9e 4a3d
00000070: 0410 1b3d bf5b da3d 5466 033e 005d 2dbe
00000080: 8917 02bc 5164 9abc 02c3 d83d f601 143d
00000090: 8c8a fe3d b381 b63c b807 70bc b2bf b3bd
000000a0: f8b9 c63c 5009 373d d6ff 90bd ad52 df3a
000000b0: ccd9 663d 81fb 833d b7d4 c63d caf8 183d
000000c0: cb6e d43d 934d bbbd e912 c6bd b58a 46bc
000000d0: dc15 b03d e7ea 4dbd 90dd b03d 9e62 21bd
000000e0: afa9 11bd 2ac1 963b f421 85bd fff0 753d
000000f0: 4fa3 a43d 822f d8bd d8ac dc3d 20eb a23d
00000100: b306 243d 774f 31bd f880 ab3d d2b0 6fbd
00000110: 0d9c 943a 6b48 b1bd d28f d4bd a66d 1fbd
00000120: cd80 bdbd 4d8b b1bd fc5e aa3d a064 a9bc
00000130: 9cb0 a83d 3597 8bbd c43f 4f3d e943 23bd
00000140: 3e4b ed3c 8074 14be e4ce 90bb 9b07 993c
00000150: 31d6 963d dfed 0ebd 9065 c43d cec3 a0bd
00000160: 0052 2a3d a8dc 3a3d f182 2ebd f1a7 91bd
00000170: edd5 d8bc 755c 153d 48c7 45bd 4d6f 7fbd
00000180: 1238 a0bd 1853 b6bd ca0d ab3d 34ff aebd
00000190: cb5e 8bbd f56f 143c 2284 5dbd c256 99bd
000001a0: 1f9c 8ebd 294b d23d 3807 febb 7a7e 4ebd
000001b0: dfc0 993c 04bb 05be 40d3 bbbc b045 2abd
000001c0: 9042 8c3d 9e11 083e a6c4 b93c eac0 08bd
000001d0: b2e5 df3d 147e 173c aa65 613c 0f11 21bd
000001e0: 8d16 453d c2e1 8cbd 706e c9bd 2350 babd
000001f0: a23e 7fbd 37cb 163e deb1 3d3d 8629 d9bd
00000200: 8f04 4cbd 9903 fe3c 1ad3 35bd 5483 6fbc
00000210: 4a84 00bd 2ec5 ab3d d51c 593d e7a4 0dbe
00000220: bba9 a3bd 0ecd 8dbd 312b 8dbc 3223 9e3d
00000230: 0f28 573d 9063 b7bd 9841 92bc fceb c63d
00000240: 952d 443d 235e f4bc e593 adbd 644d 193e
00000250: 1bcc dc3d d447 dcbd e5de d5bc 5941 5c3c
00000260: 0486 e1bc 445f e33c 204e bc3d c978 11be
00000270: 237d 273d 773a fc3d 3a57 363b a497 0a3d
00000280: d742 983d 3326 0dbe 1ca8 fabc 70cc d9bd
00000290: 314b af3d a261 203d 6927 99bd 2221 c539
000002a0: 07a5 73bd 2709 f3bb 24d7 fc3d fc0a c6bd
000002b0: f36e c63c 1f05 cdbc 84b4 113e f023 73bc
000002c0: 2323 a63d 3601 1c3e 2fb4 8e3d ca26 ce3d
000002d0: daca 383d 9dbd 0e3c 8789 ebbd f8de d5bd
000002e0: cb97 c53b 1356 c33d 778f ffbd 2991 afbc
000002f0: 5159 9dbc c0b6 043e cf75 84bd e792 abbd
00000300: b5c2 a43c ef59 453c eff0 5dbd f18b 80bd
00000310: 359b 38bd d5f6 e6bc 3c04 34be 91c1 94bd
00000320: d420 8a3d b2bc 2e3d 6545 42bd beac f93c
00000330: cd49 8d3c c47e 1b3e d47d b5bd 254f 503c
00000340: b565 f0bd f661 0fbe 263c c53d 228d 96bd
00000350: 15bb dc3d 8c55 093e 8dce d1bd d238 75bd
00000360: f728 9ebd 9647 87bb 44e4 06be 1055 2dbd
00000370: 120e 86bd 74a8 763d a249 b1bc 950f 183d
00000380: aa8c 2fbd b346 583d 5d31 03bc bd71 a0b9
00000390: 4a00 f4bd a8d6 14bd fe19 c63b c172 abbd
000003a0: e352 cfbd ac1f 8e3c ed7c ae3d 640b fcbc
000003b0: f184 71bd bba3 09bd 2d1e 2c3b 7489 2ebd
000003c0: a8ef 9cbb 176f a6bc 2115 86bd 2cbc b93c
000003d0: fcb2 d73d c23f c5bb a58d c03d 2c72 423d
000003e0: 86ad f3bb 01ff fd3d 92d0 6fbd 976c 4bbd
000003f0: ff90 213e b3a3 c33d b267 1abe bb1d 0b3e

encoder.1.conv_2.bias f4 [8]
-0.061689857 0.09645588 0.07173651 -0.085310295 -0.027366864 0.012245464 0.045802854 0.041941654
00000000: 81ae 7cbd a98a c53d 97ea 923d 2ab7 aebd
00000010: 7930 e0bc 33a1 483c c69b 3b3d 03cb 2b3d

encoder.2.weight f4 [8, 8, 3, 3]
-0.09452673 0.05638095 0.00031808479 -0.08929907 -0.0138754975 -0.12501061 -0.0727773 -0.026741149
-0.0138376085 0.088243574 0.07652773 0.0002684894 0.08364015 0.09121771 -0.03254966 0.002316136
-0.0066754445 -0.09999307 -0.16250947 0.12025854 0.015497073 -0.1064866 -0.03913413 -0.012046954
-0.07105754 0.10859782 0.06350356 -0.04097432 -0.022654358 0.040743783 -0.042469457 0.015270799
-0.013108047 0.043807156 0.021273974 -0.055314336 0.08155245 0.06536971 -0.012534232 -0.086203955
0.025134861 0.14510936 -0.043298703 0.07810891 0.04912278 -0.039121527 -0.05278376 -0.056881435
-0.015072308 -0.11490806 0.09213911 0.09293046 -0.07535411 0.058292676 0.0072808936 0.11060236
0.0829149 0.12403383 0.030743552 6.5883054e-05 -0.07726812 0.020147849 0.11887435 0.013793319
0.06460153 0.14355287 -0.07791337 0.06705367 -0.12862077 0.11866956 0.039154552 -0.052825287
0.09161984 -0.049923006 -0.08839846 0.1601843 -0.02777078 0.030153576 -0.046395484 0.01916235
0.025899656 0.071353704 -0.107865885 -0.056020293 0.042913307 -0.100953504 0.058565635 0.081768975
0.061817113 -0.021167966 0.11256906 0.09031538 0.09532415 -0.03617604 -0.07458625 0.11475359
0.10023375 -0.09718261 -0.05649594 0.10212225 -0.0057056635 0.13517013 0.060245827 0.09318326
0.12409334 0.09338509 0.07524698 -0.11989868 0.0134271495 -0.113439225 -0.0822815 0.06257699
-0.08577171 0.08531504 -0.09221878 0.021116696 -0.004756987 -0.0071930224 -0.116594344 -0.092956685
0.083846666 -0.0022399663 -0.0129476 -0.036069833 0.04011069 -0.066159345 0.10743767 0.12587495
0.044287737 -0.061911225 -0.014495154 0.020790717 -0.036549795 0.10463589 -0.042045716 0.14277974
-0.0448248 -0.005738073 0.09833071 0.043447558 -0.14061454 -0.039548516 0.024030752 -0.10729875
-0.0027734276 0.020512361 0.04933349 -0.10256436 0.0010473261 -0.06304795 -0.019914323 -0.060994864
-0.07233418 0.012880616 -0.0037575918 -0.024591332 -0.1186277 -0.059008762 0.124089666 0.03483621
0.082014844 0.031976603 0.05499535 -0.07512983 -0.11648728 0.157516 -0.037029803 -3.4031975e-05
0.13658887 0.04458089 -0.05571363 -0.0944706 0.06671286 0.026480993 0.09583287 0.0043792864
0.1070318 -0.06466803 0.003528101 -0.039263044 -0.065605864 0.008878215 0.013321075 0.06908363
-0.00020930011 0.15091883 0.009202057 0.013159716 -0.07893065 0.0044034473 -0.0002175103 -0.0020177597
-0.124486335 0.057880733 0.028214736 0.008733977 -0.050509248 0.132436 0.11995143 -0.09503975
-0.07221394 -0.05239556 0.05564988 -0.096445024 -0.0789459 0.068620555 -0.13581567 0.05041854
-0.1255336 0.037529167 -0.03608154 0.014244121 -0.087285474 -0.064453274 0.050735056 0.060521446
-0.09061447 -0.006586259 -0.02767568 0.049342692 0.095682636 0.037732136 -0.044726424 -0.039404094
-0.011808698 0.033806656 0.15395722 0.018574769 -0.01311211 -0.080706894 0.00065018254 0.05115815
-0.06571078 -0.009561377 -0.07196645 0.052798495 0.11310352 0.036600847 0.0645784 -0.020496871
0.040937793 -0.052539397 0.037338696 0.019195287 0.06639335 0.038984258 0.08617383 -0.15280104
-0.08185712 0.04761468 0.033691324 -0.056573253 -0.091324486 -0.0047221645 0.090240575 -0.029107297
00000000: 3b97 c1bd b6ef 663d 9ec4 a639 6ee2 b6bd
00000010: 0e56 63bc c802 00be 440c 95bd 4110 dbbc
00000020: 23b7 62bc 0cb9 b43d 92ba 9c3d 0ac4 8c39
00000030: 874b ab3d 5ad0 ba3d cb52 05bd 50ca 173b
00000040: b0bd dabb 2bc9 ccbd e268 26be 1c4a f63d
00000050: 6fe7 7d3c a615 dabd 1c4b 20bd 9660 45bc
00000060: 9e86 91bd 8968 de3d 280e 823d b0d4 27bd
00000070: a295 b9bc f4e2 263d 74f4 2dbd 6032 7a3c
00000080: 22c3 56bc 226f 333d c246 ae3c 4991 62bd
00000090: f904 a73d 8ee0 853d 615c 4dbc b38b b0bd
000000a0: a0e7 cd3c 8c97 143e fb59 31bd 90f7 9f3d
000000b0: f834 493d e53d 20bd c933 58bd 82fc 68bd
000000c0: d7f1 76bc eb54 ebbd 6eb3 bc3d 5352 be3d
000000d0: 4153 9abd 4dc4 6e3d 9094 ee3b 7d83 e23d
000000e0: 49cf a93d 7305 fe3d e7d9 fb3c b22a 8a38
000000f0: c03e 9ebd 1a0d a53c 6574 f33d 60fd 613c
00000100: cf4d 843d 86ff 123e 0c91 9fbd 6f53 893d
00000110: 2ab5 03be 0709 f33d 8660 203d 545f 58bd
00000120: 2fa3 bb3d 117c 4cbd 400a b5bd 5a07 243e
00000130: 8c7f e3bc a204 f73c 3109 3ebd 5cfa 9c3c
00000140: 842b d43c e421 923d cae8 dcbd 8975 65bd
00000150: ddc5 2f3d b6c0 cebd 85e2 6f3d 7e76 a73d
00000160: f133 7d3d 7168 adbc 9b8a e63d 45f7 b83d
00000170: 4f39 c33d 542d 14bd adc0 98bd ee03 eb3d
00000180: 5a47 cd3d ad07 c7bd 4968 67bd 7825 d13d
00000190: 93f6 babb 0a6a 0a3e 54c4 763d ddd6 be3d
000001a0: a624 fe3d af40 bf3d 171b 9a3d 708d f5bd
000001b0: 8cfd 5b3c d352 e8bd 3483 a8bd 5d28 803d
000001c0: 14a9 afbd a7b9 ae3d 33dd bcbd ecfc ac3c
000001d0: 80e0 9bbb 72b3 ebbb 04c9 eebd 1360 bebd
000001e0: cdb7 ab3d 66cc 12bb 2c22 54bc f6bd 13bd
000001f0: 1b4b 243d 8d7e 87bd 4808 dc3d 5de5 003e
00000200: 0f67 353d a096 7dbd 157d 6dbc 4b51 aa3c
00000210: 3db5 15bd 574b d63d 2138 2cbd da34 123e
00000220: 369a 37bd 7206 bcbb 9c61 c93d 11f6 313d
00000230: 42fd 0fbe a0fd 21bd 24dc c43c 72bf dbbd
00000240: 65c2 35bb 8a09 a83c ea11 4a3d 430d d2bd
00000250: 6f46 893a 491f 81bd 5d23 a3bc c0d5 79bd
00000260: f123 94bd 3809 533c ee41 76bb c373 c9bc
00000270: 14f3 f2bd 2cb3 71bd b922 fe3d 6ab0 0e3d
00000280: 66f7 a73d e6f9 023d ce42 613d abdd 99bd
00000290: e290 eebd e04b 213e 90ac 17bd 8ebd 0eb8
000002a0: f4dd 0b3e 749a 363d fa33 64bd cd79 c1bd
000002b0: c0a0 883d abee d83c 0644 c43d 1e80 8f3b
000002c0: 7d33 db3d ac70 84bd b637 673b 49d2 20bd
000002d0: 5e5c 86bd ef75 113c a340 5a3c b87b 8d3d
000002e0: 9277 5bb9 778a 1a3e 39c4 163c d99b 573c
000002f0: 65a6 a1bd cb4a 903b 7a13 64b9 643c 04bb
00000300: b1f2 febd 5914 6d3d 9722 e73c f418 0f3c
00000310: c9e2 4ebd 4e9d 073e 18a9 f53d 33a4 c2bd
00000320: e7e4 93bd ba9c 56bd 21f1 633d f884 c5bd
00000330: 63ae a1bd ef88 8c3d 4313 0bbe ac83 4e3d
00000340: e18b 00be 2fb8 193d 3dca 13bd 2c60 693c
00000350: bac2 b2bd 1400 84bd 90cf 4f3d 56e5 773d
00000360: 1494 b9bd 8cd1 d7bb 1cb8 e2bc 901b 4a3d
00000370: 42f5 c33d 038d 1a3d 0e33 37bd 3066 21bd
00000380: 4579 41bc d978 0a3d f6a6 1d3e 1d2a 983c
00000390: 2dd4 56bc a849 a5bd 0371 2a3a 358b 513d
000003a0: 6093 86bd 52a7 1cbc 2563 93bd 3c43 583d
000003b0: d1a2 e73d c5ea 153d ae41 843d 0ee9 a7bc
000003c0: 63ae 273d 8d33 57bd 76f0 183d 6f3f 9d3c
000003d0: 3df9 873d f5ad 1f3d e87b b03d e077 1cbe
000003e0: b5a4 a7bd 9c07 433d eaff 093d 5bb9 67bd
000003f0: 5508 bbbd 63bc 9abb 0dd0 b83d 6d72 eebc

encoder.2.bias f4 [8]
-0.005939234 -0.07657894 0.088599905 0.063543685 -0.12416105 -0.03824291 -0.004762896 0.018747019
00000000: e89d c2bb 6bd5 9cbd de73 b53d 3123 823d
00000010: 2648 febd 99a4 1cbd 1112 9cbb 5993 993c

encoder.3.groupnorm_1.weight f4 [8]
1.004231 1.0179148 1.0041095 1.0132774 1.0164547 0.92227167 1.0154172 0.9931099
00000000: a48a 803f 084b 823f a986 803f 13b3 813f
00000010: 301b 823f ff19 6c3f 31f9 813f 733c 7e3f

encoder.3.groupnorm_1.bias f4 [8]
-0.0012270355 0.031165212 0.028292798 0.027324552 0.006549422 -0.08388147 -0.0317831 0.008531164
00000000: 7bd4 a0ba 304e ff3c 4cc6 e73c bdd7 df3c
00000010: 899c d63b 0cca abbd ff2e 02bd 4cc6 0b3c

encoder.3.conv_1.weight f4 [16, 8, 3, 3]
-0.041568097 0.014031681 -0.06574572 0.019451786 -0.05781153 -0.06018958 0.00028470342 0.15059905
0.07243026 0.06975274 0.037764367 -0.03565441 0.035205137 0.0010134797 -0.0020993478 -0.08817647
0.0959106 0.059929837 0.010904493 0.019419955 0.04001456 -0.004280224 -0.11762443 0.047156323
0.029813029 0.066885814 0.02499146 0.114370935 0.12344991 0.04635768 0.057238113 -0.053310428
-0.078938186 0.058951948 0.0319733 -0.11493968 -0.09035112 -0.14142051 0.029843777 0.03269592
-0.040668923 -0.05788024 -0.02238547 -0.1364024 -0.13330624 -0.13974911 0.0662499 0.07110723
0.07183875 0.025367344 0.056982305 -0.027695952 0.06991215 -0.16142954 -0.02721225 0.047122527
0.052901324 0.051832948 0.11271942 0.058822952 0.06625063 -0.07213243 -0.12931731 0.048548836
0.07770928 0.018030593 0.06233765 -0.055577673 0.06331555 0.06862674 -0.02303343 -0.12319459
-0.051849604 -0.013425257 -0.080028266 -0.013174345 0.02919046 -0.14729448 -0.08300644 -0.10914381
-0.025818901 0.059472423 -0.061322395 0.10777199 0.009141878 0.057985276 0.009891612 0.11147291
-0.0515385 0.012304163 -0.05086482 0.09116374 0.02809484 -0.13588491 -0.004082788 0.060917035
-0.096480906 0.07625394 -0.1582428 0.0887872 0.03799577 0.12579414 0.0005231218 -0.039153896
-0.03038186 0.016320096 -0.021033827 -0.075001694 0.013446428 0.0109300595 0.08091429 0.12837398
0.13268432 -0.11115226 0.04570794 -0.14936744 -0.08686493 -0.06648538 -0.037946478 0.007488783
-0.039831515 0.009815584 0.07747493 -0.1085689 -0.07035174 -0.09618543 -0.11598573 -0.12853914
0.01063155 0.0949834 -0.05812434 -0.038339987 0.12893525 -0.10654089 0.012043953 -0.06022665
0.120896265 0.07752566 0.10958332 -0.047592077 -0.09599208 0.09146831 -0.04012486 -0.086358026
0.03702349 -0.07035479 0.0889542 -0.072963715 0.016900264 0.07337923 -0.055652972 -0.011861723
-0.07909037 -0.022322763 -0.012312453 0.029757462 -0.1370639 0.010533473 -0.030030336 0.047425713
-0.14619742 -0.074054204 0.09207098 0.12742712 -0.020120341 0.083964795 -0.099726535 0.11124368
-0.092477955 0.031929035 -0.0006077074 0.027206419 -0.14588259 0.059675343 0.11076894 -0.055011656
0.11155165 0.031637087 0.06164863 -0.04655008 -0.10929694 -0.033530157 -0.14092556 -0.04181596
-0.051599473 -0.07939203 0.036748875 -0.0091937715 -0.09448452 -0.0471972 0.081644595 0.06277054
-0.006830151 -0.017025344 -0.04847116 0.05239638 -0.020046944 -0.09833554 0.03786902 -0.09173902
-0.10514479 -0.008988473 0.10854561 0.09808782 -0.00783272 0.034574073 -0.015488301 -0.07892681
0.018609134 0.0708402 -0.06723351 0.11684163 -0.043955784 -0.013575746 -0.0660485 0.040255997
0.075273596 0.04251866 -0.14122126 0.0808781 0.042379 -0.024721313 -0.0577744 -0.0018709365
0.05117475 0.00018690174 0.08137548 0.032473825 0.011384199 -0.04410093 -0.037930902 0.10155117
-0.0570913 0.016064351 0.13005297 -0.03474724 0.09145029 0.023673719 -0.106271215 0.045096036
-0.14002731 -0.021980552 -0.035059117 -0.064264975 0.1458341 -0.035993002 0.06568392 -0.046768047
-0.0005594461 -0.05333679 0.061878335 0.0013822706 0.15692307 -0.017915366 0.0828432 -0.11717113
00000000: 4f43 2abd 23e5 653c b1a5 86bd 5a59 9f3c
00000010: c8cb 6cbd 5989 76bd 3f44 9539 a336 1a3e
00000020: 5156 943d 86da 8e3d cfae 1a3d 5c0a 12bd
00000030: 4333 103d bcd6 843a 3695 09bb dd95 b4bd
00000040: c76c c43d fd78 753d c2a8 323c 9916 9f3c
00000050: 4fe6 233d 1f41 8cbb 14e5 f0bd fd26 413d
00000060: 743a f43c 6efb 883d e4ba cc3c 4f3b ea3d
00000070: 4ed3 fc3d 8de1 3d3d 8372 6a3d 095c 5abd
00000080: 58aa a1bd 9977 713d 6ff6 023d 7f65 ebbd
00000090: 020a b9bd 8ad0 10be f07a f43c 28ec 053d
000000a0: 7594 26bd d513 6dbd bc61 b7bc 12ad 0bbe
000000b0: 6e81 08be 641a 0fbe 07ae 873d aba0 913d
000000c0: 3220 933d 2dcf cf3c 4766 693d 9fe2 e2bc
000000d0: 1a2e 8f3d c94d 25be 39ec debc 8d03 413d
000000e0: 0faf 583d c94e 543d 70d9 e63d 56f0 703d
000000f0: 69ae 873d 2bba 93bd c26b 04be 25db 463d
00000100: 0b26 9f3d e5b4 933c c455 7f3d 6aa5 63bd
00000110: 95ab 813d 2d8c 8c3d 9bb0 bcbc 724d fcbd
00000120: 4060 54bd 9cf5 5bbc dce5 a3bd 35d9 57bc
00000130: d520 ef3c 5dd4 16be 48ff a9bd ca86 dfbd
00000140: 2982 d3bc 5b99 733d 312d 7bbd 90b7 dc3d
00000150: d1c7 153c f881 6d3d 6e10 223c e94b e43d
00000160: 091a 53bd 6697 493c a157 50bd 0eb4 ba3d
00000170: 2627 e63c 6a25 0bbe e8c8 85bb 2484 793d
00000180: c897 c5bd 072b 9c3d 670a 22be 10d6 b53d
00000190: 74a1 1b3d 2ed0 003e 1c22 093a d65f 20bd
000001a0: 61e3 f8bc b9b1 853c 224f acbc 7d9a 99bd
000001b0: 684e 5c3c fe13 333c 64b6 a53d 7874 033e
000001c0: 66de 073e cca3 e3bd 4038 3b3d c7f3 18be
000001d0: 3ee6 b1bd 7d29 88bd c46d 1bbd 7764 f53b
000001e0: 5f26 23bd 8bd1 203c 2dab 9e3d 5f59 debd
000001f0: 9314 90bd defc c4bd ed89 edbd c49f 03be
00000200: f42f 2e3c a886 c23d ca13 6ebd 640a 1dbd
00000210: 9a07 043e 1c32 dabd 0054 453c 38b0 76bd
00000220: 7698 f73d c6c5 9e3d 386d e03d e9ef 42bd
00000230: 7f97 c4bd bd53 bb3d f759 24bd 7adc b0bd
00000240: f1a5 173d 2c16 90bd 9f2d b63d 006e 95bd
00000250: 6c72 8a3c da47 963d 5ff4 63bd ac57 42bc
00000260: 22fa a1bd 3ade b6bc 2cba 49bc ecc5 f33c
00000270: 7b5a 0cbe 9794 2c3c 2e02 f6bc 7741 423d
00000280: c7b4 15be bba9 97bd b68f bc3d 417c 023e
00000290: 6ad3 a4bc bcf5 ab3d 6d3d ccbd bad3 e33d
000002a0: 1565 bdbd 05c8 023d 8e4e 1fba ffdf de3c
000002b0: 3f62 15be 226e 743d d3da e23d e753 61bd
000002c0: 3175 e43d e495 013d 4683 7c3d 4cab 3ebd
000002d0: 13d7 dfbd eb56 09bd ca4e 10be 3647 2bbd
000002e0: f859 53bd 4a98 a2bd fd85 163d 79a1 16bc
000002f0: 1a81 c1bd da51 41bd 4835 a73d d78d 803d
00000300: 76cf dfbb bc78 8bbc b289 46bd 969d 563d
00000310: 7d39 a4bc 2564 c9bd 8c1c 1b3d abe1 bbbd
00000320: 2756 d7bd 6344 13bc 294d de3d 44e2 c83d
00000330: cf54 00bc 8b9d 0d3d a5c2 7dbc 61a4 a1bd
00000340: 2f72 983c ab14 913d b9b1 89bd aa4a ef3d
00000350: fb0a 34bd ce6c 5ebc 7044 87bd 79e3 243d
00000360: 0b29 9a3d 0c28 2e3d 4e9c 10be 6ba3 a53d
00000370: 9a95 2d3d 5a84 cabc d9a4 6cbd 363a f5ba
00000380: 9d9c 513d 0efb 4339 30a8 a63d 4603 053d
00000390: cb84 3a3c 2da3 34bd 6f5d 1bbd 0ffa cf3d
000003a0: 91d8 69bd 6399 833c 9b2c 053e 1f53 0ebd
000003b0: 4a4a bb3d 63ef c13c b9a4 d9bd 9fb6 383d
000003c0: 5263 0fbe 8f10 b4bc 269a 0fbd 5b9d 83bd
000003d0: 8955 153e 666d 13bd 4b85 863d da8f 3fbd
000003e0: cba7 12ba ae77 5abd 2374 7d3d 4e2d b53a
000003f0: 71b0 203e 3fc3 92bc b2a9 a93d 6bf7 efbd

encoder.3.conv_1.bias f4 [16]
-0.022743862 0.024644537 0.030199762 -0.02446429 -0.14404649 0.06416183 0.02189828 -0.034860987
0.03697187 0.092394665 -0.0577007 -0.032283638 0.064575724 0.081451446 0.00027358552 0.08168851
00000000: 5651 babc 57e3 c93c 7e65 f73c 5669 c8bc
00000010: ec80 13be 4767 833d 0664 b33c 65ca 0ebd
00000020: d16f 173d 6a39 bd3d 9257 6cbd d93b 04bd
00000030: 4740 843d 04d0 a63d 0770 8f39 4e4c a73d

encoder.3.groupnorm_2.weight f4 [16]
0.9992044 1.0083075 1.012323 1.0068115 0.98437124 1.0050354 0.99915034 0.99713695
0.9950128 0.984179 1.0341271 1.014469 1.030557 1.0146035 0.99191064 0.9723218
00000000: dccb 7f3f 3810 813f cd93 813f 33df 803f
00000010: c1ff 7b3f 00a5 803f 51c8 7f3f 5e44 7f3f
00000020: 29b9 7e3f 28f3 7b3f 475e 843f 1fda 813f
00000030: 4be9 833f 87de 813f dbed 7d3f 15ea 783f

encoder.3.groupnorm_2.bias f4 [16]
-0.03893997 -0.005095999 -0.018854262 -0.029364571 -0.044672694 -0.01644486 -0.028892092 -0.05319767
-0.029376812 -0.029744957 -0.028522046 0.006277308 0.0028003836 -0.0033357316 -0.049926493 -0.045701414
00000000: 857f 1fbd 57fc a6bb 4174 9abc f88d f0bc
00000010: b7fa 36bd 5fb7 86bc 1caf ecbc cde5 59bd
00000020: a4a7 f0bc b2ab f3bc 11a7 e9bc e0b1 cd3b
00000030: a486 373b 4a9c 5abb b97f 4cbd 6831 3bbd

encoder.3.conv_2.weight f4 [16, 16, 3, 3]
-0.04815893 0.009323524 -0.027639665 -0.07006852 -0.094473384 -0.037091088 0.01861147 -0.035443995
-0.08003998 0.020371187 0.0238173 0.06289758 -0.08767893 -0.009792991 0.005480864 0.03794299
-0.0030090103 -0.06243436 -0.06414327 -0.01132116 -0.059808183 0.055592306 0.003282171 0.013333854
0.039876565 -0.062139504 -0.074168704 -0.037781388 -0.046675637 0.02541993 0.021921687 0.0110516595
0.0720613 -0.03666584 -0.01541875 -0.10482322 -0.053066738 0.092191674 -0.0026381928 0.01579215
0.07438119 -0.0191945 0.0047548837 0.05515893 -0.005714786 0.03260258 -0.098290555 0.00071656617
-0.02148129 -0.009285257 -0.08321866 -0.08193396 -0.0011606019 0.019599462 -0.04393975 -0.017799266
-0.036281575 -0.0040923697 -0.0075045 -0.02797605 -0.01440889 -0.06413291 -0.047424573 0.08486993
-0.016626691 -0.07559824 0.038960945 0.03808009 0.009042053 -0.027708823 -0.03960998 -0.079230815
0.013376564 0.05524761 0.042954523 0.07922539 -0.02185541 -0.048086084 0.0057347533 -0.010964562
-0.0013439509 -0.045980647 -0.068953186 -0.053304344 -0.031387113 0.03694508 0.045286056 -0.0027918322
-0.07043858 -0.04009316 0.010221994 0.0388835 -0.04213775 0.030972084 -0.08026417 -0.07647855
0.102503404 0.034641676 0.03191628 0.02938975 0.024995409 0.06584239 0.04960826 -0.06296049
-0.10985722 0.052182667 0.104919516 -0.10755958 -0.030299654 -0.059688497 -0.15270095 0.067490086
0.103134215 -0.09386256 0.0050447234 0.10553957 0.027143357 0.025770297 -0.07792034 -0.07172743
0.03468763 0.024458556 -0.038351458 -0.084140465 0.04050965 -0.06543739 -0.010110107 -0.020857885
-0.03434634 0.06222962 -0.06554219 -0.02545957 0.072530285 -0.07082139 0.06597186 -0.06228946
0.013908147 -0.019039543 0.025438137 -0.02062512 0.027887756 0.009699327 0.025336001 -0.059805356
-0.08576385 0.055685353 -0.116550215 -0.079571016 0.076938465 -0.07072234 -0.0760984 0.055622417
0.05915376 -0.019861968 -0.0424946 -0.06506119 -0.094540395 -0.046153627 -0.08616164 0.12579024
-0.05352939 0.049394354 -0.10677498 -0.09697515 0.01656219 0.07125638 0.021325931 0.11431149
-0.014407453 0.022784151 0.041236192 -0.041054238 -0.008405081 0.03713165 -0.07277245 -0.05115129
0.030941822 0.041845083 -0.025342755 0.038880505 -0.0007306949 0.021253888 -0.060075708 -0.07091176
-0.09782951 -0.056179002 -0.077155024 -0.014203009 -0.08172881 -0.04255922 0.020496305 0.07537314
-0.09054262 0.09211909 -0.079679385 -0.075659096 0.056442466 -0.083429955 -0.013823609 0.11914696
0.008230442 -0.004546339 0.030407727 0.07656596 -0.09541627 0.008489833 0.02030703 -0.08538784
0.07134737 0.09114534 0.048585765 0.04333426 -0.08733054 -0.091585666 0.008166678 0.054650966
0.051473208 -0.032184433 -0.12490845 -0.0384442 -0.023415219 0.05375938 0.020299682 0.06197636
0.0550409 -0.05525053 0.033148482 0.02160835 0.04863497 -0.0649495 0.073863626 0.009479773
-0.0022712809 0.036537655 0.030662749 -0.044677924 -0.06484174 0.018051099 -0.090182915 -0.03550689
-0.08088562 -0.028464274 -0.005053551 0.083833806 0.07328484 0.043650176 0.033622615 0.0077296253
0.004164985 -0.03742842 -0.06609278 -0.03423633 0.03195768 -0.13756019 -0.11901336 -0.058948707
00000000: 4c42 45bd b2c1 183c 946c e2bc 1680 8fbd
00000010: 437b c1bd d3ec 17bd 1577 983c b92d 11bd
00000020: 00ec a3bd 7ae1 a63c 801c c33c 72d0 803d
00000030: 0391 b3bd c872 20bc d298 b33b 1c6a 1b3d
00000040: d132 45bb 2cbb 7fbd 8c5d 83bd 637c 39bc
00000050: 6df9 74bd c2b4 633d b119 573b 3d76 5a3c
00000060: 9c55 233d fe85 7ebd c3e5 97bd a8c0 1abd
00000070: f42e 3fbd 753d d03c 1c95 b33c 0512 353c
00000080: e094 933d eb2e 16bd ed9e 7cbc 8ead d6bd
00000090: 825c 59bd fdce bc3d 88e5 2cbb 8a5e 813c
000000a0: 2a55 983d c93d 9dbc dbce 9b3b 55ee 613d
000000b0: 1943 bbbb 488a 053d 8f4c c9bd f1d7 3b3a
000000c0: 88f9 afbc 3121 18bc 8b6e aabd fecc a7bd
000000d0: 561f 98ba 0d8f a03c 2bfa 33bd c4cf 91bc
000000e0: fd9b 14bd 4919 86bb 4fe8 f5bb 072e e5bc
000000f0: 4413 6cbc 1d58 83bd 4540 42bd 49d0 ad3d
00000100: b334 88bc 40d3 9abd 8395 1f3d def9 1b3d
00000110: 1e25 143c 9dfd e2bc 133e 22bd c443 a2bd
00000120: 6029 5b3c 514b 623d 15f1 2f3d ec40 a23d
00000130: 1e0a b3bc eaf5 44bd 99ea bb3b b5a4 33bc
00000140: 8227 b0ba 3456 3cbd 5437 8dbd a855 5abd
00000150: c68f 00bd b953 173d df7d 393d 2cf7 36bb
00000160: 1a42 90bd ba38 24bd 267a 273c 4e44 1f3d
00000170: a298 2cbd 2bb9 fd3c 8b61 a4bd c9a0 9cbd
00000180: 4eed d13d 6ee4 0d3d a5ba 023d c6c2 f03c
00000190: 2cc3 cc3c 60d8 863d 0832 4b3d 6ef1 80bd
000001a0: d2fc e0bd 7ebd 553d 0be0 d63d 3248 dcbd
000001b0: fb36 f8bc ed7b 74bd a35d 1cbe 3e38 8a3d
000001c0: 0838 d33d 043b c0bd 354e a53b 2125 d83d
000001d0: bf5b de3c 3b1c d33c b394 9fbd d5e5 92bd
000001e0: 9e14 0e3d 4f5d c83c 6b16 1dbd d651 acbd
000001f0: 72ed 253d 0a04 86bd dda4 25bc 28de aabc
00000200: bfae 0cbd 7ce4 7e3d fc3a 86bd 9790 d0bc
00000210: c28a 943d ce0a 91bd 411c 873d 3c23 7fbd
00000220: ffde 633c d1f8 9bbc a463 d03c 03f6 a8bc
00000230: dd74 e43c ede9 1e3c 728d cf3c 76f6 74bd
00000240: f5a4 afbd 5316 643d e1b1 eebd 21f6 a2bd
00000250: ea91 9d3d e0d6 90bd 7ad9 9bbd 55d4 633d
00000260: 374b 723d 91b5 a2bc d10e 2ebd cd3e 85bd
00000270: 659e c1bd 960b 3dbd 8475 b0bd 28cf 003e
00000280: a241 5bbd bc51 4a3d d7ac dabd e89a c6bd
00000290: 6ead 873c ddee 913d b8b3 ae3c 241c ea3d
000002a0: 3d0d 6cbc d4a5 ba3c 48e7 283d 7d28 28bd
000002b0: 77b5 09bc 5b17 183d b909 95bd 0484 51bd
000002c0: b479 fd3c c065 2b3d 9c9b cfbc 2a41 1f3d
000002d0: 1b8c 3fba a21c ae3c f211 76bd 2f3a 91bd
000002e0: d75a c8bd f41b 66bd 7403 9ebd bdb3 68bc
000002f0: 6f61 a7bd 9452 2ebd dee7 a73c 3c5d 9a3d
00000300: 696e b9bd efa8 bc3d f22e a3bd 28f3 9abd
00000310: 3730 673d 53dd aabd 6b7c 62bc 5203 f43d
00000320: fad8 063c 75f9 94bb a019 f93c 9dce 9c3d
00000330: 9b69 c3bd f118 0b3c ee5a a63c d2df aebd
00000340: 921e 923d 68aa ba3d de01 473d 447f 313d
00000350: 5bda b2bd 4491 bbbd 88cd 053c b1d9 5f3d
00000360: 92d5 523d d3d3 03bd 00d0 ffbd aa77 1dbd
00000370: 46d1 bfbc cc32 5c3d 854b a63c ecda 7d3d
00000380: 9172 613d 614e 62bd b4c6 073d ff03 b13c
00000390: 7635 473d 3e04 85bd d045 973d 0d51 1b3c
000003a0: c5d9 14bb 82a8 153d 7230 fb3c 3300 37bd
000003b0: bfcb 84bd e6df 933c d2b1 b8bd ac6f 11bd
000003c0: 5ca7 a5bd e92d e9bc 4298 a5bb 0fb1 ab3d
000003d0: 5d16 963d 87ca 323d deb7 093d cc48 fd3b
000003e0: 6d7a 883b 8b4e 19bd a75b 87bd 653b 0cbd
000003f0: 0ee6 023d 94dc 0cbe 47bd f3bd 3374 71bd

encoder.3.conv_2.bias f4 [16]
-0.03407071 0.08114851 0.033422876 0.005264463 -0.018114777 0.00747261 0.022895219 -0.022593882
-0.0006956358 0.05233527 0.051708084 0.022145482 0.07042088 0.03869607 -0.0025911713 -0.06949766
00000000: bb8d 0bbd 3131 a63d 6de6 083d 8481 ac3b
00000010: 7165 94bc ccdc f43b c18e bb3c ce16 b9bc
00000020: 545b 36ba 825d 563d dbcb 533d 716a b53c
00000030: d338 903d c57f 1e3d a4d0 29bb ca54 8ebd

encoder.3.residual_layer.weight f4 [16, 8, 1, 1]
0.24338281 -0.011189508 -0.059669606 -0.30993477 0.29397586 0.27427903 -0.293108 0.27444378
-0.0031466617 -0.28755805 0.110518426 0.3064 -0.23376781 0.2436471 0.31794137 -0.1856602
0.09865868 -0.015326605 -0.24562162 0.31523612 -0.29569986 -0.26793477 0.25331727 -0.27570376
0.29440928 0.29963064 -0.07341399 -0.13037166 -0.18291426 0.33936757 -0.2522926 0.14030057
-0.13017325 -0.2616372 0.2821934 0.24617167 -0.29774222 0.25832555 -0.30707073 -0.017524198
-0.17306799 0.053728074 0.16431165 0.17623049 0.13439809 -0.13864015 -0.2781042 -0.2658679
0.1871417 -0.30773348 0.24122998 0.33380884 0.16135706 0.18818864 -0.10429789 0.30421442
0.27882633 0.18160984 -0.06365956 0.016294254 -0.2850594 0.302058 -0.28014636 0.22198844
0.16124177 -0.06015981 0.3791019 -0.048783362 -0.31625438 -0.05460465 -0.27251425 0.036457114
0.14806493 0.22863473 0.29095742 0.10203634 0.22936307 0.22278851 -0.07239053 -0.16383529
0.22424385 -0.022990713 -0.30824932 0.012065738 -0.1709816 -0.21973579 -0.08492687 0.30888942
-0.06155605 0.32237273 -0.073494785 -0.32837942 -0.17757083 -0.25111845 0.086299405 -0.2014724
0.02814558 -0.19786948 0.07063675 0.17295992 0.013463647 0.21819623 0.19143467 -0.21383916
-0.30741364 0.3212275 -0.1151348 -0.17694704 0.027033787 -0.2480409 -0.3424901 -0.015782999
-0.1683214 0.14390145 0.06534687 -0.16620488 -0.19017248 -0.24657166 0.0031200934 0.08117407
-0.047978524 -0.037551288 -0.010595429 0.02689321 0.2371988 0.079406485 0.1592096 0.2060965
00000000: 5839 793e 3354 37bc 1e68 74bd c5af 9ebe
00000010: 0184 963e 4d6e 8c3e 4012 96be e583 8c3e
00000020: 3938 4ebb cf3a 93be 7c57 e23d 76e0 9c3e
00000030: d460 6fbe a07e 793e 36c9 a23e b51d 3ebe
00000040: 900d ca3d 711c 7bbc 3c84 7bbe a166 a13e
00000050: f965 97be bf2e 89be cdb2 813e 0b29 8dbe
00000060: d0bc 963e 3069 993e 135a 96bd 2680 05be
00000070: e04d 3bbe 96c1 ad3e 7f2c 81be f4aa 0f3e
00000080: 234c 05be 50f5 85be a77b 903e 6d14 7c3e
00000090: ab71 98be 3f43 843e 6038 9dbe e88e 8fbc
000000a0: bc38 31be f811 5c3d 5041 283e c475 343e
000000b0: a79f 093e aff7 0dbe ac63 8ebe d61f 88be
000000c0: 13a2 3f3e 3e8f 9dbe fe04 773e fee8 aa3e
000000d0: c93a 253e 86b4 403e 229a d5bd fec1 9b3e
000000e0: 53c2 8e3e eef7 393e f25f 82bd 877b 853c
000000f0: 4ef3 91be 59a7 9a3e 586f 8fbe f050 633e
00000100: 901c 253e 226a 76bd a519 c23e 10d1 47bd
00000110: 18ec a1be 20a9 5fbd fd86 8bbe 0e54 153d
00000120: 559e 173e 391f 6a3e 5ff8 943e 6ef8 d03d
00000130: 27de 6a3e ac22 643e 7c41 94bd 70c4 27be
00000140: 2ea0 653e 0557 bcbc dbd2 9dbe 60af 453c
00000150: cd15 2fbe 6b02 61be 24ee adbd c126 9e3e
00000160: 3222 7cbd 0a0e a53e 6f84 96bd 5921 a8be
00000170: 21d5 35be 9992 80be bebd b03d c84e 4ebe
00000180: 8f91 e63c 4c9e 4abe 00aa 903d 681c 313e
00000190: a196 5c3c d56e 5f3e 7307 443e a7f8 5abe
000001a0: 5265 9dbe ee77 a43e cbcb ebbd 9b31 35be
000001b0: f675 dd3c 6ffe 7dbe dd5a afbe 594b 81bc
000001c0: 725c 2cbe e75a 133e 94d4 853d 9d31 2abe
000001d0: 93bc 42be 487d 7cbe 7b7a 4c3b 973e a63d
000001e0: 2185 44bd 61cf 19bd 7398 2dbc 264f dc3c
000001f0: 3ee4 723e de9f a23d d707 233e f60a 533e

encoder.3.residual_layer.bias f4 [16]
0.12831484 0.18642388 -0.18908127 0.23484713 -0.21547395 0.30953652 -0.029039824 -0.15817806
0.018457394 -0.047443196 -0.3094009 -0.062128823 -0.19281396 -0.060365003 0.10248372 -0.28832078
00000000: f764 033e e7e5 3e3e 859e 41be c47b 703e
00000010: 34a5 5cbe 927b 9e3e ede4 edbc 6ef9 21be
00000020: f633 973c cc53 42bd cb69 9ebe cb7a 7ebd
00000030: 0671 45be 4b41 77bd fce2 d13d c89e 93be

encoder.4.groupnorm_1.weight f4 [16]
0.99806345 1.0217427 1.0208458 0.9892397 1.0526193 0.9933757 1.0270058 0.99456304
1.0045978 0.9984047 1.0348327 1.0200833 1.0278611 0.9853744 1.040036 0.9989785
00000000: 1681 7f3f 77c8 823f 13ab 823f d03e 7d3f
00000010: 3bbc 863f df4d 7e3f ed74 833f af9b 7e3f
00000020: a996 803f 7397 7f3f 6675 843f 1792 823f
00000030: f490 833f 7f41 7c3f e61f 853f 0ebd 7f3f

encoder.4.groupnorm_1.bias f4 [16]
-0.040440433 -0.03520183 -0.007229759 -0.007870416 -0.0331774 -0.030767191 -0.05262232 -0.031514093
-0.0403712 -0.040514674 -0.01947683 -0.027358009 -0.021538109 -0.017949425 0.015006112 -0.06140004
00000000: dea4 25bd cb2f 10bd 9de7 ecbb ebf2 00bc
00000010: 06e5 07bd 7a0b fcbc 808a 57bd ec14 01bd
00000020: 455c 25bd b7f2 25bd df8d 9fbc e71d e0bc
00000030: b070 b0bc ac0a 93bc 32dc 753c 9c7e 7bbd

encoder.4.conv_1.weight f4 [16, 16, 3, 3]
-0.03436716 0.00814135 -0.0027949363 0.03828262 0.0388097 -0.071420945 0.009090981 -0.08994123
0.057920773 0.067022055 0.067014806 0.02295355 0.05107232 -0.046862185 -0.062061395 0.024305971
-0.0060774577 -0.0027022264 -0.043478068 -0.058954686 -0.061329786 0.026616551 -0.02127868 -0.00087465346
-0.121107616 0.01366883 0.017410457 0.0907789 0.009564793 -0.0037374177 0.095064275 -0.059261717
0.022410473 -0.055712197 0.116765164 0.042494997 0.010215723 -0.098138265 0.0015346248 -0.0008183636
-0.0059357095 0.017433845 0.015394628 -0.004112309 0.020154372 0.0037547715 -0.005242968 -0.084746234
0.061646566 -0.09529278 -0.070645586 0.022547325 -0.066356935 0.06789372 0.026907858 -0.021338984
-0.07996081 0.049803015 -0.05877559 -0.045968637 0.06648985 0.01805205 0.043884717 0.06127944
-0.039566938 -0.007414189 -0.042360168 0.044259515 -0.0073254835 -0.07268693 0.13404015 -0.027890394
-0.03998428 -0.05766961 -0.039870802 0.0076603494 -0.10780973 0.023659687 0.11355743 0.034716614
0.012822537 -0.03025406 -0.09628543 -0.0024763911 0.008981612 0.051019292 0.12879734 0.01997546
0.051456753 0.062633134 0.04556032 0.12386274 -0.0524559 0.01750884 -0.03435586 -0.08453783
-0.12909393 -0.0035383655 -0.060735114 0.114193305 -0.10562086 -0.055463947 0.012847592 0.0045659565
-0.04099329 -0.04529494 -0.038121413 -0.045269206 -0.080203086 -0.036841948 0.0073524253 -0.09826703
0.066896416 0.002081393 -0.0052395705 -0.014516835 0.003642119 -0.06458748 -0.06504156 -0.11328046
0.08770644 0.03479142 0.033407617 0.041608337 0.029762618 -0.04518579 0.052661404 -0.007795801
0.08118741 0.00046837988 0.13991843 0.05802957 -0.14326748 0.010807175 0.10112654 -0.06782818
-0.010519601 -0.049566895 -0.037874553 -0.053875297 -0.06918547 -0.06766684 -0.1446524 -0.12491979
-0.015451182 0.057134125 -0.07763306 0.083808884 0.08439955 0.045811497 -0.0603275 -0.014524427
0.042240173 -0.07705185 0.087367594 0.018952098 -0.055547316 0.07513033 -0.00867733 -0.0007278537
-0.048444983 0.031656377 0.034611534 -0.11527151 0.009759453 -0.06680002 0.09227601 0.07467124
-0.010065791 0.001573354 0.039428122 -0.06877387 0.061529826 -0.10881822 -0.010025669 0.010052494
0.06321758 -0.09639343 -0.018685196 -0.0892288 -0.07591674 -0.06037153 0.051658478 0.12581374
0.049679257 0.0036243503 0.06327096 0.108595334 -0.027889572 -0.07101109 -0.026677728 -0.0811492
0.024394467 -0.040908143 0.014232879 0.0218256 0.07669634 -0.116860256 0.04082434 -0.02030685
0.018191308 0.006864565 0.07229487 0.053145558 -0.030748947 -0.0040017604 0.044941153 0.07811901
0.017480252 0.03217315 -0.024030123 0.02875697 0.07083156 -0.0666845 0.062073786 0.107493125
0.02416966 0.014277097 -0.08206815 0.038300585 -0.06381463 0.087735616 -0.026451001 -0.011710222
-0.057522044 -0.043284006 0.036450353 -0.06261084 -0.079909764 0.065300085 0.01336794 0.02836972
0.04256291 -0.009066445 0.024612183 0.036422618 -0.099656865 0.13139102 -0.10109055 0.031128298
-0.035174944 -0.03356353 0.096619435 -0.06585069 -0.11201183 0.03745816 -0.038791653 0.02788774
0.07562389 0.03662461 -0.061118513 -0.0659151 -0.13682911 -0.067046784 -0.06105289 0.05050778
00000000: 94c4 0cbd 4c63 053c 402b 37bb 3dce 1c3d
00000010: ecf6 1e3d 2545 92bd 57f2 143c 1c33 b8bd
00000020: 553e 6d3d dc42 893d 0f3f 893d 1509 bc3c
00000030: 3631 513d 90f2 3fbd 1734 7ebd 511d c73c
00000040: 6925 c7bb d617 31bb 0f16 32bd 787a 71bd
00000050: f134 7bbd f40a da3c a050 aebc 0049 65ba
00000060: 4507 f8bd 3af3 5f3c 60a0 8e3c 4aea b93d
00000070: a6b5 1c3c 77ef 74bb 0fb1 c23d 6abc 72bd
00000080: 2b96 b73c 7932 64bd 9322 ef3d 3c0f 2e3d
00000090: d95f 273c b7fc c8bd 7725 c93a 7487 56ba
000000a0: 5780 c2bb 6cd1 8e3c c039 7c3c 8cc0 86bb
000000b0: c81a a53c 9d12 763b 34cd abbb 6f8f adbd
000000c0: 1c81 7c3d dc28 c3bd a2ae 90bd 2bb5 b83c
000000d0: 25e6 87bd dd0b 8b3d de6d dc3c 18cf aebc
000000e0: 7ec2 a3bd 3ffe 4b3d acbe 70bd 9c49 3cbd
000000f0: d52b 883d e5e1 933c 76c0 333d 2600 7b3d
00000100: f110 22bd baf2 f2bb db81 2dbd 7749 353d
00000110: 9c0a f0bb e3dc 94bd d241 093e 657a e4bc
00000120: 8ec6 23bd f836 6cbd 914f 23bd ab03 fb3b
00000130: 59cb dcbd f6d1 c13c cc90 e83d 0233 0e3d
00000140: 9e15 523c 5dd7 f7bc 4c31 c5bd f34a 22bb
00000150: 9c27 133c 9bf9 503d 73e3 033e 93a3 a33c
00000160: 51c4 523d cd45 803d 759d 3a3d c0ab fd3d
00000170: ffdb 56bd b36e 8f3c bbb8 0cbd 2b22 adbd
00000180: 3331 04be ece3 67bb 62c5 78bd 2ede e93d
00000190: c04f d8bd 2a2e 63bd b57e 523c 059e 953b
000001a0: 94e8 27bd 3087 39bd 3325 1cbd 346c 39bd
000001b0: 8441 a4bd 95e7 16bd 9dec f03b 3a40 c9bd
000001c0: fd00 893d fb67 083b b4b0 abbb 05d8 6dbc
000001d0: 9eb0 6e3b 7146 84bd 8234 85bd 96ff e7bd
000001e0: 6f9f b33d 7381 0e3d 6dd6 083d 816d 2a3d
000001f0: bcd0 f33c bc14 39bd 7cb3 573d eb73 ffbb
00000200: 9645 a63d e290 f539 c746 0f3e 6ab0 6d3d
00000210: b6b4 12be 9410 313c 6e1b cf3d 80e9 8abd
00000220: 685a 2cbc a806 4bbd 5922 1bbd 58ac 5cbd
00000230: 1db1 8dbd ea94 8abd c21f 14be f2d5 ffbd
00000240: f426 7dbc 7905 6a3d 15fe 9ebd fea3 ab3d
00000250: acd9 ac3d d6a4 3b3d f819 77bd ddf7 6dbc
00000260: 0804 2d3d 5ccd 9dbd c8ed b23d 6e41 9b3c
00000270: 9585 63bd eedd 993d 5c2b 0ebc 6fcd 3eba
00000280: 3f6e 46bd 1eaa 013d d3c4 0d3d 7813 ecbd
00000290: 1de6 1f3c 73ce 88bd 34fb bc3d 3ced 983d
000002a0: fdea 24bc 0039 ce3a 627f 213d 51d9 8cbd
000002b0: b306 7c3d 16dc debd b442 24bc 37b3 243c
000002c0: 3878 813d eb69 c5bd b211 99bc 97bd b6bd
000002d0: 3c7a 9bbd 2348 77bd d797 533d 51d5 003e
000002e0: 7a7c 4b3d 8286 6d3b 3494 813d 3b67 de3d
000002f0: ac78 e4bc 436e 91bd 408b dabc 8d31 a6bd
00000300: e8d6 c73c 4c8f 27bd 0531 693c 9acb b23c
00000310: f912 9d3d 6e54 efbd 6c37 273d 8d5a a6bc
00000320: f005 953c 25f0 e03b 550f 943d 28af 593d
00000330: 37e5 fbbc 3321 83bb 3714 383d dcfc 9f3d
00000340: bf32 8f3c fec7 033d d2da c4bc bd93 eb3c
00000350: 2310 913d e291 88bd 1541 7e3d 5b25 dc3d
00000360: 73ff c53c 7cea 693c 5913 a8bd 13e1 1c3d
00000370: 3fb1 82bd bbae b33d c5af d8bc 3bdc 3fbc
00000380: 3c9c 6bbd 924a 31bd f74c 153d 1d3a 80bd
00000390: bba7 a3bd 0dbc 853d 3405 5b3c 9d67 e83c
000003a0: 7256 2e3d 6d8b 14bc 7d9f c93c e22f 153d
000003b0: e618 ccbd 5e8b 063e 9008 cfbd c600 ff3c
000003c0: 9a13 10bd e979 09bd 69e0 c53d badc 86bd
000003d0: 7566 e5bd ba6d 193d ffe3 1ebd d474 e43c
000003e0: b3e0 9a3d b003 163d 6857 7abd 7ffe 86bd
000003f0: ee1c 0cbe d34f 89bd 9812 7abd 3fe1 4e3d

encoder.4.conv_1.bias f4 [16]
-0.06416733 -0.02664752 -0.04621546 -0.012048576 0.040274877 0.0024989306 -0.07088288 -0.039906822
-0.05191438 -0.043012664 -0.026553601 -0.016059512 -0.031544846 0.04501582 -0.06548837 -0.05415454
00000000: 296a 83bd e64b dabc 6c4c 3dbd 6467 45bc
00000010: 45f7 243d 19c5 233b 0b2b 91bd 5675 23bd
00000020: 2ca4 54bd 0c2e 30bd f086 d9bc 3d8f 83bc
00000030: 2b35 01bd 8262 383d c41e 86bd 27d1 5dbd

encoder.4.groupnorm_2.weight f4 [16]
0.9788943 0.9878998 1.0389726 1.0539668 1.0491607 1.0137234 0.98041517 0.98235023
1.0465046 0.9951931 0.93626475 0.9842735 1.0328126 1.0064635 0.9688587 1.0194476
00000000: d198 7a3f 00e7 7c3f 0efd 843f 62e8 863f
00000010: e64a 863f b0c1 813f 7dfc 7a3f 4e7b 7b3f
00000020: ddf3 853f fac4 7e3f 0caf 6f3f 59f9 7b3f
00000030: 3433 843f ccd3 803f 2007 783f 427d 823f
