stubs/saved_models/large_convvae_v2.pt (torch, 307528 bytes, 126 tensors)

encoder.0.weight f4 [8, 2, 3, 3]
00000000: 5c80 e7bd 86d8 14bd c668 7b3e 846b 30be
00000010: 577a 6bbe d44d 053d c596 223d 397b b93c
00000020: 45ac ffbb a146 3fbd d52b 4abe 9880 7a3e
00000030: 7845 123e 22aa 64be 051f 823d e6b3 483d
00000040: fc1f 2e3e 5a14 17be d706 373e c932 c83d
00000050: cf2f a8bd dde7 50bd 7a6e 143d f11e 603e
00000060: 88b5 23be 4ecb 203e 0b59 243e fb6f 13bd
00000070: a475 603d 0809 473d 69a1 10be ff36 ef3c
00000080: 8bd6 7b3e fb2f 0a3c a1c6 0c3e 5db3 423e
00000090: e238 f4ba 10bc 16be 3ad5 3d3e 79ef c83d
000000a0: f79e 1abe b3d1 88bd 566d 8e3d fcff dabd
000000b0: 24d4 7f3c f348 8fbd bdd6 33be 5200 dbbd
000000c0: 2469 58bd 6908 68be f530 2f3e c9c4 1fbe
000000d0: c6d0 9e3d 5fe2 4f3e a520 25be c839 13bd
000000e0: b27b 443e 8b9c 6b3e 0fd8 573e 0de0 04be
000000f0: bafe 8cbd 2e04 923d c845 b73d 59d6 ba3d
00000100: 9804 1fba 2f47 b1bd 6ac2 183e 2205 423e
00000110: 0647 003e 2a34 eebd 8d03 37be 987c e4bd
00000120: 1c37 8cbe 5cdb 14be 69f9 2abe a1f4 073e
00000130: eb57 03be d770 163e 28f7 e3bb a114 e53d
00000140: 4f2b 40be 8fee 6bbe 703f bdbd 5a85 563e
00000150: 1dff a33d bc31 e5bd e31b a13d 317d 0aba
00000160: 9c7c cfbd 5230 81bd c60e 1bbe d448 583a
00000170: ec3d 403d d17c e23d 925c 99bd dea8 f3bc
00000180: 86f9 07be 375f 87bc 79f5 483e 10c1 e03d
00000190: 7ecc 56be 91eb 153e 44cf c8bd f364 2fbe
000001a0: b917 40be ebd1 23be 2414 32be 9bd1 d33c
000001b0: f7fb 483e 02e2 e2bd a374 57be 2bbc 333e
000001c0: 1aca 503d 27a7 78bb 5975 da3d 0353 c8bd
000001d0: b827 d43d e3f3 053d de1e d8bc a2de 12be
000001e0: 640c 623e 3d60 8d3d 96a2 2fbe 27cf a5bd
000001f0: d518 1ebc 9924 03be aa3c a8b9 5e90 9d3d
00000200: 5e3a e0bc 5aef 653e 1e7e 2fbe 9804 673d
00000210: c079 063e 2ef7 36be 485e 633d 7e47 86bd
00000220: 8dec 5f3d c96f c9bd 5032 cd3d 7e82 7b3e
00000230: a4f7 b7bd 886c 6d3d c5dc 003e ffba 35be
-0.113037795 -0.036339305 0.24551687 -0.17228514 -0.22995888 0.032544926 0.039694566 0.022641765
-0.0078025186 -0.046698216 -0.19743283 0.24463117 0.14284313 -0.22330526 0.06353573 0.04899969
0.17004389 -0.14753857 0.17873703 0.097753115 -0.08212244 -0.051002372 0.03623817 0.21886803
-0.15987217 0.15702555 0.16049592 -0.035995465 0.05479969 0.048592597 -0.14124073 0.029201029
0.2459356 0.008434291 0.13747646 0.19013734 -0.0018632675 -0.14720178 0.1853837 0.09811301
-0.15099703 -0.06680622 0.06954448 -0.106933564 0.015614543 -0.06996336 -0.17562385 -0.106934205
-0.052834645 -0.22659458 0.1710852 -0.15602411 0.07754664 0.20301197 -0.16125734 -0.035943776
0.19187811 0.23008935 0.21078514 -0.12976094 -0.06884523 0.071297035 0.089488566 0.09122915
-0.0006066053 -0.08656155 0.14917913 0.1894727 0.12527093 -0.11631043 -0.17872448 -0.11156577
-0.27385795 -0.14536804 -0.16696705 0.13276912 -0.12826507 0.14691482 -0.0069569536 0.11185575
-0.18766521 -0.23040222 -0.09240615 0.20949307 0.08007643 -0.11191127 0.07866647 -0.0005282937
-0.10131189 -0.063080445 -0.15142354 0.00082505983 0.046934053 0.11058963 -0.074883595 -0.029743608
-0.1327878 -0.016524894 0.1962489 0.10974324 -0.20976445 0.14640643 -0.09805158 -0.17128353
-0.1875905 -0.15998046 -0.17390496 0.025856784 0.19627367 -0.11078264 -0.21040587 0.17552249
0.05097399 -0.0037941427 0.106669135 -0.09781458 0.10359138 0.03270329 -0.026381906 -0.1434274
0.22075039 0.069031216 -0.17151865 -0.08096152 -0.009649475 -0.1280693 -0.00032088655 0.076935515
-0.027371582 0.22454587 -0.17137954 0.056400865 0.13132381 -0.17867729 0.055509835 -0.06556605
0.05466895 -0.098357745 0.10019362 0.24561498 -0.089827806 0.05796483 0.12584217 -0.17747115

encoder.0.bias f4 [8]
00000000: 0481 1a3e 0361 393e 0c2b d83d 1d3d 3ebe
00000010: ea1e f5bc 57ba 24be f35f 3abd adcf 01be
0.15088278 0.18103413 0.105550855 -0.18578 -0.029921968 -0.16086708 -0.04550166 -0.12676878

encoder.1.groupnorm_1.weight f4 [8]
00000000: e0a2 7e3f da8a 823f 7cea 7b3f 126a 813f
00000010: e27b 7c3f 647d 793f f939 843f b798 7c3f
0.9946728 1.0198624 0.9840467 1.0110495 0.9862653 0.97456956 1.0330192 0.98670524

encoder.1.groupnorm_1.bias f4 [8]
00000000: 0166 c63b c378 89bb 5827 313a 13ef b1bb
00000010: 27ad 2f3c 73d6 30bc 9db8 f43b d2cd ce39
0.0060546403 -0.004195304 0.0006757877 -0.005430111 0.010722435 -0.010793316 0.0074682967 0.0003944473

encoder.1.conv_1.weight f4 [8, 8, 3, 3]
00000000: 6204 ee3c 0690 e23d b39f 38bc 0c45 99bd
00000010: b72f 913d c1a5 cabd 19e1 83bc f061 be3d
00000020: 1fc9 f53c f8fc b5bd 32fb 04be 4bd6 bdbd
00000030: 0693 cd3d a8f8 54bd 23d8 ae3d 28a2 493d
00000040: c74a 36bd 2635 c83d 09e2 ddbd 7b11 b33c
00000050: c17b fbbd 5adf 7f3c 251a 853b 5fc1 2cbc
00000060: db47 723b 0c8b 3bbd 4f48 96bd 7414 fbbd
00000070: 7719 953d 4c68 c0bd 8af2 8b3d d640 a3bd
00000080: 65e1 a43d 3334 983d 0ae3 fbbd 52fb b63c
00000090: fe0c 533b e9c9 d63d 402b b8bd 1741 69bd
000000a0: d575 7ebd ac89 943c 2314 b43d 9478 263c
000000b0: 6673 0f3d efb3 5a3c c35b 78bd 45c0 99bc
000000c0: 79c1 afbb d309 0e3e 1be3 45bd 6abf 49bd
000000d0: 55c9 a53d cdb3 dabd 9487 7c3c b19b c8bd
000000e0: 9ae5 58bd 70c0 873d ae64 c73c c83c debd
000000f0: a9fd 413d 3eba 41bd 33e0 e2bd 38b3 fa3a
00000100: 6b08 85bd 43d5 4d3d 6145 4bbd 3c42 983c
00000110: 648b b83d cc06 15bd 685f 80bc 0447 9b3a
00000120: bec2 a7bd 753d ddb9 4cff 58bc 61cd bb3d
00000130: 1fa6 f3bd f290 01bd bc71 bf3d 2b54 0f3c
00000140: 2c19 1f3d 5e46 973a 2438 853d e424 73bd
00000150: 8684 893d 60c6 df3c 8813 b3bd 07f9 58bd
00000160: cd37 243d 8791 b23d bc97 17bd 09d5 bdbd
00000170: d6dd 3dbc 9b1d de3d 02ca 0d3d 0a09 1abc
00000180: cc29 683d 7a2a a5bd c8be a73d 4547 5e3d
00000190: b87c ae3d 0f01 adbd a80c 9ebc 2181 0bb8
000001a0: 7643 59bd e387 693d c314 c83c 107d a93c
000001b0: 9c81 ab3d 76c5 bb3d c8bf 21bc aa73 01be
000001c0: 1c14 4abd 2235 92bd e72e 513d e22d 1b3b
000001d0: 7f81 9bbd e661 aebd 3e88 893d b7f3 363d
000001e0: 5739 32bd 5b07 6dbd aa14 00bc 3e25 f9bc
000001f0: aad2 953a f983 f13c c7b4 383d bd2a 1f3d
00000200: e283 ef3d f2e8 f6bd 3076 f0bd 6927 513b
00000210: bf2f 31bd 789f 8f3c c51a c63d 05bc 383d
00000220: 41a0 c2bd e7cb df3c 080d 873b 5737 f5bd
00000230: 2ad5 edbc 1412 bb3d 8253 f93c 6444 5d3c
00000240: ea45 cebd 0744 cabd a647 60bb 598a a6bc
00000250: fc1e 103d 8653 953d 823c 81bd 8bb5 efbc
00000260: 6111 9b3d 0157 aa3c 2f3c 8c3c 70f2 683d
00000270: 72bf 35bd b03f 8e3c 6429 dd3d 4340 d7bd
00000280: 88b3 a2bd c33d 84bd fc1f 8cbd c64c afbd
00000290: a470 973d 709e 95bc 214c 42bc 6169 6f3d
000002a0: 831d 943c 494a cbbd f3a2 bcbc 8200 a73d
000002b0: e942 e63d a0ed 87bd cfac ccbd dc4d bdbd
000002c0: 62e0 98bd 81c4 f6bb 9aad a73d 4c80 8c3d
000002d0: 2585 2cbd 36db 443d 4d3b 09bc 50d1 eebc
000002e0: a57b e73d 09fe 4a3d cd51 aa3d 4640 47bd
000002f0: 36ea aabd d6a1 da3d 88c8 da3d 96d0 ccbc
00000300: 0387 53bd 5293 9e3d baf3 e63d 253e 013d
00000310: a8a0 e4bc 3f98 d4bd a7e6 423d fd67 64bd
00000320: d3dc abbd 1731 9d3d aa85 bcba 409c 8fbd
00000330: 796b c5bd 38a7 0fbe a146 00bc 796b c4bd
00000340: 8421 f4bc 3fc4 9fbc b46f d4bd 30bb a3bd
00000350: b117 0cbe dba1 ff3c 0ee2 3bbd d9f6 243d
00000360: 0d82 51bd df98 843d 454c 303d b7ac afbd
00000370: 0dfe bbbd 6401 093d 77ba 0d3d fda3 3f3c
00000380: 6725 76bd 414e c63d 04c1 9abd f011 963d
00000390: 9fb9 0e3d bc07 66bd e591 70bd 39ab c53d
000003a0: d63f 13bd 802d 353d 6088 2abd 6f7e 6ebd
000003b0: eb49 79bd 4ed1 32bc 0510 17bd 829e 343d
000003c0: 090b 91bd 079f c23d 0efe 9bbd 5501 4e3d
000003d0: ae41 74bd 3afd e6bd c3e7 b43d 9df2 8b3d
000003e0: a513 65bd 5337 cbbd de92 23bd 92b1 6dbd
000003f0: e7d5 93bd b59f f1bd 8b8e 70bd 01a5 b13c
0.029054824 0.110626265 -0.011268544 -0.07483873 0.07089179 -0.09894896 -0.016098546 0.09296024
0.030003129 -0.088861406 -0.12986448 -0.09269389 0.10037808 -0.05199495 0.085373186 0.04922691
-0.044504907 0.09775762 -0.108341284 0.021858921 -0.122794636 0.015617216 0.0040619546 -0.01054415
0.0036969099 -0.045786902 -0.073380105 -0.122597605 0.07280248 -0.09394893 0.0683337 -0.07971351
0.08050803 0.07431831 -0.12299164 0.022336636 0.003220379 0.1048773 -0.08992624 -0.05694684
-0.062124092 0.018132053 0.08792903 0.010160584 0.035022162 0.013348564 -0.060634386 -0.01876844
-0.00536364 0.13870935 -0.048312288 -0.049254812 0.08095042 -0.106788255 0.015413184 -0.09795321
-0.05295334 0.066285014 0.02434 -0.10851437 0.04736105 -0.047296755 -0.11077919 0.0019126898
-0.06495746 0.05025221 -0.04962671 0.01858627 0.09010962 -0.036383435 -0.015670493 0.0011846726
-0.08191441 -0.00042198194 -0.013244461 0.09170032 -0.118969195 -0.03163237 0.09347865 0.008748095
0.038842365 0.0011541357 0.065048486 -0.059361354 0.0671473 0.027316272 -0.0874396 -0.052971866
0.04009228 0.087191634 -0.03700994 -0.09269149 -0.011588534 0.108454905 0.034616478 -0.009401569
0.056680486 -0.080647424 0.081906855 0.054267187 0.08519882 -0.084474675 -0.019293144 -3.3260443e-05
-0.05304285 0.057014357 0.024423962 0.020689517 0.083743304 0.09168522 -0.009872384 -0.12641779
-0.049335584 -0.071390405 0.05107012 0.0023678471 -0.07593059 -0.085147664 0.06715439 0.04466602
-0.043511715 -0.057868343 -0.007817427 -0.030413266 0.0011430581 0.029481875 0.045094278 0.038859118
0.116950765 -0.120561495 -0.117412925 0.003191436 -0.043258425 0.017532095 0.09673075 0.045101184
-0.09503222 0.027318908 0.0041214265 -0.11973446 -0.029032309 0.091343075 0.030435327 0.013505075
-0.10071929 -0.098762564 -0.0034222393 -0.020329641 0.0351858 0.072913215 -0.06310369 -0.029261371
0.07571674 0.02079344 0.017118542 0.05687183 -0.04437203 0.017364353 0.1079891 -0.10510304
-0.07944399 -0.064570926 -0.06842038 -0.08559565 0.07394531 -0.018264025 -0.011858971 0.058450107
0.018080479 -0.09926278 -0.023026919 0.08154394 0.11243231 -0.0663712 -0.09993898 -0.09243366
-0.074646726 -0.0075307493 0.08187409 0.06860408 -0.042119164 0.04806062 -0.008375955 -0.029152542
0.1130288 0.049558673 0.083163835 -0.04864528 -0.083454534 0.10675399 0.106827796 -0.025001805
-0.05164243 0.07742943 0.11276956 0.031553406 -0.027908638 -0.10380601 0.04758325 -0.055763233
-0.08391728 0.07675379 -0.0014383097 -0.07012224 -0.096396394 -0.14028633 -0.007829339 -0.09590811
-0.029801138 -0.019502757 -0.10372868 -0.079946876 -0.13680913 0.031205108 -0.04586988 0.040274475
-0.051149417 0.0647447 0.043041486 -0.085778646 -0.09179316 0.03344859 0.034601655 0.011696813
-0.060094263 0.096828945 -0.07556346 0.0732764 0.03484499 -0.05615972 -0.058732886 0.09651799
-0.03594955 0.044232845 -0.041633964 -0.058226045 -0.06086151 -0.01091416 -0.03688051 0.044096477
-0.07082183 0.09502988 -0.076168165 0.05029424 -0.05963295 -0.11278768 0.088332675 0.06833384
-0.055926938 -0.09922662 -0.039934985 -0.058030672 -0.07218533 -0.1179804 -0.05872969 0.021685125

encoder.1.conv_1.bias f4 [8]
00000000: 9e3c a5bd 04d4 d33d 32ea d6bd 3ed0 4b3d
00000010: 3c6c af3d 2d55 8b3d c5b0 313c 8533 b2bd
-0.080682024 0.10343173 -0.10493888 0.049759142 0.08565566 0.06803355 0.010845368 -0.08701233

encoder.1.groupnorm_2.weight f4 [8]
00000000: e21b 7d3f ec19 783f a1ab 7c3f 8b20 7a3f
00000010: f82b 803f cb86 7c3f 24d3 743f c174 833f
0.9887067 0.96914554 0.98699385 0.97705907 1.0013418 0.9864318 0.95634675 1.0270005

encoder.1.groupnorm_2.bias f4 [8]
00000000: 199e 4fbb 9ea3 2abb 7316 57bc 02db f13b
00000010: 724f 363b ce58 5abb c12e 3cbc 802d 0b3c
-0.0031679927 -0.0026037465 -0.013127911 0.007380844 0.002781835 -0.0033317092 -0.011485756 0.008494735

encoder.1.conv_2.weight f4 [8, 8, 3, 3]
00000000: 0afe 9f3c 2b15 993d 6bd5 3cbb 25f0 c5bd
00000010: 3b61 8ebd 1354 6c3b a0b8 a5bd 1eaf 083a
00000020: 3070 0cbc 69e8 133d 4009 f03b 8caf aabc
00000030: 6d6f 9c3d 6150 80bd b42e 99bc 6dca 9c3d
00000040: 3b7a bc3d 45eb 0dbd 6535 9b3d 4d01 d2bc
00000050: 1f0f 423b 421a 6e3d d963 cbbc feb5 5a3d
00000060: 72e0 b33c 564e b63c 3975 33bd 15ee 3bbd
00000070: 6d9e 16bc 5810 a1bd 01e3 e6ba 3841 603d
00000080: cf2b 6dbd c478 2abd fe78 283d b8c2 85bc
00000090: 3e4b 473d f579 a03b c3d2 cfbd ea7a 15bd
000000a0: 2028 6b3d 6cb0 48bc e0f2 52bd 10c9 2cbb
000000b0: bf57 9d3d 49f6 c9bd 3f44 403c a0cb 76bd
000000c0: 8aaa 9bbd cf7d d73d d6c7 033d e822 943c
000000d0: 9ec8 f23d ca18 7fbd 4dcb 64bd bcd8 fc3d
000000e0: 7e08 9bbd fe9a 633d 2778 0cbd 5ec4 c23c
000000f0: 97f8 02bc c989 023d 1ef6 863d 7f0c 9a3d
00000100: 50b8 b6bc befb 88bc f9e9 27bd 3850 263b
00000110: 5db8 8c3d a97b da3d 7834 dbbc 6466 aabd
00000120: d775 a73d 9cb9 89bd d322 213d 23d6 bbbc
00000130: 6111 623d 2152 cf3d 1b9b 96bd 4fa2 b3bd
00000140: 2b6a 9cbc 72b6 9ebd 6ed1 383d 131e 8e3c
00000150: ba94 c4bb af68 c2bd 2a7c 273d 01a2 253d
00000160: 8861 8e3d ebe7 8b3d 59a3 583d 9b72 c6bd
00000170: 7ff5 abbb 728d 94bd 5ccb 90bc 0dc6 523d
00000180: 584f a6bd e766 de3d c3eb 8fbb ac50 ac3d
00000190: 5474 00bd 8ba1 b3bd c088 e03d 68ae 16bd
000001a0: 2bc9 8dbb 2191 dc3c bcc5 9b3d 2043 cfbc
000001b0: 620b d33c add3 8c3d 26bc 4abd 932a d63c
000001c0: 0cbc 763d 2c4b e8bd fbc3 babd 2463 003d
000001d0: b17f e2bd 1e96 15be 9cfa 74bd 4947 853d
000001e0: a0b4 0fbd e97e babd dbe9 083d 3a44 a5ba
000001f0: ae92 a6bd 7af5 b43d 8360 8abd c2c4 133d
00000200: 850b cfbd 142c 19bd 0988 803d 9fa5 483d
00000210: 5daa 96bd 7555 2a3d 9204 d5bd f12e 33bd
00000220: f04b 81bd 6481 3c3d a31f 30bc d23d 853c
00000230: 46bf efbd 08e0 443d 879c bbbd 31ca 7d3d
00000240: 5dc0 acbd e083 c03d 2132 01bc c619 7bbd
00000250: a9d9 b53d f59c be3d 6861 1b3d 9ef4 a13c
00000260: f75e 87bd f526 ac3b 86be 50bd a108 81bd
00000270: cd99 c4bd 44d6 af3d 3cbf b6bd cfe2 17bd
00000280: b8fd 4ebd 0760 183d e667 b53c 9ad2 833d
00000290: e06e 7f3d 5a34 6c3d 4e3e 133c e443 3cbd
000002a0: 5a21 cbbd 9be8 243d 776e c43d 0131 13bd
000002b0: 46d4 613c 7501 0fbc b632 75bd 9e5f 3cbd
000002c0: cc09 463d 38f1 9e3d 805d 5f3c 0911 77bd
000002d0: 7a32 8e3d ffb1 5bbd e035 973d 0b0b 803d
000002e0: 78cc fe3c 1ab1 373d 1d57 693d 9fc1 cebd
000002f0: 6e7c cdbc 2b66 0c3e 0c31 bbbb 4f1c 49bc
00000300: 6d79 84bc 2388 77bd db65 cbbd d3bb 2cbd
00000310: deab 43bd 4ab1 323c c64c 373d 37af a13d
00000320: d0cd 0dbb 31fb 283d 4f4a c7bd 0001 a7bd
00000330: fb1f 983d 282a 1d3d b8aa 0cbb 23c4 1a3d
00000340: d3d6 8d3c 447d f73d 1c39 3dbd e75c c1bd
00000350: 2a34 40bd 3d64 7d3c ee5b e63c b585 c0bc
00000360: d04b 81bd fd98 96bd d994 b3bc fa03 e2bd
00000370: 7e7e 463d 86a7 853d 8b4e 28bd 1971 a7bd
00000380: f3c4 6cbc d3d4 78bd a5d8 d5bc e070 733c
00000390: 37ee e5bc b90b dfbc f405 a3bb b97f 3ebd
000003a0: 578f adbd bd35 c2bc 64e1 b3bd c78b e13d
000003b0: edeb c2bb 2fa9 b8bc 10d6 15bc 6e05 0cbd
000003c0: 93b9 bcbc ee4a 973c 563c c2bc 9be1 ac3d
000003d0: bc58 eabd 0e9f 0cbd bd22 a13d 98d8 b9bd
000003e0: 3052 85bc 481d be3c 3420 ee3d c38d 50bc
000003f0: 3910 15bc 080e 773c a037 d9bd be14 243d
0.019530315 0.074747406 -0.002881373 -0.096649446 -0.06952139 0.0036060854 -0.08091855 0.0005214083
-0.008571669 0.036110315 0.0073253214 -0.02083566 0.0763844 -0.06265331 -0.018699028 0.07655797
0.09203001 -0.0346482 0.075785436 -0.025635386 0.0029611064 0.05813051 -0.024827885 0.053396218
0.02195761 0.02225415 -0.043812964 -0.04588135 -0.009193045 -0.078644454 -0.001761526 0.054749697
-0.057903107 -0.041619077 0.041131012 -0.0163282 0.04865574 0.004897351 -0.101476215 -0.036494173
0.057411313 -0.0122490935 -0.051501155 -0.002636496 0.07682752 -0.09861428 0.011735021 -0.060252786
-0.07600887 0.10522043 0.032173 0.01808305 0.11854671 -0.0622795 -0.055857945 0.12346026
-0.07569979 0.055567734 -0.034294274 0.023775276 -0.007993839 0.031869683 0.06589912 0.07521915
-0.022304684 -0.016721603 -0.040994618 0.0025377404 0.06871102 0.106681176 -0.026758417 -0.08320311
0.08176773 -0.06724855 0.03933985 -0.022929257 0.055192355 0.10123087 -0.07353803 -0.08771192
-0.019093594 -0.077496424 0.045121603 0.017348325 -0.005999175 -0.09492623 0.040889896 0.040437702
0.06952196 0.06831344 0.052890155 -0.09689828 -0.0052477713 -0.07253541 -0.017675094 0.051458407
-0.08120602 0.10859471 -0.0043921187 0.084138244 -0.03136094 -0.08771046 0.10963583 -0.03678742
-0.0043269596 0.026924672 0.07606074 -0.025300562 0.025762264 0.068763115 -0.04949584 0.026143348
0.06023793 -0.11342463 -0.091194116 0.031344548 -0.110595115 -0.14608046 -0.059809312 0.06507737
-0.035084367 -0.091062374 0.033426147 -0.0012608834 -0.08133446 0.088358834 -0.067566894 0.036076315
-0.10109619 -0.03739555 0.06275947 0.048986074 -0.07356713 0.041585404 -0.10401262 -0.04374594
-0.06313312 0.046021834 -0.01074973 0.01626483 -0.117064044 0.048065215 -0.091607146 0.061960403
-0.08435128 0.09400153 -0.007885487 -0.061303876 0.08879406 0.09307281 0.03793469 0.019769963
-0.0660991 0.0052536675 -0.050962947 -0.06300474 -0.09599648 0.0858579 -0.08923194 -0.037081536
-0.050534934 0.037200954 0.02214427 0.064366534 0.062361598 0.057667114 0.008987023 -0.045963183
-0.09918471 0.040260892 0.09591382 -0.035935406 0.01378352 -0.008728375 -0.059862815 -0.045989625
0.048349187 0.077608526 0.013633132 -0.06031898 0.069432214 -0.053636547 0.07383323 0.06252106
0.031103358 0.04484663 0.056967843 -0.10095524 -0.025083747 0.13710849 -0.005712634 -0.012274816
-0.016171182 -0.060432564 -0.09931537 -0.04217131 -0.047771327 0.010906527 0.04475095 0.07894748
-0.0021637566 0.04125518 -0.0973097 -0.081544876 0.07427975 0.03837028 -0.002146406 0.037784707
0.01731435 0.120844394 -0.046197042 -0.09441548 -0.046924748 0.015465793 0.028120007 -0.023501256
-0.06313288 -0.07353399 -0.021921562 -0.11035915 0.048460476 0.06526093 -0.04109053 -0.081758685
-0.014451253 -0.06074984 -0.02610428 0.0148584545 -0.028067691 -0.02722727 -0.004975075 -0.046508525
-0.084746055 -0.023707265 -0.08783224 0.110129885 -0.0059485347 -0.02254161 -0.009145275 -0.034184866
-0.023037707 0.018468346 -0.023710411 0.08441468 -0.11442706 -0.034331374 0.07867954 -0.09074515
-0.016274542 0.023207322 0.11627236 -0.012729111 -0.009098106 0.015079029 -0.10606313 0.040058844

encoder.1.conv_2.bias f4 [8]
00000000: cd89 b9bc de8f c33d e26f a4bd 2c24 e5bd
00000010: 51ec 94bd 1efc 903b dea4 ef3b 4f04 283d
-0.022648716 0.09548925 -0.080291525 -0.1118854 -0.07271636 0.004424586 0.007313355 0.041019734

encoder.2.weight f4 [8, 8, 3, 3]
00000000: fc18 163d aa86 9bbd ca92 41bd d2c6 353a
00000010: 138a 9abc 6117 6bbd 8c1b d43d b42b 2dbd
00000020: f348 7cbd ea89 4cbc 3d74 81bb c8c0 ee3d
00000030: 44a6 72bd 8ea4 a63d 3c81 a63d 1211 0d3d
00000040: 6d51 203d 88b5 fc3d 594c 5f3c 4dd7 1fbd
00000050: 05d8 acbd 34af 9bbd 9c30 95bd a439 9dbd
00000060: 00f9 c9bd 3277 3ebd 7daa 803d 4dbc c83d
00000070: f35b 453c c968 913d ec83 e5bc f0b2 0abd
00000080: ca97 8dbc 033e 2c3c 9e33 4bbd 1677 703c
00000090: f845 2abd 9308 d5bb 6a47 d83d b94f 163d
000000a0: 727f bdbd 05c5 18bd 334e a0bd 0bfc 5b3a
000000b0: 2791 8ebd f9b7 11be c4db 13bd 5f4e 223d
000000c0: ecff 2d3d 2c20 62bd a124 94bd 51e0 cf3d
000000d0: 401f 2cbc 65f6 3bbd 69ae 633d c089 2cbc
000000e0: f14a 683d 7869 72bd 913b e2bc d48e 93bd
000000f0: 773d cabd d040 a73d 45f3 833c 7a90 8b3d
00000100: edc1 44bd a8e4 5bbd f549 c13d e2a6 7f3d
00000110: 2d15 2a3d 2b81 183d f271 9dbd 0607 463c
00000120: ae15 94bd e8ae b4bd 303a fc3c eac6 cf3d
00000130: 40c0 bbbd 5789 433c 1a18 08bd 0136 99bc
00000140: 33e0 4b3d 39f9 683d ad1a eabd f838 043d
00000150: fcbf e43c b793 683d e18d d9bd 8c84 14bd
00000160: 896a 5dbd 12b1 b1bd 17fb c63d e723 4abd
00000170: 1a1a 13bd 5a38 d2bd 78c8 ba3d bfbe 55bc
00000180: 437b 4dbc 2649 35bd 51d9 2b3b c3e1 d1bd
00000190: d410 50bd 1201 e23d 0500 153c 6dbd f33d
000001a0: c1bc edbd 5f7a 47bb 22de 023d d68c 4ebd
000001b0: 042b 1b3c 9e4d 963d 22c2 a0bd f1f4 20bd
000001c0: 925d ff3d 66ab 0e3c 1559 913c 96f0 9a3d
000001d0: cf64 d73d 643d 953d d053 c23c c21f 2b3b
000001e0: a64e 83bd ac74 8dbc 35fb 32bd 47f5 95bd
000001f0: 407d 183d 4e4d 193c 76ba 3a3c 666a 16bd
00000200: 9b73 023d 91aa 32bd 7e25 573d d2fa 843d
00000210: 0952 a1bc 3f9a a1bd ab9a d5bc 888c 0f3e
00000220: 0be9 553d 88d9 d3bd 65ce 6cbd 16d6 283d
00000230: fb26 9e3d 0b11 2c3c e6c2 7e3d dff6 963d
00000240: 4c48 83bd 5b82 96bd 294d eebc 79ad 5a3d
00000250: 72a6 7c3c 6252 a9bd 48f1 743d 9ea5 4f3d
00000260: 78ff 303d c6a1 80bd a744 cf3b 1b47 a13a
00000270: 44f8 9dbb 2b2d dbbc 70ee b43d 31a6 25bc
00000280: 4b6a d93c c6b7 c23d 9cf7 82bd 8427 903d
00000290: f077 b8bb f652 a93d ee61 bfbd e01f cc3d
000002a0: 1f68 70bb 4a71 02bc 7932 71bd 2156 cebd
000002b0: 380a 5e3d 3434 d2bd 4b07 7ebd 193e 0cbd
000002c0: eed7 683a 63d1 df3c 09a3 5e3d 9ba1 6439
000002d0: 9d96 aa3d 476a 253d 1ebd 5e3d 2f52 dc3d
000002e0: afaa 2d3d ba9e af3c abee 903d fb5d 9a3d
000002f0: b38c 7fbc 48da 8cbd db1f bf3d d076 68bd
00000300: 8246 bcbc eaff 88bd b215 38bd bc6e 6abc
00000310: 9aee f33d 3331 8ebd 328f 12bd 8ee3 dc3d
00000320: 4b9f 963d d951 b5bb f337 b1bd 7f55 983d
00000330: cc85 bc3d a2c5 2fbd 9014 ad3c 8a2d 3bbd
00000340: 0489 36bc 92c2 723d d925 46bd 26b0 933d
00000350: a8a5 f5bc da73 a43c 0f16 d63d 967b 633d
00000360: abc7 b53d 032a b23c 957d 82bd ea56 ab3c
00000370: 7c14 a43c f775 863d a1c4 a93d 5abb 753c
00000380: c728 1bbd e2af b53d 74d8 483b 2bc5 15ba
00000390: 8793 a23d 2001 97bd b1bf bcbd 53ec d73d
000003a0: 8f42 b2bd 7aaa d1bd 5a66 713d 3b0f 1abd
000003b0: 566b f33d 9d3c 683c d811 8a3d 4205 d1bc
000003c0: 9da7 7c3d bb1e e03d 7eae 71bd 9f8f 5c3d
000003d0: 896b 153c 0aef 93bd 9643 d2bd fb3a c1ba
000003e0: 8b62 e8bb 3b4b ffbc 9334 31bc 42fc 4d3d
000003f0: f2de 0dbb b3cf 60bd 1226 81bd 734c debc
0.03664492 -0.075940445 -0.04725913 0.00069342286 -0.018864667 -0.057395343 0.10356817 -0.042278007
-0.061593007 -0.012484053 -0.0039506243 0.11657864 -0.059240595 0.08136855 0.08130118 0.034440108
0.039140154 0.12339312 0.013629043 -0.039023686 -0.0843964 -0.07601777 -0.07284662 -0.0767701
-0.09861946 -0.046500392 0.06282518 0.098015405 0.012045848 0.07100064 -0.028017007 -0.033862054
-0.017284293 0.010512832 -0.049609773 0.01467683 -0.041570634 -0.0065012663 0.10560496 0.036697123
-0.09252824 -0.037297267 -0.07827415 0.00083917443 -0.06961279 -0.14230336 -0.036098257 0.03962552
0.042480394 -0.055206463 -0.07233549 0.10150207 -0.010505497 -0.045889277 0.055586252 -0.010530889
0.056712095 -0.059182614 -0.027616294 -0.07204977 -0.09875005 0.08166659 0.01610721 0.06814666
-0.048036505 -0.05368486 0.09437934 0.06241501 0.0415241 0.03723256 -0.07687749 0.012086635
-0.072306976 -0.08822423 0.030789465 0.10145362 -0.09167528 0.0119346 -0.03322611 -0.018702509
0.04977436 0.056878302 -0.11430869 0.032280892 0.027923577 0.056781497 -0.106227644 -0.03625922
-0.054056678 -0.086763516 0.0971586 -0.049350645 -0.035913564 -0.102646545 0.09120268 -0.013045966
-0.012541595 -0.044259213 0.002622206 -0.10248139 -0.0507973 0.110353604 0.009094243 0.119013645
-0.116082676 -0.003043793 0.031950124 -0.05042728 0.009470705 0.07339023 -0.07849528 -0.039296094
0.12469019 0.008707857 0.017742673 0.075654194 0.105172746 0.072871 0.023721606 0.0026111458
-0.064114854 -0.017267548 -0.0436966 -0.073221736 0.037228823 0.00935681 0.011396995 -0.036722563
0.03184853 -0.043619696 0.05252599 0.06493153 -0.019692438 -0.07890748 -0.026074728 0.14018452
0.0522242 -0.10344225 -0.05781402 0.041219793 0.07722279 0.01050211 0.06219759 0.07371306
-0.06410274 -0.07349082 -0.029089527 0.053388093 0.015420543 -0.082676664 0.059800416 0.050695054
0.043212384 -0.06280856 0.0063253227 0.0012304516 -0.0048208553 -0.026754936 0.08834541 -0.010110424
0.026539942 0.09507708 -0.06394884 0.07038787 -0.005629532 0.08267777 -0.093448505 0.09967017
-0.0036683155 -0.0079615805 -0.058886025 -0.100750215 0.054208964 -0.10263863 -0.062018674 -0.03423891
0.00088822737 0.027321523 0.0543547 0.00021803977 0.083295085 0.040384557 0.054379575 0.10757863
0.042399105 0.021437991 0.07076772 0.075374566 -0.01559751 -0.06877571 0.09332248 -0.056753933
-0.02298284 -0.06689437 -0.044942565 -0.014308628 0.11910744 -0.06942978 -0.035781093 0.1078559
0.073546015 -0.0055334386 -0.086532496 0.07438182 0.09205207 -0.042913087 0.021127969 -0.045697726
-0.0111410655 0.059267588 -0.048375938 0.07211332 -0.029986218 0.020074774 0.10453426 0.055537783
0.08875974 0.021748548 -0.06371609 0.020915467 0.020029299 0.06565469 0.08289457 0.014998281
-0.037880685 0.088714376 0.0030646594 -0.0005713279 0.07938295 -0.073732615 -0.0921625 0.10543122
-0.08704101 -0.10237594 0.0589355 -0.03761218 0.11885707 0.014174608 0.06741685 -0.025515202
0.061683286 0.10943361 -0.0590043 0.053847905 0.009119877 -0.072233275 -0.10266797 -0.0014742309
-0.0070918254 -0.031163802 -0.010815757 0.0502894 -0.0021647778 -0.054885577 -0.063060895 -0.027136063

encoder.2.bias f4 [8]
00000000: 7232 eebc fabd 26bd 6b28 5bbd d557 26bd
00000010: 6826 a53d 2b26 edbc af6a 2e3d 9523 84bd
-0.029076789 -0.04070852 -0.053505342 -0.040611107 0.08063966 -0.028948864 0.04258221 -0.06452099

encoder.3.groupnorm_1.weight f4 [8]
00000000: 01c3 863f 2e47 733f 4624 693f 7197 7d3f
00000010: 2ea2 853f 8ca9 803f adc0 753f bdb3 753f
1.052826 0.95030487 0.91070974 0.99059206 1.0440118 1.0051742 0.95997125 0.95977384

encoder.3.groupnorm_1.bias f4 [8]
00000000: 2fc6 aa3c 725a 90bc 68c9 54bc 758e 99bc
00000010: 2c0c 9c3c b3ca 7cba 67b4 49bc 8749 8d39
0.020846454 -0.017621253 -0.012987472 -0.018744687 0.019048773 -0.00096432416 -0.012311078 0.00026948398

encoder.3.conv_1.weight f4 [16, 8, 3, 3]
00000000: b3e9 753d 98c2 dfbc 3fac 0dbd 4f66 76bd
00000010: 6c34 d1bd a1c5 44bb cd0e 17bd 9a46 2cbd
00000020: 0f8d 26bd d5b6 0d3d 2b0e e93c 0c88 46bd
00000030: 838b 853d a0d3 913d c85c 9cbd ef70 56bd
00000040: e8f3 8cbd f66e 763d e58e 8a3d d981 a83d
00000050: be99 b03d 1958 2aba 0aaf cdbd 5ece 74bd
00000060: c31f 883d 9501 6abd 0bff 9b3b 7178 3abc
00000070: d1b2 1cbd 951d ccbc 61f5 06ba fce3 9dbc
00000080: d964 303b ab6d dabd 9cf8 8e3d 6e47 a5bc
00000090: a37f f93d 0f17 a4bd d3d1 06bd 39c0 593d
000000a0: eacf abbd 8d95 63bd 4284 8c3d 25b8 a63d
000000b0: 3d83 9bbd 968a 1c3d 0ea8 57bd efab 973d
000000c0: 092d 963c a190 003d 6efe 93bb d91f 7ebd
000000d0: adde 98bd 533c c7bd 287a 173b d6cf ecbd
000000e0: c8cb 9f3d f1e1 95bb 52e1 66bc bf94 513d
000000f0: 14ab b93c 409f c9bd 0d5d a1bd 35bd bb3d
00000100: 5891 67bd 13eb 093d 9b9b 5dbd 8b94 503d
00000110: cf63 efbd f112 8cbd 394a b4bd f8eb ea3c
00000120: f417 3ebc 7630 7a3d ead9 10bd 6e00 c6bd
00000130: 536c 6dbd 303b 08ba f23a 723d cc5a efbd
00000140: 3597 f4bd 8219 16bc b554 a63c 3b74 8e3d
00000150: bdfc f7bc ebf2 6ebc 2867 aa3d 4709 23bd
00000160: 6691 d33d 51cf d83d 6d88 a2bd bef3 84bc
00000170: 0652 dbbd 292e 8e3d d972 183d cfc4 723d
00000180: eb5a 503c d06c 99bd cb7c adbd 6b8b 293c
00000190: 8375 843d 59e4 d9bd 9dfc 80bc d94c 0b3d
000001a0: 9e16 743d 4658 6a3d cae1 0e3d 4389 b2bd
000001b0: 2b20 00be f4aa 01be c1f1 ccbd 965b e9bd
000001c0: da2b b53c 9d46 9bbd 2449 f3bd 7d89 c2bd
000001d0: fc3e bbbd 40fd ba3d a8dc 283d acd3 3a3d
000001e0: 2669 223c cf56 02be 1154 efbd d00a 403d
000001f0: c5f7 f0bc 4cfe d9bd 7283 863d fc8b c6bd
00000200: 7018 543d 25e3 2a3d 1218 c0bd 55bb f0bd
00000210: 869c a23d cea1 bb3d 6434 2bbd 13e2 663d
00000220: ad32 1b38 b49e c33c 4633 d6bd e5ba a03c
00000230: bf22 703d 95c2 ec3c b649 53bd 0cbe 66bd
00000240: eb49 043d 2570 283d de32 5d3d b3a7 56bd
00000250: 8c02 b83d 3a6d db3c 2bee 03bd 1c9d f63d
00000260: 34f3 b33c 0327 633d 5fde 8d3c eb76 a73d
00000270: aaa6 3ebd 7302 ad3b 5f26 a4bd 7575 263c
00000280: e97b d9bc 2ebd 803c 30ff 20b9 0d91 80bd
00000290: 332f 9ebd 4474 cc3d f85c 27bd 9b0d ea3d
000002a0: 22c1 723c 2a3a 07bd 3c20 873c d40e c4bd
000002b0: 05dc 83bd d455 573d 3010 033d a46b bf3c
000002c0: a254 773d f29f 87bc 4aa4 813d 3cfe 423c
000002d0: b07f 51bd 9114 30bd de87 ee3d 6187 ae3b
000002e0: 7f69 7c3d 1b5b 7dbd c061 4cbd 2ddf 963d
000002f0: 800e b5bd b2cc d739 8e3d b33d 77fb 083d
00000300: 734e d8bd d244 a1bd 027e 5c3c c6ed 2ebd
00000310: 18bd f1bc 89ec babd e9a3 cdbc d38b 84bd
00000320: 1a84 b5bc d364 20bd b426 3e3c c1e5 aa3d
00000330: 0c24 8f3d f323 98bc a8cc 11bc e2d1 9d3d
00000340: dd3a a33d 7c1e 84bb e4b1 843b f73a 97bc
00000350: 4f61 b2bd 3e9c 11bc cf1b 2cbd 7124 f3bd
00000360: 6345 41bd 5894 d9bd 5d55 ca3d b268 7b3d
00000370: 6f3b 01be 874a a8bd 2394 70bc d7d3 4ebc
00000380: 9d27 9a3d 0e75 a13b db59 68bb d8f6 ab3d
00000390: 6572 b83c d014 a1bc 6597 babc f8c8 f43d
000003a0: 6ca7 3c3c 1f2a 2abc 5dfd bdbd 25bc 48bd
000003b0: c4d9 89bc c891 b0bd 53db aa3d 5114 a43d
000003c0: e268 85bc 6474 70bd c00c a73d 8c69 663d
000003d0: 4e20 1dbd fada e43a a5d5 843d 0df5 7cbc
000003e0: d512 f1bc 0a18 8cbd 5a16 bf3d f4fb 8c3d
000003f0: dd49 ebbd 4818 01be c4b5 c03c 80af c8bb
0.060037326 -0.02731447 -0.034588095 -0.060156163 -0.10215077 -0.0030025023 -0.03687935 -0.04205952
-0.040661868 0.03459819 0.028449139 -0.04846959 0.065207504 0.071204424 -0.07634884 -0.052353796
-0.06882459 0.060164414 0.06765536 0.082278915 0.08623074 -0.0006498113 -0.10043152 -0.05976712
0.06646683 -0.057130415 0.004760628 -0.0113812545 -0.03825647 -0.02491645 -0.00051482586 -0.01927375
0.0026915579 -0.10665449 0.06981012 -0.020175662 0.12182548 -0.080122106 -0.032914948 0.053161833
-0.08389266 -0.055562545 0.06861164 0.081405915 -0.07593391 0.038218103 -0.052650504 0.074058406
0.018332021 0.03138793 -0.0045164144 -0.06204209 -0.07464347 -0.09728303 0.0023113582 -0.11563079
0.0780254 -0.0045740535 -0.0140918065 0.051167246 0.022664584 -0.09844828 -0.07879076 0.09166948
-0.056535095 0.03367145 -0.054103475 0.05092291 -0.11688959 -0.0683955 -0.08803219 0.028676972
-0.011602391 0.061081372 -0.03536407 -0.09668051 -0.057964634 -0.0005196808 0.059138246 -0.1168724
-0.11942903 -0.009161355 0.020304063 0.06955763 -0.030271882 -0.014584283 0.08320457 -0.03980377
0.10330467 0.105864175 -0.079361774 -0.016229507 -0.10709004 0.06942398 0.037218902 0.059269723
0.012716989 -0.074914575 -0.08471068 0.010348181 0.06467726 -0.10639257 -0.015745455 0.034008835
0.059591882 0.05721309 0.034883298 -0.08717587 -0.12512271 -0.1266287 -0.100070484 -0.11394422
0.022115637 -0.07581828 -0.11879185 -0.0949888 -0.09142873 0.09130335 0.04122606 0.045612022
0.009912765 -0.12728427 -0.11685956 0.04688531 -0.02941502 -0.106442064 0.0656804 -0.09694669
0.051781118 0.04172053 -0.09379591 -0.11754481 0.07940011 0.09161721 -0.04179801 0.056367945
3.7002075e-05 0.023879386 -0.104589984 0.019620368 0.058626886 0.028901378 -0.051583968 -0.056333587
0.032297056 0.041122574 0.05400359 -0.052406024 0.08984861 0.026785482 -0.032209557 0.12041685
0.021966554 0.055457126 0.017317949 0.08176979 -0.046545662 0.005279833 -0.08015131 0.01015984
-0.026548343 0.015715208 -0.00015353854 -0.06277666 -0.07723846 0.099831134 -0.040860146 0.11428376
0.014816554 -0.033014454 0.016494863 -0.09573141 -0.0643845 0.052572086 0.03199786 0.023366757
0.060383447 -0.01655576 0.06330164 0.0119014345 -0.051147163 -0.042988364 0.11647008 0.005326197
0.061624046 -0.061854463 -0.04989791 0.07366786 -0.08840656 0.00041160505 0.08751975 0.03344294
-0.10561838 -0.078744546 0.013457777 -0.042707227 -0.029509112 -0.09127147 -0.025102573 -0.06471982
-0.022157717 -0.039158653 0.011605907 0.08344603 0.06989297 -0.01857183 -0.0088988915 0.077060476
0.07970212 -0.0040319543 0.0040495265 -0.018460734 -0.087099664 -0.008887349 -0.042018708 -0.11872185
-0.047185313 -0.106239974 0.09879563 0.061379142 -0.12620328 -0.0821734 -0.014683756 -0.012623749
0.07527087 0.004927284 -0.0035453949 0.08396691 0.022515485 -0.019663244 -0.022777269 0.11952394
0.011514526 -0.010386019 -0.09276841 -0.049007554 -0.016827472 -0.086215556 0.08342614 0.080116875
-0.016285364 -0.05870475 0.08156729 0.056253 -0.038360886 0.001746028 0.06486062 -0.015439284
-0.029427925 -0.068405226 0.09330435 0.06883994 -0.11488698 -0.12606919 0.023524173 -0.006124437

encoder.3.conv_1.bias f4 [16]
00000000: 7b39 8bbd 0610 e23c 6f0f bf3c dcb0 2dbc
00000010: 582e 05bb 884a 71bd 3084 f43d 5b99 fdbd
00000020: d3d9 c7bc c715 c2bd 397c f0bc bac9 eeba
00000030: 51fe b9bd f21d 153d 7759 8ebd a502 97bd
-0.06798073 0.027595531 0.023322789 -0.010601249 -0.0020321812 -0.05890897 0.11939275 -0.12382766
-0.024395859 -0.0947681 -0.029356109 -0.0018218078 -0.0908171 0.03640551 -0.06950658 -0.07373551

encoder.3.groupnorm_2.weight f4 [16]
00000000: 2c28 7a3f 4e35 7b3f 4dbf 7c3f b8ab 7d3f
00000010: 3d3b 823f b111 7c3f 60f3 7b3f 9644 793f
00000020: 4b10 753f b0d2 7e3f 245e 7b3f d68e 7e3f
00000030: cbce 763f 8802 7d3f e5f1 7e3f 91c1 7f3f
0.9771755 0.9812821 0.987294 0.99090147 1.0174328 0.98464495 0.98418236 0.9737028
0.95727986 0.99540234 0.9819052 0.994367 0.9640929 0.9883199 0.9958785 0.99904734

encoder.3.groupnorm_2.bias f4 [16]
00000000: 352c 393c f866 9e3b 3d0f 9dbc 2d27 0b3c
00000010: 8066 923c 0f3c 27b8 8ede 3abb fe1e 7dbc
00000020: 1f98 843a 9fce d03b c4ea 263b c935 d53b
00000030: 0c22 78b9 e1be 823a bc8e 80bc 664f c7bb
0.011302044 0.004834052 -0.019172305 0.008493227 0.017871141 -3.9871837e-05 -0.0028514 -0.015449284
0.0010116136 0.0063722874 0.002546952 0.006506656 -0.00023663806 0.0009975099 -0.015693061 -0.006082463

encoder.3.conv_2.weight f4 [16, 16, 3, 3]
00000000: 483b 2bbd d9f9 873d 244b 02bd 8d88 053c
00000010: 41e2 76bd a356 4b3b 3282 73bb 5654 a6bb
00000020: 41a3 3d3d 0a31 973d 0e4b 6fbd 1b17 53bd
00000030: 6b59 533d f867 283d 7aa8 2cbd 5ebb 1c3c
00000040: c7b9 b7bc eb5f 4a3b a0b4 88bd b3a0 22bd
00000050: 9f96 593d 95aa 903d 2ef0 963d bb56 8e3b
00000060: b8fe 2bbd 3237 b3bd 2607 fc3c 1c7f d7bc
00000070: 529e f93c 2c45 a33c f5b6 49bd b3ff 83bc
00000080: b7c8 76bd b11a 233d e340 223d 193f dfbc
00000090: c602 c8bb 79f7 cd3d 0166 0b3d 60fd 023c
000000a0: 231f eabc 5f3f 3b3c 70b6 00bd 8d37 58bc
000000b0: acaf 8dbd b243 083c 6d85 963d 5f7f b33c
000000c0: 249a fb3c 36f0 cd3c 731b f23a 2bef 8bbd
000000d0: f823 423d a778 1ebd 1753 8cba 46b7 89bd
000000e0: 87a0 90bb 0c49 59bd e865 15bd 5bb3 e5bc
000000f0: 09d4 a2bb 7845 ec3c e065 5abd 28cd 823d
00000100: b6c6 94bc 97cb ae3c 497c e4bb 811c 15bd
00000110: e37f 483d 056a 083c b232 8f3d 6523 a4bc
00000120: 36e0 f7bb 21e0 e9bc 6ca1 603c cda0 f9bc
00000130: ab73 3e3d ca35 583c 430c 743d 9fba 55bd
00000140: b22d 403d f998 1f3c 1758 c7bc 147f 8c3d
00000150: 3032 1cbd c717 adb9 11e2 733d 07e7 733d
00000160: b3a0 0f3d ffa5 953b 7660 453d c015 9b3d
00000170: e122 15bd 41b8 1d3d 284e 093c c877 84bd
00000180: efeb 1abd 904e 5dbb d573 893d 5c91 3b3d
00000190: fbb8 903b fad3 863d 6277 41bb e352 2cbd
000001a0: beb6 ce3c 5b51 50bd 3dd3 18bb 07c2 813c
000001b0: a33a e83c 1bb9 823d 2e03 303d 8a37 383d
000001c0: fc47 97bd 8186 8dbc 2fc5 0e3d ccf4 fe3c
000001d0: 59e8 463c 0e97 b0bc 27e8 6abc 1b02 913d
000001e0: 2a46 8dbd ff9d 7a3d 0d08 593d 6f39 003d
000001f0: 4581 2bbd 4f13 173d 3634 97bc 48fb 62bd
00000200: 6e59 5cbd 4374 a83b 400c 97bd 6398 4fbc
00000210: cc8e 6ebd 498f aa3d cb5a ff3c 8434 3ebc
00000220: 312f 3ebd 79e7 233b d1bf 853c da4e 9b3d
00000230: 2d62 5b3d f20f 2cbd 7694 59bd e2e4 2a3d
00000240: eef3 23bd 095c f0bb b44b 8a3d d915 793d
00000250: df54 053d 1312 aa3d fd53 c3bc 4d0a d83c
00000260: cbfc 30bd 8187 5a3c dc3a babb b50d 8f3d
00000270: 7020 363d b746 5abd 29d9 f53c 97b9 6d3c
00000280: 4d90 0dbd f19a 2f3d 82ff 863d c76d 5ebc
00000290: b566 973d d302 7ebd 05cf 6abd a6b6 8cbd
000002a0: 950c eb3c 813e 703d a725 8a3d 9d62 53bd
000002b0: 0bbb 283d c5bd 413c a2d0 5b3b aca6 eb3c
000002c0: 9edf 7c3d 3eac 8ebd a2c6 453c 3454 f53c
000002d0: f700 223c e452 6bbd ffc8 bf3b 62cf a83d
000002e0: 4974 11bd f23e 43bd 3ea9 62bd 83d1 b6bc
000002f0: a126 45bb 45c4 9c3d acd8 063d c6d5 71bc
00000300: 1d4d b7bd 558a a9bd d660 56bd 697f 2c3d
00000310: d08d 98bd bca8 a03d b1b3 ee3c 5a53 363d
00000320: 0715 3cbd 3149 9cbc 6c4e 8b3c 67ba d7bc
00000330: 674f 8ebd 0d0c 453d 451b 01bd 9eec cd3c
00000340: d9db 46bd f9f8 bb3c 3ab3 843d cd18 b23c
00000350: a541 0abd fc0c 3f3d d7d6 883d 6661 083d
00000360: 039d 86bc e806 c93c 366d fe3c a3b6 0fbd
00000370: 8a57 cf3c b407 653d 2a16 fabc 5e06 5abc
00000380: 50a5 a9bc f1ca 6abc b863 9d3d fc14 b83b
00000390: 78bb 41bb d8b9 49bc e868 babb c9f2 9abd
000003a0: 6d8d 4abd 1dd7 423b 838d a1bd c88f e53c
000003b0: e335 ba3d 98ab 56bd 86fc 663d bbfd 9a3b
000003c0: e739 603c 21f0 6e3d a0c9 76bd 7d9d 713d
000003d0: 86a6 8dbb 99f0 26bc a6b9 bf3b 70ba a1bd
000003e0: a21f bb3c 6f2b 363d b645 6e3b 8cc1 653d
000003f0: 10c7 6e3b d2c4 e1bc 08b0 443c 23c1 863d
-0.041804582 0.066394515 -0.03180994 0.008150232 -0.060274366 0.0031026981 -0.003715646 -0.0050759716
0.04629827 0.073824 -0.058421187 -0.051535707 0.051598947 0.041114777 -0.04215286 0.009566156
-0.022427453 0.0030879925 -0.066750765 -0.039704036 0.05312216 0.07063786 0.073700294 0.004343835
-0.041990966 -0.08750762 0.030765127 -0.026305728 0.030471 0.019930445 -0.049246747 -0.016113138
-0.06025001 0.039820377 0.039612662 -0.027251767 -0.0061038462 0.10056967 0.034032825 0.00799498
-0.0285793 0.011428683 -0.031423986 -0.013196838 -0.069182724 0.008316921 0.07349668 0.021911321
0.030713148 0.025138956 0.0018471315 -0.06832727 0.047397584 -0.03868928 -0.0010705915 -0.0672441
-0.0044136676 -0.05304818 -0.03647414 -0.028039625 -0.004969124 0.028841719 -0.05331981 0.06386787
-0.018161159 0.021337314 -0.0069728238 -0.036404137 0.048950087 0.008326058 0.06992091 -0.020036409
-0.00756457 -0.028549256 0.013710361 -0.030472184 0.04649703 0.013196418 0.059582006 -0.05217993
0.04691858 0.009741061 -0.024333997 0.06860176 -0.0381338 -0.00033014847 0.059541766 0.059546497
0.035065364 0.0045669074 0.048187695 0.07572508 -0.036410216 0.038505796 0.00838045 -0.06468159
-0.03782266 -0.003376875 0.06711546 0.045792922 0.0044165826 0.065834 -0.002952062 -0.042071234
0.025233623 -0.050858837 -0.0023319267 0.01583959 0.028348273 0.06382962 0.042971782 0.04497484
-0.07386777 -0.01727605 0.034856018 0.031122588 0.012140357 -0.021556403 -0.014337576 0.0708048
-0.06898148 0.061185833 0.052986193 0.031304773 -0.041871328 0.03688365 -0.018457513 -0.05541542
-0.053796224 0.0051408126 -0.073753834 -0.012670609 -0.05824165 0.08328111 0.031171223 -0.0116092
-0.046431724 0.0025009795 0.016326817 0.07583399 0.053560425 -0.042007394 -0.0531201 0.041722186
-0.04002755 -0.00733519 0.067527205 0.06081185 0.032551643 0.08304229 -0.02384376 0.0263721
-0.043209832 0.013337971 -0.005683286 0.06985036 0.04446453 -0.053290095 0.030010777 0.01450958
-0.034561444 0.042872373 0.06591703 -0.013575978 0.07392637 -0.062014412 -0.057326335 -0.06870775
0.028692523 0.05865336 0.06745463 -0.051607717 0.041194003 0.01182503 0.0033541103 0.028765999
0.061736695 -0.06966446 0.0120712835 0.029947378 0.009887925 -0.057452098 0.005852818 0.0824268
-0.03551129 -0.04766745 -0.055337183 -0.0223167 -0.003008284 0.07654623 0.03292148 -0.01476044
-0.08950255 -0.08278338 -0.052338444 0.042113695 -0.074489236 0.078446835 0.029138418 0.044513084
-0.04591849 -0.01907787 0.017005168 -0.026334 -0.069487385 0.048107196 -0.031520147 0.025137242
-0.048549507 0.022945868 0.06479497 0.021740342 -0.03375401 0.046643242 0.066816024 0.03329601
-0.01643229 0.024539426 0.031057935 -0.035086285 0.025310297 0.05591555 -0.030528147 -0.013307182
-0.02070871 -0.014330612 0.076850355 0.005617736 -0.0029561203 -0.012312375 -0.0056887753 -0.07565839
-0.04945128 0.0029730268 -0.07888319 0.028022662 0.09092309 -0.05240974 0.05639317 0.004729954
0.01368568 0.058334474 -0.06025088 0.058988083 -0.0043228297 -0.010189199 0.0058509884 -0.07896888
0.022842232 0.044475015 0.003635747 0.056092784 0.0036434568 -0.027559672 0.01200486 0.06579807

encoder.3.conv_2.bias f4 [16]
00000000: 42e0 1bbc f06e 03bd 7fa5 1a3d e47b edbd
00000010: c3cb 343d 6d9a 563d 4b91 56bd b3b9 96bd
00000020: ac4f cbbc 5462 9e3d fe4b 873d 1353 1dbd
00000030: 4cec 433d a477 0dbd ec89 a4bd 89e2 3cbd
-0.009513916 -0.03208822 0.037755486 -0.11595896 0.044139635 0.052393366 -0.052384656 -0.07359638
-0.024818264 0.07733598 0.06606291 -0.038409304 0.047832772 -0.034537926 -0.08034119 -0.04611448

encoder.3.residual_layer.weight f4 [16, 8, 1, 1]
00000000: cc8c 1a3e 4fc7 57bd 3963 7f3e ec45 28bd
00000010: a572 043e 3646 dc3d 56c2 a2be f534 5abe
00000020: 8cc6 ae3e 825b 943e 32af 103e 98a0 35be
00000030: f041 afbb 4350 6b3e 95f8 5ebd 999b 96be
00000040: 017d 183d 54ce 053e 68b2 223e 1a53 d93d
00000050: cc9f a6be 541c 84be a968 573e e3d8 96be
00000060: 1bd6 6dbe 1ad5 143e 1d3b 41be 6eb3 9f3c
00000070: b24c 07be e78e 983e 615f 18be a503 84be
00000080: f892 7bbe cc3f 903e 1a05 063e f4de 3b3e
00000090: af8b 45be 58fc a1be ae15 50be 8e92 243d
000000a0: c99f 793e fa3e a53e f08b 8b3d 26c7 8ebe
000000b0: 3ee9 6d3c a272 94bc ff71 c9bd a74f 973d
000000c0: 7dc7 a43e dca3 edbd de39 9c3c f3a0 93be
000000d0: 33a9 b4bd 6ef7 223d ea1a 72be be70 d53d
000000e0: ddff 41bc 17bc 95be 3e68 9c3e d526 1fbe
000000f0: 39a9 1c3d 8e58 e2bd 2372 5fbd 8608 17be
00000100: 2a7b 723c c05c afbe e42f 6cbe 4711 44be
00000110: 2d03 3cbb 7fc5 a63e c77e f43d 67bf 49be
00000120: f643 2e3e c7f5 a6bd 6cbc c1bd 4b52 53bd
00000130: 03ff 59be 5c1f 8ebd 5763 18be 952b 543e
00000140: 1a07 f7bc 7dd6 57be 110c 8fbe 2c70 84bd
00000150: b93e 3fbe ecaa 68be bb47 cfbd 9178 133e
00000160: 37c8 203d 10f8 9a3d 52c8 543e fc9b 8fbd
00000170: c1ca da3d dff5 5bbe 8f18 32be 56ad b83d
00000180: 23ff 6cbe b730 9dbe fb4c 85be 8dca ecbd
00000190: ab0a 77be 2706 7e3e 81ef 8cbe 0f30 973e
000001a0: 246a 8f3e 7856 523e 0973 acbe 2c03 1c3e
000001b0: c8e8 9bbd 0383 aa3e 8366 1cbd 5838 af3d
000001c0: 1cd4 a4be 8dac 8f3e 67fb 273e 2fc4 40be
000001d0: 9a58 743e 8647 783d cb8b a33e a859 f23d
000001e0: 4a5b 823e 8929 9f3d 099e 5f3c 299d 2c3e
000001f0: 753a 8dbe 6505 dd3c d5f8 563e 8498 0a3e
0.15092772 -0.05268031 0.24940194 -0.041082308 0.12934358 0.10755579 -0.31788892 -0.21309264
0.34135854 0.28976065 0.14129332 -0.17737043 -0.0053484365 0.22979836 -0.054436285 -0.29415587
0.037228588 0.13066989 0.15888369 0.106115535 -0.3254379 -0.25802863 0.21036018 -0.29462346
-0.23226206 0.14534417 -0.18870206 0.019494738 -0.1321285 0.29796526 -0.14880134 -0.2578403
-0.24567783 0.28173673 0.13087884 0.18346769 -0.19291566 -0.31637836 -0.2032077 0.040178828
0.2437736 0.3227461 0.068138 -0.27886313 0.014520941 -0.018121067 -0.09836196 0.07388239
0.32183447 -0.11603519 0.019070562 -0.28833732 -0.08821335 0.03978675 -0.2364308 0.104218945
-0.011840788 -0.29245064 0.3054828 -0.15542157 0.03824732 -0.11052047 -0.05455221 -0.14749345
0.014799872 -0.3425045 -0.23065144 -0.19147216 -0.0028688416 0.32572553 0.11938243 -0.1970192
0.17018113 -0.08152347 -0.09459767 -0.051592153 -0.21288686 -0.06939575 -0.14881645 0.2071975
-0.030154753 -0.21077915 -0.27938893 -0.064667076 -0.1867627 -0.22721452 -0.101211034 0.14401461
0.03925344 0.075668454 0.20779541 -0.070121735 0.106832035 -0.21480511 -0.17392181 0.09017436
-0.23144202 -0.3070123 -0.26035294 -0.11562071 -0.24125163 0.24807034 -0.27526477 0.29528853
0.28010666 0.20540798 -0.33681515 0.15235585 -0.07612759 0.3330308 -0.0381837 0.085556686
-0.32193077 0.28061333 0.16404496 -0.18824838 0.23861924 0.060615085 0.3194259 0.11833507
0.25460273 0.07771594 0.013648518 0.16856827 -0.27583662 0.026980111 0.2099336 0.13534743

encoder.3.residual_layer.bias f4 [16]
00000000: 7644 d0bb b2e9 9c3e ebcc b33d 494d b5be
00000010: 9923 8fbe e6f8 253e 9fcc 8dbe 9800 adbe
00000020: 48b8 2dbd 68dd efbd 86e2 493c 5c1d 5b3b
00000030: ab74 37be 5cb4 67be f2d0 ab3d b5c2 063e
-0.0063558174 0.30647045 0.087793194 -0.35410526 -0.27956846 0.16208228 -0.27695176 -0.33789515
-0.042412072 -0.11712152 0.012322074 0.0033434248 -0.17915599 -0.22627395 0.083894625 0.13160212

encoder.4.groupnorm_1.weight f4 [16]
00000000: 1946 833f c23b 813f 127e 793f 2645 7d3f
00000010: 2094 813f 8bf8 813f 31c7 7e3f 6bb1 7d3f
00000020: 831b 803f c1fc 7b3f 0dcf 7c3f 63e1 803f
00000030: b4c4 7d3f a392 803f dc3a 7c3f 607e 803f
1.0255767 1.0096362 0.97457993 0.9893364 1.0123329 1.0153974 0.9952269 0.99098843
1.0008396 0.98432547 0.98753434 1.0068783 0.9912827 1.004475 0.9852731 1.0038567

encoder.4.groupnorm_1.bias f4 [16]
00000000: 4537 333c 3365 673b ac10 9d3b 3022 26bc
00000010: d57c 20bc d12b 8e3c 26a8 a5bb 91b6 dd3b
00000020: 7d9b b6bb 4719 b23b 4b9e 733b 975e 833c
00000030: 564e 09bc 448f 09bc 7e0a 9a3b 918e e3ba
0.01093847 0.0035308122 0.004793247 -0.010139987 -0.009795387 0.017354878 -0.0050554452 0.0067661484
-0.005572735 0.005435142 0.0037173207 0.016036315 -0.008380493 -0.008395974 0.004700958 -0.0017361214

encoder.4.conv_1.weight f4 [16, 16, 3, 3]
00000000: f7d0 a1bd 5de1 18bd 94df afbc c531 cebd
00000010: c3bb b1bd 086b aa3b 3d04 1a3d 8c75 95bd
00000020: d98f b13c a595 89bd cfd8 b7bd 2c55 a4bd
00000030: b37d d8bc 4549 903d fc9f 97bc 775c 683d
00000040: fe69 f73b 514f 213c abcb 673d afa7 b3bc
00000050: a1f4 6d3d a353 6e3d 2f92 a53c e0eb 043d
00000060: 34ba 55ba 78a8 ecbc 837d 6ebd 22bd 5bbd
00000070: 7911 dc39 9cbb 50bc ba06 2cbd 037e 35bd
00000080: 91db 49bd 33f5 693d 9f77 dbba 3163 63bd
00000090: 6871 be3c dcaa 863c 7301 2abd 465b 38bc
000000a0: 12bf 793d 204b 04bc 6027 373d cc1a 353d
000000b0: 806f 283c 9d54 97bc 748e 98bc 76aa 953c
000000c0: 71eb 5f3c 8a6d 163d e706 99bd ed63 bc3d
000000d0: 4eb2 bf3d 2d07 e03c 5763 88ba 066c cfbb
000000e0: f2e2 533d b34c 273d cedf 603c 3c3e a73d
000000f0: b70b 683d b4bd 92bd 86b8 b0bc a85e 113d
00000100: 5d57 44bd 24ac 423d d555 223d b46e 67bc
00000110: 3d7c 35bd c682 db3c 731a 403d 745d 69bd
00000120: 4fc7 8ebc 1264 8f3d b39a ee3c df62 2bbc
00000130: 2d5a 5ebd efdd 2a3d 4f29 153d 0970 343d
00000140: f904 433d f5cb bcbd 6052 d13c 26d7 b93b
00000150: 2888 9d3d 1041 003d ec1c aabd be6a 83bd
00000160: 491b 0a3d d70d 58bd 50d3 49bd 8966 0e3d
00000170: 850b 803c 2cd4 16bd ceab e03c c089 15bc
00000180: a0ee 053c 43fd 8ebd 36cf ae3c f330 223d
00000190: 00b8 743d b19d 0dbd b077 923d d54c 363d
000001a0: 39b2 d3bc 45bf 9dbc 8e8c 70bd 00ff b53a
000001b0: 5b8b 603d 7601 3abd f033 a13c dc63 233d
000001c0: 0985 97bc b6d8 21bd 5011 06bd 385e 54bd
000001d0: e360 c43c b17d 523d 409c 88bd 3d04 2a3d
000001e0: e2a8 0ebb 37a4 8ebc 6201 1fbd 075c 633d
000001f0: df8d 623d f4f4 5f3d ae70 403d 72f7 a23c
00000200: 51cf ecbc 90a7 adbd ac91 9c3d dacb 40bd
00000210: 139f 063d a6f3 1bbd 5f2a f1bc 3870 153d
00000220: 9702 7b3d bc8f c73c 1114 1a3d 9022 193c
00000230: 89cf efbc 6c76 08bc c9f5 62bd 931c 273d
00000240: 8df4 e93c 8e59 08bd b6ea 5bbd 039f 203d
00000250: 2659 3e3d 5617 88bd 14ff 7abd ff8f 333c
00000260: c74e b83d 733a c5bd 2394 ce3c 465a 85bc
00000270: b2f1 8d3c 2c4f ef3b 97d9 8a3d 9111 55bc
00000280: f892 91bd e0a3 9e3c 0a4d a939 91d0 88bd
00000290: 33ef c03c 49be 8dbd eb1c 7cbd b3f9 1c3c
000002a0: 2347 bcba df11 66bd 3322 97bd adbb d03c
000002b0: e881 a63d 9573 a83d 97d6 3dbd 99e6 ac3d
000002c0: c0bb 54ba 7b32 7c3d 1261 4ebc 2133 743d
000002d0: 5fd6 76bd 92bd 73bc 4213 253d 10ad e73b
000002e0: 639b 393d a664 7cbc c2d5 443d 508d 883c
000002f0: 52d7 4e3d 36c4 d53c 9a75 a8bd f5ef 84bd
00000300: 9f86 003d 2ab9 abbd 1b99 7dbd 4ead e43c
00000310: 860b 67bb 6437 30bd 232e 29bd 0424 8b3c
00000320: 9a5f a9bc 4c87 213c 85a1 3fbd 9d19 fdbc
00000330: 4aa4 e9bc ea14 d93c 24c5 623d 0ded 713d
00000340: 109b b63d bf84 00bd 74a4 6fbc 1817 773d
00000350: acd5 9dbd c876 12bc 9fa1 ac3d 7888 313d
00000360: b2e6 ad3d 304f 3fbc 10e8 883c 11f5 8bbd
00000370: 19f0 69bd dc95 553d 7ae9 f8bc 5410 963b
00000380: f62c 58bd 06df 463d 2dec 58bd aca4 80bd
00000390: d0e7 b33c bc8d b43d 6330 0d3c fb25 643d
000003a0: 91d3 a3bd d53d 05bd 7e06 0d3d 0b32 853d
000003b0: 2aaa 133d 2e9c 803b 236f b3bd 9fab 2fbd
000003c0: c0fe 80bb 7494 75bd 94be 42bd 0535 ef3c
000003d0: 656b 803c fe85 33bc 8fb3 39bd 4a42 24ba
000003e0: 90f9 c9bc 61bf 2b3d 235f 7dbb 0a2e 9fbb
000003f0: 29ec d9bc 02bd ea3c 6411 703d 297f 9f3d
-0.07901185 -0.0373243 -0.021468915 -0.100680865 -0.08678391 0.0052007474 0.0376017 -0.07297811
0.021675037 -0.067179956 -0.089769 -0.08024058 -0.026427126 0.07045225 -0.018508904 0.056728806
0.007550477 0.009845571 0.056590717 -0.021930544 0.058094624 0.05818523 0.020211307 0.03245151
-0.00081530516 -0.028888926 -0.058225166 -0.053647168 0.00041974688 -0.012740042 -0.041998602 -0.044309627
-0.04928166 0.057118606 -0.0016744024 -0.05551452 0.023247436 0.016438894 -0.04150529 -0.01125223
0.060973234 -0.008074552 0.044715285 0.04421501 0.01028049 -0.018472964 -0.018622614 0.018269759
0.013666973 0.03672556 -0.0747202 0.09198747 0.09360181 0.027347172 -0.0010405582 -0.006330016
0.051730104 0.04084463 0.013725234 0.08166167 0.056651797 -0.07165089 -0.021572363 0.03549066
-0.04793488 0.047527447 0.039632637 -0.014125515 -0.044307936 0.026795756 0.046900224 -0.05697389
-0.017429022 0.07001509 0.0291265 -0.010460584 -0.054285217 0.04171556 0.036416348 0.044052158
0.047612164 -0.09218589 0.025551975 0.0056713996 0.07691985 0.03131205 -0.08306298 -0.06416844
0.033717427 -0.052747574 -0.04927379 0.034765754 0.015630493 -0.036823437 0.027425673 -0.00912708
0.008174568 -0.069818996 0.02133904 0.039597463 0.05974579 -0.034574214 0.07151735 0.044506866
-0.02584182 -0.019256243 -0.058727793 0.00138852 0.0548204 -0.04541155 0.019678086 0.039890155
-0.018496053 -0.039513312 -0.032731354 -0.051847667 0.02397198 0.0513894 -0.06670427 0.04150795
-0.0021768142 -0.017412288 -0.038819678 0.055507686 0.05531108 0.054676965 0.04698246 0.019893382
-0.02890745 -0.08479226 0.07644972 -0.047069408 0.03286655 -0.038074158 -0.02943915 0.036483973
0.061281767 0.02436053 0.037616793 0.009346619 -0.029273765 -0.008329015 -0.05541018 0.040798735
0.028558994 -0.03328853 -0.053690635 0.039214145 0.046471737 -0.06645076 -0.061278418 0.010959624
0.089994006 -0.09630289 0.025217121 -0.016278397 0.017327163 0.007303139 0.06779783 -0.013004676
-0.0710811 0.019365251 0.0003229159 -0.06680406 0.02355156 -0.0692106 -0.061551016 0.009581017
-0.0014364462 -0.056169387 -0.0737957 0.025480116 0.081302464 0.082251705 -0.046347227 0.084424205
-0.0008115135 0.06157158 -0.012596386 0.059619073 -0.060263034 -0.01487674 0.04030157 0.007070191
0.045314204 -0.015404856 0.048055418 0.016668946 0.050498314 0.026094537 -0.08225556 -0.06491081
0.031378385 -0.083849266 -0.06191359 0.02791467 -0.0035254671 -0.043021575 -0.041303765 0.016984947
-0.02067547 0.009858917 -0.046784896 -0.030896002 -0.028520722 0.02649923 0.05536379 0.05906396
0.089162946 -0.031376597 -0.014626611 0.06032476 -0.0770677 -0.0089394525 0.08429264 0.043343037
0.08491267 -0.011676595 0.016712219 -0.06833852 -0.05711374 0.05214487 -0.030384768 0.004579583
-0.052777253 0.048552535 -0.05295961 -0.06281409 0.021961123 0.08816096 0.008617493 0.055700283
-0.079993375 -0.03252967 0.03443002 0.065036856 0.036050953 0.003924868 -0.08761432 -0.04288828
-0.0039366186 -0.05995603 -0.04754503 0.029200086 0.01567621 -0.010957239 -0.045337256 -0.00062659814
-0.024655133 0.04193056 -0.0038661442 -0.004857783 -0.026601868 0.02865458 0.058610335 0.07787926

encoder.4.conv_1.bias f4 [16]
00000000: de7e 9b3c 81b6 983c 2b45 6cbd b6c8 5abc
00000010: 3fde 583c deed 4f3c 642a 8dbd 4527 2fbd
00000020: a17c 853d 7bf2 953d 55ad 24bd 1a5d cd3c
00000030: 3878 69bd 7e2b 983d 5a74 813d 4e20 b2bd
0.018981393 0.018641712 -0.05768315 -0.013353517 0.013236581 0.012690989 -0.06892851 -0.04276206
0.06517912 0.0732164 -0.040204365 0.025068808 -0.056999415 0.074301705 0.063210204 -0.08697568

encoder.4.groupnorm_2.weight f4 [16]
00000000: bc3d 803f a69c 803f cfb9 803f c5f2 813f
00000010: 9b11 813f 7296 803f 23e4 813f 3058 7c3f
00000020: 0d3b 7d3f 1cf5 813f b606 803f e39d 7f3f
00000030: 09c7 813f 4d8b 823f 837a 813f 7628 813f
1.001884 1.0047805 1.0056704 1.0152212 1.0083498 1.0045912 1.0147747 0.98572063
0.9891823 1.0152926 1.0002048 0.9985029 1.0138866 1.0198761 1.0115513 1.0090473
