stubs/saved_models/large_convvae_v1.pt (torch, 276954 bytes, 126 tensors)

encoder.0.weight f4 [8, 2, 3, 3]
0.19676779 -0.14734574 -0.13373491 0.065780565 0.15501823 0.08455834 -0.055145927 0.058793724
0.05192814 0.20908976 -0.100430936 0.07738222 0.17588377 -0.09726711 -0.04511291 -0.19458193
-0.1372408 0.18804847 0.25839013 -0.1989911 0.0019480601 0.14566436 0.119854555 -0.19817317
0.067410275 0.03727139 -0.19192934 0.08720236 -0.12471218 0.17352124 0.17929123 0.20372115
-0.05883994 0.08596752 -0.0017278743 -0.015555388 -0.15656921 0.123720095 0.19625321 -0.10617565
-0.049070362 -0.17391455 0.12717974 -0.17925298 0.0364237 0.04587621 0.12056091 0.14313348
0.07922116 0.06835352 0.10954792 -0.1601794 -0.12892804 -0.11253784 -0.11034034 -0.047959045
0.0013945559 -0.0881546 0.12324327 -0.029567495 0.07810877 0.16376397 0.20216092 0.10745125
0.13151582 0.022386689 -0.13316533 0.20304981 -0.14567696 -0.08985746 0.03260206 0.18606848
0.102460295 0.09549649 0.18266676 0.04537954 0.084218465 -0.13768537 -0.15921275 0.1932873
-0.12257393 0.08448433 -0.011273795 -0.040341675 -0.037569493 0.15895057 -0.11761317 0.13936846
-0.14035401 0.07017272 -0.18012926 0.10618704 0.08639594 -0.06536097 -0.11291562 -0.06925358
0.082408324 -0.19317658 0.112551175 -0.17922771 -0.08782203 -0.11561957 -0.093306184 -0.16585673
-0.15558316 0.041071735 -0.18896022 -0.106087744 0.09072782 -0.099724494 0.016273877 -0.21873456
-0.15839918 0.04611892 0.07853294 0.004669945 0.086937234 0.07888487 0.1199507 0.18091697
-0.23886085 -0.14708178 -0.10307654 0.089773536 -0.17835756 -0.13898045 0.065392666 0.14394255
0.066335574 0.067645885 -0.06262912 0.17421024 -0.12641558 0.15942857 0.026434204 -0.16179654
0.11886166 0.19768418 -0.017907139 0.08418188 0.0072653755 0.14396305 -0.013517718 -0.115009926
00000000: 7f7d 493e cde1 16be cef1 08be f6b7 863d
00000010: 19bd 1e3e ec2c ad3d b2e0 61bd b0d1 703d
00000020: 9ab2 543d a01b 563e bcae cdbd 927a 9e3d
00000030: e01a 343e fb33 c7bd 51c8 38bd 7c40 47be
00000040: da88 0cbe c78f 403e b64b 843e 53c4 4bbe
00000050: 0d56 ff3a 0a29 153e 4e76 f53d e8ed 4abe
00000060: 660e 8a3d e3a9 183d 2089 44be 2797 b23d
00000070: 1969 ffbd 8daf 313e 1f98 373e 479c 503e
00000080: 2602 71bd bd0f b03d d779 e2ba 07dc 7ebc
00000090: ae53 20be f660 fd3d 9af6 483e 9f72 d9bd
000000a0: 01fe 48bd a816 32be 683b 023e 188e 37be
000000b0: 0531 153d b1e8 3b3d a3e8 f63d 9591 123e
000000c0: b43e a23d eefc 8b3d a95a e03d 1206 24be
000000d0: b605 04be 3d7a e6bd 1efa e1bd b470 44bd
000000e0: 88c9 b63a 668a b4bd f866 fc3d 8837 f2bc
000000f0: 7ef7 9f3d beb1 273e 4603 4f3e 670f dc3d
00000100: 15ac 063e 4a64 b73c 7e5c 08be 4aec 4f3e
00000110: 572c 15be 3007 b8bd bd89 053d bc88 3e3e
00000120: b4d6 d13d aa93 c33d ff0c 3b3e e6df 393d
00000130: bb7a ac3d 65fd 0cbe ab08 23be 1bed 453e
00000140: 0a08 fbbd 1f06 ad3d b9b5 38bc 503d 25bd
00000150: 78e2 19bd f0c3 223e 2cdf f0bd 9bb6 0e3e
00000160: f6b8 0fbe b7b6 8f3d ce73 38be 9778 d93d
00000170: 5bf0 b03d f9db 85bd 4e40 e7bd d2d4 8dbd
00000180: b2c5 a83d 15d0 45be 3b81 e63d 7887 37be
00000190: 09dc b3bd f4c9 ecbd 5017 bfbd 59d6 29be
000001a0: 3151 1fbe d63a 283d ca7e 41be 8844 d9bd
000001b0: 82cf b93d 5b3c ccbd cb50 853c f4fb 5fbe
000001c0: 6533 22be 31e7 3c3d e1d5 a03d 5706 993b
000001d0: 260c b23d 648e a13d b6a8 f53d 4c42 393e
000001e0: f097 74be 9b9c 16be cb19 d3bd 30db b73d
000001f0: 5da3 36be e450 0ebe 97ec 853d ad65 133e
00000200: f2da 873d ed89 8a3d b243 80bd 2b64 323e
00000210: 1673 01be 3e41 233e 8b8c d83c fead 25be
00000220: be6d f33d b96d 4a3e feb1 92bc 8d67 ac3d
00000230: 6312 ee3b 0d6b 133e 6b79 5dbc 538a ebbd

encoder.0.bias f4 [8]
0.011701154 0.09017072 -0.04203002 0.20591706 -0.16758609 0.18042053 0.14649649 -0.07660339
00000000: 32b6 3f3c 6dab b83d ac27 2cbd ecdb 523e
00000010: b09b 2bbe 29c0 383e 2d03 163e 3de2 9cbd

encoder.1.groupnorm_1.weight f4 [8]
0.9927943 1.0227524 1.0091698 0.98763967 0.9822143 1.0044864 1.0051875 1.0051173
00000000: c427 7e3f 8de9 823f 7a2c 813f f4d5 7c3f
00000010: 6572 7b3f 0393 803f fca9 803f afa7 803f

encoder.1.groupnorm_1.bias f4 [8]
-0.0041412567 0.0015698766 -0.0030708143 0.0051862164 -0.0015365143 0.003323186 -0.0017366841 -0.005402516
00000000: 61b3 87bb 51c4 cd3a b73f 49bb 23f1 a93b
00000010: dd64 c9ba cfc9 593b 73a1 e3ba 9707 b1bb

encoder.1.conv_1.weight f4 [8, 8, 3, 3]
-0.045239754 -0.090444475 -0.09150119 0.04616833 -0.06795603 -0.07038531 0.051419906 -0.09931331
0.035687618 0.089009985 -0.0573964 0.0027363056 0.09311163 -0.1028904 0.019326158 -0.061868824
-0.14686584 -0.10449 -0.0042580348 0.064259924 0.037700143 -0.0048918547 -0.07712872 -0.07247756
-0.034671843 -0.010275239 -0.009276741 0.07054082 -0.03958469 0.013304241 -0.11284166 0.030083245
0.041524973 0.010119504 0.10392846 0.10249611 0.0570049 0.032278005 -0.0997361 0.04133656
-0.027729701 0.028068364 0.07430584 0.0012731418 -0.020662773 -0.11648965 0.048576165 -0.092156984
-0.025267761 0.027396148 0.08358462 -0.025473882 -0.03747677 0.06941304 0.024542406 -0.03560248
-0.003932941 0.016434057 0.032287057 0.070203945 0.11690856 -0.06486919 -0.04248507 0.036064513
-0.079107225 -0.019504158 0.07338852 -0.086023815 -0.11409588 0.056430344 0.032686703 -0.026517017
-0.06486719 0.08083979 0.05209096 0.110813625 -0.064820275 -0.10753305 0.009963773 -0.09625261
-0.07843466 -0.08108526 -0.0060290205 -0.011935791 0.036370747 0.095360585 0.031152496 -0.04590232
0.07072443 0.06204031 0.030641166 0.10018809 -0.08490309 0.122987784 -0.011273788 -0.114994876
-0.10121045 -0.074425705 -0.059623268 0.09639141 0.010572063 0.05727982 -0.055488046 -0.07402745
0.049041048 0.118056074 0.059313804 -0.08739807 0.02657157 0.08011955 0.05791984 0.024769075
0.07750861 0.052972812 -0.060749143 0.094846584 -0.050561238 -0.044845197 0.03372263 -0.013559192
0.047417372 0.06277241 0.09081988 0.06388409 -0.06839296 -0.03696009 -0.09999025 0.10681352
0.09882086 -0.0568164 0.039002027 -0.07797186 0.07535507 0.0009597092 0.09912837 0.12531225
-0.02076796 0.1292372 0.09818001 -0.027297609 0.04605458 -0.054347403 -0.047812656 -0.018781345
0.07385266 0.042063676 -0.10529623 0.081566334 -0.057105355 -0.07609133 0.045079954 0.03581507
-0.0054275757 0.09570259 0.13870603 0.09438659 0.081035085 0.101966076 -0.075315766 -0.011741809
-0.069115296 -0.0665789 -0.03604175 0.06395064 0.008613802 -0.04645342 -0.021078493 -0.064075604
-0.08892825 -0.07448037 -0.0003275295 -0.084581204 0.10073399 -0.039025374 0.039032962 0.014321406
0.12076637 0.097614646 0.003807703 -0.061177053 0.032774195 -0.062682055 0.09745396 0.040309347
0.12864242 0.10985821 0.0748531 0.088499375 0.0051172613 0.06334722 0.010274938 -0.08103014
0.009140624 -0.0325846 -0.011511629 0.0063762474 -0.11283607 -0.00793022 -0.0042115115 0.09442415
0.059108175 -0.044457395 0.049747873 0.017060382 0.03420616 0.02337787 0.075797945 -0.031927057
0.014254333 0.16017616 0.13313344 -0.033209085 0.030927127 -0.07346219 0.007146282 0.08814538
-0.027880333 -0.0428658 -0.092955805 0.014227611 -0.013096166 -0.090361744 -0.08712287 -0.05844996
-0.077244304 0.037378233 0.009930236 -0.05030977 -0.06631226 -0.060660645 -0.011771871 -0.037757766
-0.08796814 -0.005242419 -0.04032715 -0.101402976 -0.11218191 0.08787863 -0.028504103 -0.051316112
-0.089047715 0.013648408 -0.075159855 -0.055880766 -0.040252708 -0.060076408 -0.089746006 -0.052963786
0.08278646 -0.010270467 0.034331147 -0.019853147 -0.06607647 -0.048531394 -0.11279027 -0.020210823
00000000: 524d 39bd f43a b9bd fa64 bbbd 011b 3d3d
00000010: 882c 8bbd 2c26 90bd ae9d 523d c764 cbbd
00000020: 2e2d 123d de4a b63d 7d18 6bbd 9753 333b
00000030: 4fb1 be3d 34b8 d2bd e451 9e3c 2a6a 7dbd
00000040: 0064 16be dafe d5bd fc86 8bbb b59a 833d
00000050: 776b 1a3d da4b a0bb aaf5 9dbd 1d6f 94bd
00000060: 1004 0ebd 7a59 28bc 79fd 17bc b577 903d
00000070: 8e23 22bd 08fa 593c 8719 e7bd 2371 f63c
00000080: 1716 2a3d 47cc 253c 72d8 d43d 7be9 d13d
00000090: f87d 693d f135 043d 7142 ccbd 8650 293d
000000a0: 6629 e3bc a0ef e53c a92d 983d 8ddf a63a
000000b0: fa44 a9bc 2092 eebd cdf7 463d cdbc bcbd
000000c0: 56fe cebc e36d e03c 6a2e ab3d 9aae d0bc
000000d0: 3e81 19bd 6d28 8e3d 280d c93c e8d3 11bd
000000e0: e6df 80bb b7a0 863c 6f3f 043d 16c7 8f3d
000000f0: c16d ef3d 23da 84bd d304 2ebd 62b8 133d
00000100: f802 a2bd 2fc7 9fbc b84c 963d 412d b0bd
00000110: 1aab e9bd 8123 673d 7ee2 053d 373a d9bc
00000120: 17d9 84bd 558f a53d 555d 553d 41f2 e23d
00000130: 7ec0 84bd 4a3a dcbd 183f 233c 1720 c5bd
00000140: 5aa2 a0bd 0710 a6bd 178f c5bb 568e 43bc
00000150: 7ef9 143d 694c c33d 8533 ff3c 1204 3cbd
00000160: f8d7 903d fb1d 7e3d 2f03 fb3c 6a2f cd3d
00000170: ace1 adbd 05e1 fb3d b2b5 38bc 6f82 ebbd
00000180: 6d47 cfbd 816c 98bd 8737 74bd dc68 c53d
00000190: 7236 2d3c 3f9e 6a3d 6f47 63bd b49b 97bd
000001a0: 44df 483d 62c7 f13d 08f3 723d c2fd b2bd
000001b0: 9fac d93c b815 a43d 5b3d 6d3d 84e8 ca3c
000001c0: d6bc 9e3d 05fa 583d 18d4 78bd ed3e c23d
000001d0: 4d19 4fbd 99af 37bd be20 0a3d 6027 5ebc
000001e0: b838 423d d28e 803d c6ff b93d a9d5 823d
000001f0: 9c11 8cbd 7763 17bd b0c7 ccbd 0cc1 da3d
00000200: 9762 ca3d 50b8 68bd 97c0 1f3d b6af 9fbd
00000210: c253 9a3d ff94 7b3a d103 cb3d db51 003e
00000220: 9221 aabc c256 043e 9a12 c93d 3c9f dfbc
00000230: baa3 3c3d 629b 5ebd 34d7 43bd 56db 99bc
00000240: 1040 973d f64a 2c3d 8da5 d7bd 400c a73d
00000250: 4ee7 69bd c5d5 9bbd c2a5 383d d3b2 123d
00000260: ced9 b1bb b8ff c33d f408 0e3e c24d c13d
00000270: b9f5 a53d 97d3 d03d 273f 9abd b760 40bc
00000280: 528c 8dbd 855a 88bd 84a0 13bd 8ef8 823d
00000290: e720 0d3c f145 3ebd ceac acbc 123a 83bd
000002a0: 0420 b6bd 2a89 98bd 44b8 abb9 e938 adbd
000002b0: 9f4d ce3d 12d9 1fbd 07e1 1f3d 55a4 6a3c
000002c0: 5c54 f73d 30ea c73d a88a 793b ca94 7abd
000002d0: 3c3e 063d 735f 80bd f195 c73d 6a1b 253d
000002e0: d7ba 033e 57fd e03d 954c 993d 293f b53d
000002f0: b3ae a73b 30bc 813d 3758 283c 21f3 a5bd
00000300: 8ec2 153c 6e77 05bd 469b 3cbc d7ef d03b
00000310: 9916 e7bd c1ed 01bc b800 8abb 7361 c13d
00000320: 6a1b 723d f518 36bd 6dc4 4b3d 37c2 8b3c
00000330: c21b 0c3d f282 bf3c f43b 9b3d f2c5 02bd
00000340: 028b 693c 3805 243e 2254 083e 4006 08bd
00000350: e35a fd3c 5873 96bd 5c2b ea3b 9185 b43d
00000360: 4c65 e4bc 0d94 2fbd 9d5f bebd ed1a 693c
00000370: 4d91 56bc 940f b9bd 7a6d b2bd 3a69 6fbd
00000380: 4332 9ebd eb19 193d 6eb2 223c 9e11 4ebd
00000390: b9ce 87bd 4c77 78bd cede 40bc e3a7 1abd
000003a0: a428 b4bd 99c8 abbb 152e 25bd 5dac cfbd
000003b0: a1bf e5bd b6f9 b33d 7081 e9bc d830 52bd
000003c0: a65e b6bd 939d 5f3c 69ed 99bd 3be3 64bd
000003d0: 06e0 24bd ae12 76bd c1cc b7bd 8ef0 58bd
000003e0: f38b a93d 7645 28bc d19e 0c3d 11a3 a2bc
000003f0: 1a53 87bd dbc8 46bd 96fe e6bd 2b91 a5bc

encoder.1.conv_1.bias f4 [8]
-0.076186806 -0.022949932 -0.0109797055 -0.04576977 0.021453548 0.066750444 0.09446553 0.1235305
00000000: d407 9cbd 7f01 bcbc 39e4 33bc 1579 3bbd
00000010: 5abf af3c 75b4 883d 2577 c13d 8ffd fc3d

encoder.1.groupnorm_2.weight f4 [8]
1.0002236 0.982273 1.0033531 0.9861747 0.9752505 0.9893063 0.99879587 0.9983028
00000000: 5407 803f 3e76 7b3f e06d 803f f275 7c3f
00000010: 04aa 793f 2d43 7d3f 16b1 7f3f c690 7f3f

encoder.1.groupnorm_2.bias f4 [8]
0.0038637584 0.011401562 0.014110006 -0.00367994 -0.0046009007 -0.0028925487 -0.0029633383 0.0031881812
00000000: 1c37 7d3b 9ecd 3a3c a82d 673c 262b 71bb
00000010: 27c3 96bb ea90 3dbb 9134 42bb cef0 503b

encoder.1.conv_2.weight f4 [8, 8, 3, 3]
-0.058155503 0.016175097 -0.069064975 -0.081050105 -0.004146095 -0.08597804 -0.10796541 -0.019297225
0.031074354 -0.0793977 -0.013241331 -0.10065526 -0.07862519 -0.122772954 -0.06759664 -0.074176595
0.059047703 -0.112329535 -0.12170965 -0.050234124 -0.109590486 0.05793834 0.07433696 -0.017468441
0.014493253 0.04923544 0.06701515 -0.06904867 -0.048306473 -0.038699478 -0.03438667 -0.034635127
0.08890956 -0.073670074 0.060105603 -0.09939453 -0.044559192 -0.019135311 -0.005346627 0.02935797
0.06521239 0.03523 0.008457951 0.050135832 0.00550155 -0.03606653 0.02761639 0.07484813
-0.06398273 0.026812881 0.07981572 -0.10698552 0.052037694 -0.08166439 0.003270623 -0.07786714
0.08226742 -0.084279284 0.10384595 0.076467566 -0.1130002 -0.017443612 -0.046893764 -0.010882215
-0.03999124 0.0041680844 -0.07971193 0.09367961 0.0386842 -0.097734764 0.047486898 -0.055704657
0.09192606 -0.04845649 0.057239395 0.108038016 0.090377115 -0.083891906 -0.022637818 0.037078235
-0.01073349 -0.092653126 -0.103636965 0.09569515 -0.089542836 0.026986051 0.072069764 -0.008371265
0.046288967 -0.032813393 -0.09491512 -0.11922139 0.07669358 -0.03496881 0.04475179 0.10080677
0.013089129 -0.009444614 -0.102030374 0.027178654 -0.10406626 -0.1378048 -0.06524539 -0.029121544
0.06287635 0.0009812085 0.039869454 -0.044329513 0.063376814 -0.013027328 -0.01803456 0.025258258
0.026751412 -0.00020367063 -0.015003355 -0.112732515 -0.002621945 -0.10198762 0.12227037 0.059862696
0.078470975 0.06656178 -0.05696879 0.13276762 -0.017529074 0.100904085 -0.0859452 0.07861805
-0.046742514 0.09542825 -0.105748944 -0.11500952 -0.048274823 0.07061735 0.01398786 -0.03724061
0.119890705 0.014527013 0.08626338 -0.037819766 -0.09433488 0.03441417 0.056739327 0.097194895
0.024020452 -0.07390988 -0.039251212 0.12628683 0.021624213 -0.04124894 -0.09525495 0.073815934
-0.04223018 -0.07827974 -0.0568637 -0.083302654 0.047449265 0.07362263 -0.0378774 0.08204523
-0.06589892 -0.06960272 0.12959366 -0.07595888 -0.042561963 0.09737775 0.019384256 0.087252304
0.09891045 0.017374355 0.0928771 0.11068239 -0.06452598 0.11525688 0.08679702 -0.018820167
-0.14919363 -0.06434409 0.112273015 0.06425372 -0.12768185 0.08605995 0.098423965 0.08492614
0.034241114 0.02644569 -0.06412861 -0.04213938 -0.10108385 -0.030072829 -0.06575942 0.051283114
0.08275739 0.029840771 0.03525504 -0.033016253 -0.038702287 -0.029591182 0.07324826 0.0615782
0.04766491 0.09028554 0.0010213621 -0.064256 0.044808168 -0.065238535 0.10449089 0.049685296
0.10845801 0.100450285 0.0978612 0.08269189 0.10259513 0.0041845283 0.08275539 0.08151479
0.037280392 0.052188896 0.081753224 -0.020721242 0.046909474 -0.0023915041 0.0043836744 0.019688513
0.09209472 -0.008653861 -0.07504454 0.06302583 -0.07055672 0.07617929 -0.010326096 0.027108237
-0.10524601 0.042963095 0.058419082 -0.021992305 0.046795495 0.035724606 -0.072635844 -0.046959516
0.05624359 0.015200901 -0.0040866975 0.052004185 0.039524242 -0.0029242362 0.055896226 -0.04784839
-0.072189234 0.08127861 0.012623358 0.0789068 0.016228596 -0.019538108 -0.08660103 -0.08770769
00000000: 7734 6ebd a381 843c f071 8dbd 99fd a5bd
00000010: f7db 87bb 4115 b0bd f81c ddbd 3715 9ebc
00000020: a58f fe3c 439b a2bd 2bf2 58bc 5824 cebd
00000030: 3e06 a1bd 6370 fbbd 1b70 8abd e6e9 97bd
00000040: 01dc 713d 070d e6bd e942 f9bd 4cc2 4dbd
00000050: fa70 e0bd c150 6d3d fa3d 983d fa19 8fbc
00000060: 1c75 6d3c 1aab 493d 3d3f 893d 6469 8dbd
00000070: 02dd 45bd 5883 1ebd 09d9 0cbd 90dd 0dbd
00000080: 3716 b63d 56e0 96bd 4b31 763d 5c8f cbbd
00000090: b383 36bd a8c1 9cbc c232 afbb 2080 f03c
000000a0: 138e 853d 554d 103d 3893 0a3c 3b5b 4d3d
000000b0: 5946 b43b 7fba 13bd c43b e23c fa49 993d
000000c0: 6109 83bd b0a6 db3c 6d76 a33d 391b dbbd
000000d0: 7a25 553d a93f a7bd f357 563b cf78 9fbd
000000e0: d27b a83d 9e9a acbd 2fad d43d 079b 9c3d
000000f0: a66c e7bd e8e5 8ebc ad13 40bd 514b 32bc
00000100: dbcd 23bd 6d94 883b 0240 a3bd 18db bf3d
00000110: 5373 1e3d 2a29 c8bd 9f81 423d 912a 64bd
00000120: bb43 bc3d 507a 46bd db73 6a3d 0943 dd3d
00000130: a317 b93d 85cf abbd f272 b9bc 59df 173d
00000140: 85db 2fbc ecc0 bdbd 9e3f d4bd d2fb c33d
00000150: 3c62 b7bd da11 dd3c 5099 933d a127 09bc
00000160: 8099 3d3d 5667 06bd dc62 c2bd 582a f4bd
00000170: 8611 9d3d 743b 0fbd a74d 373d c873 ce3d
00000180: c973 563c 95bd 1abc 4df5 d0bd c5a5 de3c
00000190: b120 d5bd b41c 0dbe 609f 85bd 4e90 eebc
000001a0: 51c5 803d e59b 803a 274e 233d dd92 35bd
000001b0: b4cb 813d 9370 55bc 37bd 93bc 68ea ce3c
000001c0: c725 db3c 6b90 55b9 a2d0 75bc 4ee0 e6bd
000001d0: f0d4 2bbb e3de d0bd e368 fa3d 9632 753d
000001e0: 64b5 a03d 8b51 883d 1b58 69bd 3cf4 073e
000001f0: 2299 8fbc cda6 ce3d 0904 b0bd 8002 a13d
00000200: 1475 3fbd e36f c33d e792 d8bd 1c8a ebbd
00000210: d2bb 45bd d49f 903d 562d 653c 9c89 18bd
00000220: 4289 f53d b502 6e3c dbaa b03d e6e8 1abd
00000230: a532 c1bd dff5 0c3d 7f67 683d 1e0e c73d
00000240: 8ac6 c43c 105e 97bd e1c5 20bd 5651 013e
00000250: 4325 b13c a6f4 28bd 0715 c3bd cf2c 973d
00000260: 8ef9 2cbd 2151 a0bd e9e9 68bd 959a aabd
00000270: 295a 423d 76c7 963d 5525 1bbd 5407 a83d
00000280: 03f6 86bd df8b 8ebd 33b4 043e 5490 9bbd
00000290: 7455 2ebd fc6d c73d bbcb 9e3c 56b1 b23d
000002a0: 9091 ca3d aa54 8e3c 5936 be3d 73ad e23d
000002b0: 3226 84bd cd0b ec3d a3c2 b13d c02c 9abc
000002c0: 37c6 18be d6c6 83bd 65ef e53d 7497 833d
000002d0: 08bf 02be 3340 b03d 8192 c93d c2ed ad3d
000002e0: 6940 0c3d a2a4 d83c dc55 83bd 589a 2cbd
000002f0: 0d05 cfbd 4b5b f6bc e0ac 86bd 3e0e 523d
00000300: b57c a93d a274 f43c 9767 103d 0d3c 07bd
00000310: 4a86 1ebd 3569 f2bc 2f03 963d 6c39 7c3d
00000320: 483c 433d a0e7 b83d 3adf 853a a698 83bd
00000330: c588 373d c89b 85bd 52ff d53d cf82 4b3d
00000340: 3c1f de3d e1b8 cd3d 746b c83d 5e5a a93d
00000350: 651d d23d 5e1e 893b a87b a93d 3af1 a63d
00000360: 53b3 183d 06c4 553d 3c6e a73d 98bf a9bc
00000370: 2624 403d c8ba 1cbb eda4 8f3b ce49 a13c
00000380: 289c bc3d ecc8 0dbc f4b0 99bd b013 813d
00000390: 0b80 90bd e303 9c3d c92e 29bc 1812 de3c
000003a0: 388b d7bd 12fa 2f3d d948 6f3d 3529 b4bc
000003b0: a2ac 3f3d f753 123d 1ac2 94bd 9f58 40bd
000003c0: ae5f 663d 330d 793c b4e9 85bb 5702 553d
000003d0: 2ce4 213d 8ba4 3fbb 71f3 643d acfc 43bd
000003e0: f3d7 93bd 6675 a63d 33d2 4e3c e399 a13d
000003f0: d5f1 843c 620e a0bc e15b b1bd 17a0 b3bd

encoder.1.conv_2.bias f4 [8]
0.08477556 -0.025822919 -0.04686815 0.106532894 -0.056511946 -0.031578112 -0.08092028 -0.02342808
00000000: cf9e ad3d 968a d3bc d1f8 3fbd eb2d da3d
00000010: 1279 67bd 0d58 01bd 88b9 a5bd 3fec bfbc

encoder.2.weight f4 [8, 8, 3, 3]
0.030118635 -0.08676905 -0.016774558 -0.0038372048 -0.10522416 0.028427161 -0.078134894 0.020693097
0.11699865 0.10857535 -0.12384902 0.0022164257 0.07146007 -0.08209414 0.07945176 0.07232388
0.018405858 0.017018639 0.013673657 -0.075674206 0.066540696 0.042823866 -0.10317802 0.0103447
-0.05445079 -0.026335394 -0.0355986 0.046559796 0.018039009 0.01709401 0.011849138 0.07609526
0.08097051 0.028904697 -0.09641139 -0.022018448 0.09228203 0.06826064 -0.03309268 0.053768642
-0.11020319 -0.08767271 0.08500709 -0.086409 0.0362146 -0.047158044 0.1250199 -0.0035870192
0.118886255 0.05117587 0.07614286 -0.028360067 0.054969326 0.0507938 -0.0809495 -0.109600134
0.022180827 -0.027481582 -0.06589858 -0.06406151 0.10154292 -0.08150209 -0.06264829 -0.117625475
0.014522519 0.03744921 -0.002374782 -0.097294115 0.12300593 -0.097413294 -0.02887248 -0.06406436
0.08820373 0.11801045 0.029022833 -0.08519051 -0.08585058 0.062252577 0.044619296 0.087050036
-0.06087707 0.06963743 -0.09483375 0.061859388 0.0068485267 0.107581556 -0.11263801 -0.018742489
-0.063971125 0.07788601 0.09054283 -0.0008798156 0.069705926 0.11001075 0.013509723 0.09375571
0.05245762 -0.07654523 -0.0881739 -0.091909334 0.004604132 0.09470179 0.049672145 -0.08519598
-0.019369062 0.0067748344 -0.09843348 0.102617234 0.033598978 0.024179343 0.050774768 -0.06445777
0.04012855 0.10583655 0.0025727618 0.051586512 0.0173235 0.057888903 -0.022526229 -0.046381697
-0.1043502 0.06493704 -0.015011227 0.09377159 -0.04009226 -0.03480916 -0.10505529 0.09226816
-0.05613755 0.016659101 0.07869639 0.07113865 0.08595627 0.07056515 -0.12755708 0.11585715
0.05247828 0.10282376 -0.06621904 0.09669024 0.005646202 0.08139504 0.11115692 0.049037635
-0.030479593 0.037435744 0.014634328 -0.051397696 0.048869755 0.07853657 -0.057109315 -0.0811629
-0.08225072 0.030247334 0.060937468 -0.031895787 0.06418003 0.07621828 -0.11401626 0.05763508
0.04991646 -0.08217374 0.010616412 0.004219325 0.056359425 -0.08739499 0.11499285 0.11884775
0.1123606 -0.042144153 -0.036231074 0.11332623 0.090984 -0.06780186 -0.098796465 0.0063603316
-0.04711357 -0.0044924063 0.051296253 0.004426331 -0.005658932 0.006514339 0.048301116 0.07142561
-0.03790199 0.10620103 -0.07903184 0.07423171 0.024578467 0.0013496437 -0.098986976 -0.0042428854
-0.08314891 -0.02894441 -0.12543717 0.03216228 -0.020361114 -0.034879744 -0.04371169 0.056950323
-0.13028845 -0.003920184 0.09354061 0.100664996 -0.038908347 0.0180139 -0.025951043 0.025388423
0.09402352 -0.06368478 0.043783344 0.04924023 -0.039656013 -0.07843522 0.029782875 -0.02755972
-0.076009706 0.08082038 -0.06734714 -0.09598884 -0.0085142795 -0.041259803 -0.038009863 0.0560961
0.01088594 -0.06695451 0.013642172 -0.024299875 -0.11375297 0.015006416 0.09408011 -0.07615773
-0.002480169 0.090540476 -0.0311899 0.13132213 0.0153094 -0.01822383 -0.038447693 -0.002521823
0.09514822 0.016637893 -0.06543523 0.03690549 0.108600885 -0.011961145 -0.025086217 0.09703347
-0.058156017 -0.055951532 0.07853102 -0.058791414 0.028574273 -0.0470807 -0.11021892 -0.050090455
00000000: 5bbb f63c f9b3 b1bd cc6a 89bc 9d79 7bbb
00000010: c47f d7bd 14e0 e83c 3005 a0bd 9284 a93c
00000020: fd9c ef3d c15c de3d 8ea4 fdbd 7441 113b
00000030: a859 923d f920 a8bd 9bb7 a23d 8b1e 943d
00000040: e2c7 963c ac6a 8b3c 7907 603c 14fb 9abd
00000050: 7d46 883d 1468 2f3d ff4e d3bd d17c 293c
00000060: cb07 5fbd 53bd d7bc d6cf 11bd 7cb5 3e3d
00000070: 8bc6 933c bd08 8c3c e322 423c d5d7 9b3d
00000080: ded3 a53d 8bc9 ec3c 5673 c5bd 0860 b4bc
00000090: 5cfe bc3d 3ccc 8b3d 318c 07bd 823c 5c3d
000000a0: 36b2 e1bd c08d b3bd 3218 ae3d 34f7 b0bd
000000b0: c355 143d cb28 41bd 3705 003e 3214 6bbb
000000c0: a37a f33d ca9d 513d caf0 9b3d 5f53 e8bc
000000d0: 8427 613d 290d 503d dac8 a5bd 0976 e0bd
000000e0: 91b4 b53c 0e21 e1bc d6f5 86bd ae32 83bd
000000f0: bcf5 cf3d 91ea a6bd bf4d 80bd a0e5 f0bd
00000100: dcef 6d3c 5864 193d 3ba2 1bbb 2342 c7bd
00000110: 88ea fb3d 9f80 c7bd fb85 ecbc 2d34 83bd
00000120: 28a4 b43d 76af f13d 4bc1 ed3c 5d78 aebd
00000130: 6ed2 afbd 8ffc 7e3d b9c2 363d 4a47 b23d
00000140: 3c5a 79bd 129e 8e3d 3238 c2bd 4560 7d3d
00000150: 9b69 e03b b853 dc3d c2ae e6bd d989 99bc
00000160: 4b03 83bd b382 9f3d 856e b93d 6da3 66ba
00000170: fbc1 8e3d 514d e13d e357 5d3c fe02 c03d
00000180: cddd 563d bfc3 9cbd 8594 b4bd f63a bcbd
00000190: 42de 963b 03f3 c13d 0575 4b3d 3b7b aebd
000001a0: deab 9ebc 6eff dd3b 7e97 c9bd fc28 d23d
000001b0: 159f 093d c213 c63c 34f9 4f3d 6f02 84bd
000001c0: d65d 243d d5c0 d83d c89b 283b 614c 533d
000001d0: 03ea 8d3c ea1c 6d3d ed88 b8bc bcfa 3dbd
000001e0: 8fb5 d5bd b6fd 843d a6f1 75bc 520b c03d
000001f0: c837 24bd 0d94 0ebd 3a27 d7bd 17f7 bc3d
00000200: 7df0 65bd ab78 883c 932b a13d 24b1 913d
00000210: d709 b03d 7684 903d 539e 02be 8346 ed3d
00000220: 77f3 563d 4395 d23d d99d 87bd 8805 c63d
00000230: c603 b93b 71b2 a63d 3da6 e33d b0db 483d
00000240: 57b0 f9bc 3956 193d d2c4 6f3c 6486 52bd
00000250: a72b 483d c8d7 a03d 75eb 69bd bc38 a6bd
00000260: 1173 a8bd 42c9 f73c 9199 793d 28a5 02bd
00000270: d270 833d 5418 9c3d 5b81 e9bd c312 6c3d
00000280: 3475 4c3d b54a a8bd 76f0 2d3c 4342 8a3b
00000290: 24d9 663d 25fc b2bd 5f81 eb3d 7366 f33d
000002a0: 501d e63d 599f 2cbd 0967 14bd 9517 e83d
000002b0: d255 ba3d b4db 8abd cd55 cabd 546a d03b
000002c0: 29fa 40bd 0935 93bb 051c 523d c10a 913b
000002d0: 906e b9bb 3c76 d53b 64d7 453d 9747 923d
000002e0: 1e3f 1bbd ed7f d93d 72db a1bd cb06 983d
000002f0: c858 c93c 87e6 b03a afb9 cabd e707 8bbb
00000300: fa49 aabd d41c edbc 9a72 00be 98bc 033d
00000310: 5acc a6bc 10de 0ebd 070b 33bd be44 693d
00000320: 566a 05be e374 80bb 3892 bf3d 7329 ce3d
00000330: 5c5e 1fbd e391 933c 4897 d4bc 62fb cf3c
00000340: 678f c03d 2a6d 82bd 2a56 333d 20b0 493d
00000350: 586e 22bd a5a2 a0bd 37fb f33c ecc4 e1bc
00000360: faaa 9bbd 2885 a53d 4ced 89bd cc95 c4bd
00000370: 7a7f 0bbc 0a00 29bd 3bb0 1bbd 06c5 653d
00000380: f15a 323c 721f 89bd 6b83 5f3c 8810 c7bc
00000390: 51f7 e8bd 78dd 753c 13ad c03d 95f8 9bbd
000003a0: 558a 22bb 496d b93d f681 ffbc 4f79 063e
000003b0: 47d4 7a3c 244a 95bc 547b 1dbd 2b45 25bb
000003c0: 12dd c23d 314c 883c e802 86bd 362a 173d
000003d0: 246a de3d aef8 43bc 9c81 cdbc 7cb9 c63d
000003e0: 0135 6ebd 6f2d 65bd dfd4 a03d 44cf 70bd
000003f0: 9814 ea3c b1d7 40bd 75ba e1bd a62b 4dbd

encoder.2.bias f4 [8]
-0.055483874 -0.024507143 -0.10040626 -0.01604297 -0.09009552 0.045307722 0.108960204 0.10130948
00000000: 0f43 63bd 34c3 c8bc cca1 cdbd 8c6c 83bc
00000010: 0084 b8bd 9794 393d 8726 df3d 587b cf3d

encoder.3.groupnorm_1.weight f4 [8]
0.99025714 0.9870654 1.009078 0.99727726 0.9919274 0.9901149 0.9900839 1.0224802
00000000: 7e81 7d3f 51b0 7c3f 7829 813f 904d 7f3f
00000010: f4ee 7d3f 2c78 7d3f 2376 7d3f a2e0 823f

encoder.3.groupnorm_1.bias f4 [8]
-0.0082768435 -0.009728786 0.021903576 0.0053406474 0.0013106894 0.009657379 -0.008578086 0.0449593
00000000: 999b 07bc 7c65 1fbc 216f b33c 9900 af3b
00000010: 70cb ab3a fc39 1e3c 1a8b 0cbc 3e27 383d

encoder.3.conv_1.weight f4 [16, 8, 3, 3]
0.07551596 -0.034822788 -0.062331457 -0.052783884 0.052612167 0.09236872 0.06981714 0.022837266
0.005755273 0.06381847 0.077201754 0.09272047 0.014062886 -0.029169183 -0.022486536 0.01458856
0.02533737 0.023261117 0.030297142 0.07795985 0.060969315 0.14754762 0.067767404 0.05997398
-0.06143271 -0.07938607 0.027486382 0.10667227 -0.087739855 -0.020787707 0.1008891 0.08873937
0.11434989 -0.040848754 -0.01859826 0.045629635 -0.050813545 0.03759538 -0.08376971 0.042874914
-0.023214912 0.09096806 0.10701186 0.066557124 -0.041351095 0.047269206 -0.031710498 0.055044603
-0.046548087 -0.081372924 -0.057880495 -0.021521857 -0.104015335 0.06231492 -0.054397456 0.055916674
0.010732237 0.07491105 -0.0657897 -0.050108656 -0.012891867 0.06940166 0.043854795 -0.02439862
-0.06756138 0.05163918 -0.031903505 0.07779517 0.016585512 0.08788286 -0.043445945 -0.045263737
0.008618903 0.079255514 -0.095090374 0.04478123 -0.014217012 -0.08723778 -0.11686423 -0.11019049
0.037988663 -0.01527881 0.10958961 0.026648471 -0.038220562 0.034602866 -0.05212961 0.09703916
-0.070821166 -0.01164288 -0.05237726 -0.0035018178 0.09137118 0.08669238 -0.083587065 -0.049409702
0.109466195 0.09235433 0.010097914 0.018787498 0.0151136685 0.079936184 -0.0811788 0.059539624
-0.0040267566 -0.06475659 -0.024132418 -0.12218787 -0.039559387 -0.052339528 -0.09338559 -0.079569206
0.06222682 -0.04862954 0.022776084 -0.022140374 0.10074923 0.07669789 0.094637 0.112651646
-0.039261095 0.07182047 0.0010399956 0.07613785 0.0282339 0.08782629 -0.03623365 -0.01499853
-0.1061154 -0.09235945 -0.082660414 -0.11463957 0.020515338 0.019130468 -0.06630099 -0.03264223
0.02790366 -0.03163828 0.08773551 -0.029796729 0.06510115 0.069067396 0.052896146 0.05800014
0.08033865 0.05069703 -0.11016169 0.05897436 0.021034662 0.11045738 0.041838035 -0.120713286
0.08565741 -0.02071317 0.0414586 0.016368845 0.04077726 -0.027703688 0.06654372 -0.013473737
-0.013835398 0.015600977 0.03512311 0.03640975 0.107864626 0.02812686 -0.033257116 -0.030219823
-0.1026168 0.12292792 -0.10169308 0.11383108 -0.09839912 0.045997605 0.033543967 0.002201549
0.04729754 -0.03399837 -0.03400409 -0.027695816 -0.1158829 -0.020829022 0.043989856 0.0048315967
-0.04248485 0.086754255 -0.052604295 0.028837178 0.05645128 0.015887935 0.025702044 -0.11812913
-0.09562383 -0.11292329 0.03224037 -0.05809523 0.04582064 0.017973032 -0.1060763 0.080512695
0.08397179 -0.021547858 0.056811456 -0.03731528 -0.0045231255 0.06913255 0.062010005 -0.03891223
0.04272275 0.08177915 -0.1253136 -0.078158036 -0.05110135 -0.09208612 -0.043601274 -0.11876725
-0.020120189 0.07096898 -0.052119076 -0.015513398 0.06632385 0.017286627 -0.017076142 0.049288247
0.099966474 -0.095462464 -0.06852549 -0.03350377 0.09826763 -0.11739037 -0.004793657 -0.009973994
-0.11407686 0.031818278 0.12631431 0.11173099 0.047226176 0.06793797 0.061098587 -0.015431535
0.11097917 -0.052397903 0.072055176 -0.07781834 0.07462482 -0.088870004 0.03505513 -0.036678858
0.014969893 -0.015268319 0.0627004 0.022474324 -0.040930875 0.08826363 0.060833484 -0.003926852
00000000: 1da8 9a3d 57a2 0ebd 454f 7fbd ea33 58bd
00000010: db7f 573d d02b bd3d 4afc 8e3d 3815 bb3c
00000020: bb96 bc3b 42b3 823d f41b 9e3d 3be4 bd3d
00000030: 0568 663c 36f4 eebc af35 b8bc db04 6f3c
00000040: 5190 cf3c 198e be3c b631 f83c 6aa9 9f3d
00000050: f6ba 793d b916 173e a3c9 8a3d 47a7 753d
00000060: dea0 7bbd 2a95 a2bd 1f2b e13c fe76 da3d
00000070: f4b0 b3bd fb4a aabc f29e ce3d fdbc b53d
00000080: 4630 ea3d 0651 27bd 615b 98bc 24e6 3a3d
00000090: dd21 50bd 9dfd 193d 748f abbd 9b9d 2f3d
000000a0: 332d bebc 764d ba3d 0929 db3d 1a4f 883d
000000b0: c45f 29bd 5b9d 413d dee2 01bd 7376 613d
000000c0: 35a9 3ebd d9a6 a6bd 1914 6dbd 9b4e b0bc
000000d0: fe05 d5bd ee3d 7f3d decf 5ebd e208 653d
000000e0: 44d6 2f3c f76a 993d c0bc 86bd bc3e 4dbd
000000f0: 6938 53bc 7522 8e3d 16a1 333d 9ddf c7bc
00000100: 9f5d 8abd 9b83 533d 40ad 02bd 1353 9f3d
00000110: 57de 873c eefb b33d 60f4 31bd 7866 39bd
00000120: 4d36 0d3c b750 a23d bebe c2bd 866c 373d
00000130: 78ee 68bc b9a9 b2bd 8356 efbd 8dab e1bd
00000140: 009a 1b3d f953 7abc 8470 e03d e54d da3c
00000150: 2a8d 1cbd bcbb 0d3d dc85 55bd 78bc c63d
00000160: b00a 91bd c7c1 3ebc 8a89 56bd c17e 65bb
00000170: d020 bb3d c68b b13d b22f abbd d461 4abd
00000180: d02f e03d 4424 bd3d b971 253c 3de8 993c
00000190: 529f 773c 95b5 a33d 1241 a6bd d2df 733d
000001a0: e2f2 83bb 1a9f 84bd 59b1 c5bc a23d fabd
000001b0: 0609 22bd f961 56bd f240 bfbd 2ef5 a2bd
000001c0: 8de1 7e3d c52f 47bd e994 ba3c bb5f b5bc
000001d0: 9d55 ce3d c913 9d3d 0bd1 c13d e8b5 e63d
000001e0: 3ed0 20bd 9c16 933d 7650 883a 29ee 9b3d
000001f0: c84a e73c 45de b33d bc69 14bd 65bc 75bc
00000200: 0853 d9bd f426 bdbd dd49 a9bd 27c8 eabd
00000210: c80f a83c 80b7 9c3c d0c8 87bd dcb3 05bd
00000220: 3796 e43c 2497 01bd adae b33d 4518 f4bc
00000230: c053 853d 3573 8d3d a1a9 583d 8e91 6d3d
00000240: 9788 a43d b0a7 4f3d 749c e1bd 198f 713d
00000250: e250 ac3c 7b37 e23d 5c5e 2b3d 8738 f7bd
00000260: 276d af3d aaae a9bc 7ed0 293d f517 863c
00000270: 0e06 273d d8f2 e2bc 1348 883d f3c0 5cbc
00000280: ddad 62bc 3e9b 7f3c 40dd 0f3d 6422 153d
00000290: 21e8 dc3d 4d6a e63c 9d38 08bd 908f f7bc
000002a0: c228 d2bd a2c1 fb3d 7644 d0bd 4520 e93d
000002b0: 7a85 c9bd fc67 3c3d 6665 093d dd47 103b
000002c0: 11bb 413d e041 0bbd df47 0bbd 56e2 e2bc
000002d0: 0454 edbd a0a1 aabc b52e 343d 5f52 9e3b
000002e0: 9804 2ebd 37ac b13d 9a77 57bd f23b ec3c
000002f0: 7539 673d 6a27 823c 188d d23c afed f1bd
00000300: 6dd6 c3bd 5344 e7bd 7a0e 043d 44f5 6dbd
00000310: 6cae 3b3d 2e3c 933c 883e d9bd d7e3 a43d
00000320: 67f9 ab3d 2285 b0bc 21b3 683d e8d7 18bd
00000330: ba36 94bb 5e95 8d3d 34fe 7d3d 6e62 1fbd
00000340: 0dfe 2e3d d47b a73d 3552 00be 5211 a0bd
00000350: a64f 51bd a697 bcbd 4097 32bd 3e3c f3bd
00000360: 18d3 a4bc 2f58 913d d07a 55bd e82b 7ebc
00000370: ccd4 873d af9c 8d3c 44e3 8bbc 79e2 493d
00000380: 39bb cc3d d381 c3bd 1857 8cbd 403b 09bd
00000390: 8a40 c93d 5d6a f0bd 1c14 9dbb f769 23bc
000003a0: 21a1 e9bd e253 023d 8a58 013e 38d3 e43d
000003b0: 3c70 413d 1023 8b3d 8342 7a3d 8dd4 7cbc
000003c0: 0c49 e33d 2f9f 56bd aa91 933d 395f 9fbd
000003d0: e6d4 983d 7a01 b6bd f895 0f3d 923c 16bd
000003e0: 4844 753c f927 7abc 1169 803d 131c b83c
000003f0: 22a7 27bd 90c3 b43d 882c 793d d2ac 80bb

encoder.3.conv_1.bias f4 [16]
0.061833918 0.07262105 -0.06806178 -0.038439065 -0.1172267 -0.009314996 0.0015230712 -0.023915209
-0.013652987 0.07406014 0.059819166 0.100999855 -0.12949254 -0.08953273 -0.0868626 0.01656751
00000000: 9045 7d3d 58ba 943d f963 8bbd 4872 1dbd
00000010: 8d14 f0bd ed9d 18bc caa1 c73a d4e9 c3bc
00000020: c7b0 5fbc d8ac 973d f104 753d 03d9 ce3d
00000030: b199 04be f05c b7bd 05e5 b1bd 96b8 873c

encoder.3.groupnorm_2.weight f4 [16]
0.9978901 1.0000978 1.0060626 0.98445576 0.9877073 0.98936653 0.98636746 0.98095703
0.9818282 1.0057787 0.9924517 0.9927585 0.99216616 0.9905515 0.99640876 0.98086673
00000000: ba75 7f3f 3403 803f a9c6 803f 4b05 7c3f
00000010: 63da 7c3f 2047 7d3f 9482 7c3f 0020 7b3f
00000020: 1859 7b3f 5bbd 803f 5111 7e3f 6c25 7e3f
00000030: 9afe 7d3f c894 7d3f a514 7f3f 151a 7b3f

encoder.3.groupnorm_2.bias f4 [16]
-0.00082652096 0.0046216454 0.014706706 0.007598362 -0.012234349 0.00013469534 0.0012931892 -0.0012881415
0.0016780184 0.0061102235 -0.01223749 0.0062720445 -0.00050532364 0.011102559 -0.0015995436 -0.008025519
00000000: e2aa 58ba 2c71 973b 65f4 703c aefb f83b
00000010: 9472 48bc 013d 0d39 3b80 a93a dbd6 a8ba
00000020: f4f0 db3a 4538 c83b c17f 48bc b985 cd3b
00000030: b277 04ba 82e7 353c c7a7 d1ba 777d 03bc

encoder.3.conv_2.weight f4 [16, 16, 3, 3]
0.031937473 0.023330465 -0.015030157 -0.027889807 -0.030660432 -0.043289796 -0.03456582 -0.06679602
-0.020401882 0.05286387 -0.017378734 -0.017652357 -0.013600514 0.06575563 0.08355074 0.0014406976
0.0032522036 0.05678996 0.075535275 -0.06323625 0.0056600524 -0.060276616 -0.041546825 -0.03938922
-0.065896444 -0.040604748 0.052600015 -0.03824383 0.07914196 -0.08872559 0.07698849 -0.02844733
0.06085888 0.01802137 0.027726058 0.0036302295 -0.0083160475 0.066709444 -0.031385988 -0.040077318
-0.0060693054 0.011085448 0.054104727 0.02489331 -0.06245739 0.05475445 0.05693469 -0.0553043
-0.037385125 -0.051795382 -0.08154924 -0.07872739 -0.025260689 0.027208488 -0.07504542 -0.0058123525
0.019947894 0.050723333 -0.05877419 -0.06096867 0.068956 -0.04826116 0.016015766 -0.03095571
0.09790393 0.040697638 0.071884245 -0.020136114 -0.0048512067 -0.06139133 0.072575934 -0.030607536
0.0798367 -0.04255604 -0.0056098076 -0.021140415 0.031907443 -0.055953998 0.036895134 -0.034047153
0.0590243 0.061776567 0.06542868 0.08520145 -0.060783144 0.100858405 -0.054596476 0.031038577
-0.020278525 0.03956795 -0.0024015722 0.083369546 0.03874267 -0.020475896 -0.013518943 0.060671493
-0.060693648 0.03340278 0.019631794 0.04329637 -0.05415085 0.026059685 -0.015737962 -0.06502651
0.011570893 0.03130453 0.022288984 -0.049517073 -0.060393132 0.01773547 0.01568195 0.024715288
-0.0001535049 -0.04080151 -0.027228596 0.052414935 -0.009619497 0.0007854517 0.0056434767 -0.01821224
0.052557122 -0.042089377 0.07248766 -0.041822154 -0.0160667 -0.045517977 0.08272681 -0.049838554
0.03699217 -0.04719001 0.07689023 0.056181505 0.052156094 -0.0676183 0.024808662 -0.06440023
0.017523507 0.08075836 -0.036057748 0.058303606 0.02173135 -0.030499198 -0.06961572 -0.015504984
-0.05215463 0.033390407 -0.046232253 0.06893507 -0.06821498 -0.012811084 0.0074976496 0.022675855
0.034836777 0.062668964 0.083989315 0.018335238 -0.016597768 -0.027594881 -0.020913132 0.004523833
0.028523235 -0.038985256 0.044825893 -0.03450458 -0.050390188 0.031019703 0.011405402 -0.047388736
-0.07419903 0.08262031 -0.0051440094 0.05048225 -0.00018729837 -0.02892374 -0.05804409 -0.04007324
-0.033468615 -0.020935696 -0.052175898 0.032446705 0.0537773 0.069855 0.037252642 -0.043011945
-0.040430482 -0.06265783 0.07146881 -0.029770384 0.01603381 -0.049044576 -0.023803966 0.0018286206
-0.07743993 0.013225192 -0.041145276 -0.00836395 -0.052050583 0.041604146 0.04178959 -0.04023029
-0.047291208 -0.0568082 -0.016560752 -0.06642144 0.041279085 0.0035562054 -0.035292074 -0.025727168
0.030677231 0.03966724 -0.009603349 0.011775613 0.042775005 -0.037633967 -0.0073213275 -0.026556179
0.029864358 0.01121457 0.008258806 0.02641846 0.014998684 -0.026280306 -0.06147252 0.07610713
-0.02806827 -0.059662562 0.061687823 0.026043778 -0.0021959597 -0.043629326 -0.052179527 -0.04102479
0.034682732 -0.04722923 0.04498684 -0.018375259 -0.047786895 0.003110035 -0.027352287 -0.0724713
0.05948665 0.04096981 0.047362957 -0.05638654 -0.03064588 -0.07240551 0.011548307 0.0071569337
-0.055943504 0.022025943 0.006564998 0.0035361124 -0.049138848 -0.040379126 -0.05680563 0.07719275
00000000: ded0 023d 881f bf3c 0c41 76bc 2a79 e4bc
00000010: 962b fbbc a450 31bd e494 0dbd 5acc 88bd
00000020: d921 a7bc c987 583d d95d 8ebc ad9b 90bc
00000030: b1d4 5ebc e3aa 863d a61c ab3d cad5 bc3a
00000040: ec22 553b 979c 683d 3db2 9a3d 0282 81bd
00000050: f677 b93b 9de4 76bd 012d 2abd 9756 21bd
00000060: b7f4 86bd 2a51 26bd 1d73 573d 90a5 1cbd
00000070: 2e15 a23d c3b5 b5bd 24ac 9d3d 600a e9bc
00000080: 2947 793d 8da1 933c c221 e33c 25e9 6d3b
00000090: 0840 08bc f69e 883d 988e 00bd 1d28 24bd
000000a0: 06e1 c6bb bd9f 353c eb9c 5d3d 0eed cb3c
000000b0: 52d3 7fbd 3446 603d 5934 693d c386 62bd
000000c0: 2521 19bd 6527 54bd 4a03 a7bd d33b a1bd
000000d0: 81ef cebc 56e4 de3c 6ab1 99bd 8c75 bebb
000000e0: c469 a33c 45c3 4f3d 34bd 70bd 49ba 79bd
000000f0: ce38 8d3d 7ead 45bd 7f33 833c d496 fdbc
00000100: db81 c83d 91b2 263d 0c38 933d 7ef4 a4bc
00000110: dff6 9ebb 7a75 7bbd b1a2 943d a8bc fabc
00000120: 6c81 a33d 3e4f 2ebd 7ad2 b7bb aa2e adbc
00000130: 61b1 023d 0530 65bd 5a1f 173d 0775 0bbd
00000140: 77c3 713d 6d09 7d3d 79ff 853d 197e ae3d
00000150: bff7 78bd da8e ce3d 8ea0 5fbd 9d44 fe3c
00000160: 261f a6bc 0112 223d b263 1dbb a7bd aa3d
00000170: a2b0 1e3d 11bd a7bc 8f7e 5dbc ac82 783d
00000180: e799 78bd 5ad1 083d dbd2 a03c 8957 313d
00000190: 48cd 5dbd 1f7b d53c e6ec 80bc 9e2c 85bd
000001a0: d893 3d3c 2e39 003d 6397 b63c 6ad2 4abd
000001b0: ca5e 77bd fa49 913c 6f77 803c b777 ca3c
000001c0: 28f6 20b9 7c1f 27bd 810e dfbc 0bb1 563d
000001d0: 189b 1dbc c5e6 4d3a eaec b83b d631 95bc
000001e0: 2346 573d e965 2cbd 6974 943d b54d 2bbd
000001f0: 509e 83bc 0f71 3abd ac6c a93d 8323 4cbd
00000200: 1a85 173d 504a 41bd a078 9d3d 941e 663d
00000210: a1a1 553d 777b 8abd 893b cb3c 45e4 83bd
00000220: 758d 8f3c a464 a53d 4ab1 13bd c3cf 6e3d
00000230: f205 b23c 74d9 f9bc b092 8ebd 9e08 7ebc
00000240: 18a0 55bd 61c4 083d 085e 3dbd d42d 8d3d
00000250: 4cb4 8bbd 95e5 51bc d8ae f53b b7c2 b93c
00000260: 02b1 0e3d 9658 803d 9702 ac3d c833 963c
00000270: 0bf8 87bc a90e e2bc 0452 abbc a93c 943b
00000280: 8fa9 e93c 01af 1fbd 5b9b 373d ad54 0dbd
00000290: f165 4ebd 081d fe3c b9dd 3a3c b11a 42bd
000002a0: a9f5 97bd d634 a93d 148f a8bb 7ac6 4e3d
000002b0: 8665 44b9 7bf1 ecbc a4bf 6dbd d623 24bd
000002c0: 6316 09bd 5681 abbc 65b6 55bd d6e6 043d
000002d0: 9645 5c3d 2310 8f3d 3a96 183d 4b2d 30bd
000002e0: 6f9a 25bd c052 80bd 3d5e 923d 05e1 f3bc
000002f0: 5659 833c f7e2 48bd 8900 c3bc 53ae ef3a
00000300: d398 9ebd 7aae 583c f387 28bd f308 09bc
00000310: fe32 55bd 1c69 2a3d 902b 2b3d 84c8 24bd
00000320: 6db4 41bd b7af 68bd 6aaa 87bc f707 88bd
00000330: 4214 293d 3a0f 693b 6c8e 10bd c8c1 d2bc
00000340: d14e fb3c 1e7a 223d 5d57 1dbc 80ee 403c
00000350: d834 2f3d 1326 1abd bfe7 efbb 588c d9bc
00000360: 19a6 f43c 51bd 373c f14f 073c 876b d83c
00000370: 0abd 753c cc49 d7bc 9cca 7bbd 0ede 9b3d
00000380: 6eef e5bc bb60 74bd 5fac 7c3d c359 d53c
00000390: 17ea 0fbb aab4 32bd 33ba 55bd 9c09 28bd
000003a0: 7b0f 0e3d 7073 41bd 1f44 383d b687 96bc
000003b0: 31bc 43bd bbd1 4b3b e711 e0bc d56b 94bd
000003c0: 46a8 733d f6cf 273d a9ff 413d 93f5 66bd
000003d0: 120d fbbc 5749 94bd 1c35 3d3c b684 ea3b
000003e0: 0425 65bd c06f b43c 321f d73b 1fbe 673b
000003f0: d145 49bd 9564 25bd 05ad 68bd 3c17 9e3d

encoder.3.conv_2.bias f4 [16]
-0.043844696 -0.034922596 0.04903139 0.04513425 -0.05426881 0.0487975 -0.0028327198 0.07462486
-0.056856517 0.015910527 -0.07459047 0.04426852 0.035861224 0.02117167 -0.039759327 -0.07905306
00000000: 7f96 33bd ff0a 0fbd 24d5 483d b1de 383d
00000010: f948 5ebd e3df 473d 27a5 39bb ebd4 983d
00000020: 61e2 68bd cb56 823c e3c2 98bd e852 353d
00000030: 38e3 123d 3670 ad3c adda 22bd 92e6 a1bd

encoder.3.residual_layer.weight f4 [16, 8, 1, 1]
0.060672347 0.13212095 0.2978406 -0.09366154 0.16837554 -0.35356516 -0.28318855 -0.060559742
-0.10641612 -0.32895812 0.01753163 0.005502676 0.01210664 0.21167488 -0.20226195 0.041301575
0.16334835 0.19968373 0.12154363 -0.23364182 -0.21634233 -0.13608736 -0.30460596 0.12880743
0.098951764 0.14739607 0.17385586 0.28485388 0.037697937 0.06352072 0.08888246 -0.11598543
-0.0053995815 -0.32759577 0.32412314 0.050293572 -0.00078033726 0.047799747 -0.10963979 -0.14687619
0.31887382 -0.097088605 0.15795864 0.2520629 0.25107536 -0.119724944 -0.20872098 0.2438364
0.17769742 -0.2838231 -0.17848228 0.105564006 0.19354267 0.29568025 -0.32218638 0.18959029
-0.13156264 -0.3420986 -0.15611297 0.029845739 -0.037800204 -0.14275862 0.10063947 -0.24910411
-0.33971855 -0.10056633 -0.2623535 -0.068238474 0.09923875 -0.011981715 -0.10636438 0.06442586
0.22560197 -0.0032394188 0.2610251 0.14931998 0.2623283 0.16924378 -0.041273598 0.14683762
-0.21544749 -0.24782626 -0.32429215 -0.11911297 0.19990785 -0.0010245114 0.00404672 0.16450797
0.013592667 -0.16873889 -0.18410274 0.00972398 0.19133243 -0.28470588 -0.064681984 -0.066284664
0.19812776 0.21604714 0.08253453 0.16108593 0.17793477 -0.10898193 0.13431917 -0.017253235
-0.07490225 -0.21538194 0.31871712 -0.20696183 -0.0073964573 0.33144185 0.18455234 0.35533237
-0.15066044 0.08966731 -0.13401283 -0.20734474 0.13375038 -0.30239254 -0.12912844 -0.07978261
0.31951037 0.17848456 -0.10154157 0.2704297 -0.0036975064 -0.1779879 -0.0820966 -0.016802803
00000000: 9183 783d b74a 073e 907e 983e 9fd1 bfbd
00000010: a36a 2c3e 7e06 b5be 17fe 90be 7e0d 78bd
00000020: b2f0 d9bd 336d a8be 7e9e 8f3c cb4f b43b
00000030: ee5a 463c 4dc1 583e c21d 4fbe d72b 293d
00000040: ca44 273e e479 4c3e deeb f83d cd3f 6fbe
00000050: d888 5dbe 7c5a 0bbe 50f5 9bbe 18e6 033e
00000060: 39a7 ca3d ffee 163e 4507 323e 5ed8 913e
00000070: 2769 1a3d 2717 823d 0208 b63d c589 edbd
00000080: f9ee b0bb a2ba a7be 78f3 a53e a200 4e3d
00000090: 8c8f 4cba abc9 433d d48a e0bd b666 16be
000000a0: 6e43 a33e 64d6 c6bd e9bf 213e 630e 813e
000000b0: f38c 803e 5a32 f5bd f4ba 55be 40b0 793e
000000c0: 50f6 353e 4351 91be 0fc4 36be f131 d83d
000000d0: 0d30 463e 6763 973e 9df5 a4be f523 423e
000000e0: 5bb8 06be 8c27 afbe 14dc 1fbe 0d7f f43c
000000f0: 63d4 1abd 512f 12be 111c ce3d 2615 7fbe
00000100: 97ef adbe b8f5 cdbd 3353 86be 9dc0 8bbd
00000110: b03d cb3d f54e 44bc 91d5 d9bd b5f1 833d
00000120: 3404 673e 6e4c 54bb 15a5 853e 56e7 183e
00000130: e54f 863e 3e4e 2d3e 810e 29bd 9a5c 163e
00000140: 449e 5cbe 2bc6 7dbe 9f09 a6be 80f1 f3bd
00000150: a5b4 4c3e e648 86ba 599a 843b c774 283e
00000160: c7b3 5e3c e3c9 2cbe 6e85 3cbe 5451 1f3c
00000170: a6ec 433e f8c4 91be fd77 84bd 41c0 87bd
00000180: 01e2 4a3e 763b 5d3e dd07 a93d b6f3 243e
00000190: 8834 363e eb31 dfbd f78a 093e a856 8dbc
000001a0: 5a66 99bd 158d 5cbe e42e a33e cded 53be
000001b0: fb5d f2bb bfb2 a93e 4afb 3c3e 20ee b53e
000001c0: bb46 1abe 7fa3 b73d a93a 09be 2e52 54be
000001d0: dcf5 083e 32d3 9abe 3f3a 04be 1165 a3bd
000001e0: dd96 a33e a8c4 363e 07f5 cfbd c375 8a3e
000001f0: dd51 72bb 7642 36be 4322 a8bd 08a6 89bc

encoder.3.residual_layer.bias f4 [16]
-0.30300918 0.26282877 0.0116028795 -0.2665921 0.13687731 0.04238415 -0.27662918 -0.30200484
0.28409258 -0.24877629 -0.26921135 -0.022663921 0.0078578545 -0.24152179 0.3418304 0.22250324
00000000: 0524 9bbe 7e91 863e 011a 3e3c c27e 88be
00000010: 9129 0c3e 019b 2d3d 57a2 8dbe 61a0 9abe
00000020: 9574 913e 36bf 7ebe 12d6 89be b0a9 b9bc
00000030: 3bbe 003c 7d51 77be 6504 af3e e4d7 633e

encoder.4.groupnorm_1.weight f4 [16]
1.007136 1.0070571 1.0077977 0.99810815 0.9948743 0.9944053 0.9892349 0.994835
0.9881971 0.99023145 0.9921852 1.0071317 1.0104682 1.0068882 0.99924505 1.0022025
00000000: d5e9 803f 3fe7 803f 84ff 803f 0484 7f3f
00000010: 15b0 7e3f 5991 7e3f 803e 7d3f 82ad 7e3f
00000020: 7cfa 7c3f cf7f 7d3f d9ff 7d3f b1e9 803f
00000030: 0657 813f b6e1 803f 86ce 7f3f 2c48 803f

encoder.4.groupnorm_1.bias f4 [16]
0.010777343 0.0025185496 0.0011897954 0.01860984 0.0046376665 0.005569603 -0.00071003457 0.0027102237
-0.011287513 -0.020552695 -0.0053187422 -0.0056229034 0.012119377 0.011120509 0.009454592 0.008789113
00000000: 7493 303c 400e 253b e9f2 9b3a aa73 983c
00000010: 91f7 973b 3781 b63b 9d21 3aba 029e 313b
00000020: 43ef 38bc 205e a8bc d848 aebb 5540 b8bb
00000030: 5a90 463c cc32 363c 6fe7 1a3c 3600 103c

encoder.4.conv_1.weight f4 [16, 16, 3, 3]
0.015919777 0.08259437 0.020472813 -0.09841128 -0.008017452 -0.046654087 -0.073492795 0.015670976
-0.0010515172 0.014668255 0.05465414 0.010726172 -0.010360579 -0.004210381 0.05922683 0.010034729
0.033362936 0.050777126 0.048119914 -0.06589813 -0.0043289545 -0.007159847 0.063655265 -0.033007625
0.0012743473 -0.027634963 0.07619294 0.0659111 -0.05328027 -0.02262561 0.07238726 0.009944905
0.0058651697 0.06596278 -0.06459421 0.046569545 0.028588802 0.08091439 0.0039152154 0.102210335
0.0016325823 -0.019857379 0.027451357 -0.068218365 0.045397718 -0.064811334 0.03423531 0.079339445
-0.043233257 -0.023695856 -0.02732906 -0.078100145 -0.042082988 0.023500936 -0.032627776 -0.0799401
-0.07570564 -0.0448309 0.009933288 -0.009253949 0.0106874285 0.055224475 -0.03864412 0.031581786
-0.018696547 0.0044551333 0.05755073 -0.0237917 -0.043866225 -0.07790404 0.02309096 0.043587465
0.033127367 0.044115014 0.04319144 0.05985048 0.017153723 -0.0053303423 0.066627905 -0.0464395
-0.047703303 0.026927939 -0.03516799 0.0141860815 0.035417438 0.043909524 -0.061160296 -0.016677149
0.04960505 -0.082539715 0.070429206 0.002940379 0.047200263 0.04245684 -0.103123635 -0.025372908
0.087472394 0.08597824 -0.005838922 0.0046466836 0.004381924 0.0032337045 -0.013558356 -0.021754522
0.03916246 -0.05987637 0.004610162 -0.032504957 0.07983502 0.027458759 0.020418275 0.067814216
-0.06667162 0.06970381 -0.04011026 -0.006860698 0.06430113 -0.054123584 -0.03258792 0.043618
-0.07329179 0.029848645 -0.08595206 0.016134322 0.05979906 -0.009697213 -0.057661116 0.085355796
0.004818734 -0.006764151 0.064044826 0.026365915 0.004925246 0.031886216 0.050967384 0.02337003
-0.036386427 0.066585675 0.015854338 0.03206523 -0.009883909 -0.024374032 -0.037912328 0.054721784
0.023524696 0.012880923 0.106586196 0.054529987 0.069471665 0.044900656 0.05366416 -0.040571686
0.04333331 0.06767883 -0.053243287 0.022827167 0.05176724 -0.06541772 0.030201575 -0.028967086
-0.023211632 -0.034501627 0.085987724 0.025183272 0.0022773012 -0.014245713 0.042621315 -0.021098118
-0.04959137 -0.054645106 -0.07581121 -0.00011313382 -0.07247439 -0.07414829 0.018146403 -0.0025130236
0.03096775 -0.04601377 -0.046510205 -0.018637314 0.04647085 0.064119205 -0.0029539815 -0.052087568
-0.05347562 0.032843012 0.018326852 0.05397689 0.066259086 0.066698715 0.057159007 -0.07660368
0.038560677 0.080206916 0.053073794 -0.084000245 -0.003179544 -0.080620505 -0.03001455 0.06142666
-0.003695725 -0.005074895 -0.025431199 0.06222136 -0.06005112 -0.023708144 0.00063500134 -0.039569713
0.073267505 0.0086195795 0.040226277 -0.021132285 -0.026732452 0.026973158 -0.0013914098 -0.055531852
-0.033830564 0.015985347 0.011811999 0.053231932 0.046456028 0.026185356 0.07526878 0.016967015
-0.05193774 0.04817071 -0.05816414 0.016858276 -0.03209541 0.010033347 0.055458818 -0.062965676
0.006753015 -0.061567258 0.022572143 0.0072114742 0.0015012771 0.028809031 -0.054033265 0.061562356
-0.06566329 -0.046169735 -0.07818033 -0.022500051 -0.011966243 0.05996222 0.053924028 -0.083443046
-0.024527753 0.06139083 -0.04465149 -0.03575969 0.013473988 0.060923107 -0.077648364 -0.07726727
00000000: 316a 823c 3d27 a93d 9ab6 a73c da8b c9bd
00000010: a25b 03bc 5b18 3fbd 6483 96bd 6b60 803c
00000020: 10d3 89ba 1f53 703c 05dd 5f3d d3bc 2f3c
00000030: 6bbf 29bc 3cf7 89bb d597 723d b468 243c
00000040: 93a7 083d adfb 4f3d 6319 453d 99f5 86bd
00000050: e7d9 8dbb 269d eabb b15d 823d 0133 07bd
00000060: 0008 a73a b862 e2bc 0b0b 9c3d 66fc 863d
00000070: 6a3c 5abd 5859 b9bc c63f 943d f4ef 223c
00000080: 9c30 c03b 7e17 873d f849 84bd b5bf 3e3d
00000090: 1033 ea3c 72b6 a53d 354b 803b a753 d13d
000000a0: 5ffc d53a f1ab a2bc abe1 e03c 12b6 8bbd
000000b0: f5f2 393d cebb 84bd 533a 0c3d b87c a23d
000000c0: 5b15 31bd d01d c2bc 31e1 dfbc f8f2 9fbd
000000d0: 365f 2cbd 0985 c03c b4a4 05bd a3b7 a3bd
000000e0: 8f0b 9bbd 9ba0 37bd 3bbf 223c e09d 17bc
000000f0: 531a 2f3c 0f33 623d 4c49 1ebd e75b 013d
00000100: 8029 99bc 5efc 913b 50ba 6b3d d0e6 c2bc
00000110: 12ad 33bd 278c 9fbd 4129 bd3c c588 323d
00000120: 90b0 073d f2b1 343d 82e9 303d c725 753d
00000130: f785 8c3c 27aa aebb 3674 883d 5837 3ebd
00000140: 8a64 43bd fb97 dc3c 4f0c 10bd bd6c 683c
00000150: e011 113d 79da 333d 3883 7abd 849e 88bc
00000160: aa2e 4b3d 950a a9bd 303d 903d 60b3 403b
00000170: 1055 413d 39e7 2d3d 7c32 d3bd d8da cfbc
00000180: ba24 b33d 5c15 b03d 6e54 bfbb 3543 983b
00000190: 3e96 8f3b 8fec 533b de23 5ebc 8a36 b2bc
000001a0: d168 203d ed40 75bd d810 973b eb23 05bd
000001b0: 8b80 a33d 31f1 e03c 3a44 a73c 2ee2 8a3d
000001c0: 218b 88bd dfc0 8e3d a84a 24bd b5cf e0bb
000001d0: 50b0 833d b1b0 5dbd e97a 05bd caa8 323d
000001e0: 021a 96bd 2585 f43c a207 b0bd 202c 843c
000001f0: dcef 743d 0fe1 1ebc 102e 6cbd 05cf ae3d
00000200: 78e6 9d3b d0a5 ddbb ef29 833d 55fd d73c
00000210: f563 a13b 1f9b 023d 2dc3 503d 8172 bf3c
00000220: ef09 15bd 125e 883d f5e0 813c d556 033d
00000230: 1ef0 21bc 0dac c7bc f549 1bbd f323 603d
00000240: ddb6 c03c 820a 533c dd49 da3d d65a 5f3d
00000250: 2947 8e3d c0e9 373d f3ce 5b3d 7f2e 26bd
00000260: 457e 313d 339b 8a3d a215 5abd 0a00 bb3c
00000270: e309 543d baf9 85bd 4b69 f73c 624c edbc
00000280: 5226 bebc 9451 0dbd 551a b03d 264d ce3c
00000290: c63e 153b da66 69bc b093 2e3d f6d5 acbc
000002a0: 5220 4bbd 8cd3 5fbd e842 9bbd 4242 edb8
000002b0: 746d 94bd 0fdb 97bd c4a7 943c 8ab1 24bb
000002c0: 14b0 fd3c ef78 3cbd 7c81 3ebd 48ad 98bc
000002d0: 3858 3e3d ee50 833d 9697 41bb c659 55bd
000002e0: 4009 5bbd 6586 063d 3222 963c df16 5d3d
000002f0: d8b2 873d 5699 883d 901f 6a3d 64e2 9cbd
00000300: cdf1 1d3d 8643 a43d e863 593d 5208 acbd
00000310: e55f 50bb 5d1c a5bd 13e1 f5bc 859a 7b3d
00000320: fa33 72bb 4e4b a6bb 1755 d0bc d3db 7e3d
00000330: 2af8 75bd 9537 c2bc 3876 263a da13 22bd
00000340: 460d 963d 2339 0d3c 4fc4 243d 9d1d adbc
00000350: 04fe dabc d0f6 dc3c f75f b6ba 5e75 63bd
00000360: eb91 0abd b4f3 823c 1d87 413c ba09 5a3d
00000370: ad48 3e3d ac82 d63c 8526 9a3d 69fe 8a3c
00000380: abbc 54bd a74e 453d 853d 6ebd 5e1a 8a3c
00000390: 7a76 03bd e862 243c c928 633d 26f4 80bd
000003a0: 6548 dd3b f32d 7cbd 37e9 b83c 3b4e ec3b
000003b0: 80c6 c43a eb00 ec3c fc51 5dbd cf28 7c3d
000003c0: 7a7a 86bd 7a1c 3dbd 021d a0bd 0752 b8bc
000003d0: 100e 44bc f29a 753d 71df 5c3d 30e4 aabd
000003e0: 6dee c8bc f374 7b3d 7be4 36bd c178 12bd
000003f0: 00c2 5c3c 828a 793d 1b06 9fbd 4d3e 9ebd

encoder.4.conv_1.bias f4 [16]
0.035376146 0.068660595 -0.0681613 0.0114488695 0.003583637 -0.00063599355 -0.07140988 0.06545003
-0.005826395 0.019661574 0.041862022 -0.052583873 0.038984034 -0.057597704 0.07834822 -0.046856266
00000000: 94e6 103d ed9d 8c3d 2798 8bbd 0a94 3b3c
00000010: 74db 6a3b ceb8 26ba 583f 92bd aa0a 863d
00000020: 58eb bebb 4f11 a13c 8377 2b3d 3062 57bd
00000030: b9ad 1f3d 92eb 6bbd 0875 a03d 5bec 3fbd

encoder.4.groupnorm_2.weight f4 [16]
1.0023137 1.0029399 1.0117289 1.0016463 0.99470663 1.0059386 1.0047398 0.99969316
0.98882407 1.0024661 0.9852727 0.9983014 0.9857081 0.9969333 1.0291647 0.99597365
00000000: d14b 803f 5660 803f 5580 813f f235 803f
00000010: 18a5 7e3f 99c2 803f 509b 803f e4eb 7f3f
00000020: 9323 7d3f cf50 803f d53a 7c3f ae90 7f3f
00000030: 5e57 7c3f 0537 7f3f abbb 833f 21f8 7e3f
