stubs/saved_models/large_convvae_v1_01.pt (torch, 275720 bytes, 126 tensors)

encoder.0.weight f4 [8, 2, 3, 3]
0	0x3e497108	0.19672024
1	0xbe16cadf	-0.14725827
2	0xbe0866c2	-0.13320449
3	0x3d89fb93	0.06737437
4	0x3e1f5032	0.15557936
5	0x3dacc306	0.08435635
6	0xbd637569	-0.055531893
7	0x3d710698	0.05884418
8	0x3d5246a0	0.051336884
9	0x3e56efcf	0.20989917
10	0xbdcb948e	-0.09940444
11	0x3d996d11	0.07491506
12	0x3e34b916	0.1764873
13	0xbdc71510	-0.09720814
14	0xbd3cfc1a	-0.04613886
15	0xbe4724d4	-0.19447643
16	0xbe0c91cc	-0.13727492
17	0x3e3f3d14	0.18675643
18	0x3e84cb66	0.2593643
19	0xbe4ab8f0	-0.1979711
20	0x3b5f9f51	0.003412206
21	0x3e15c789	0.14626898
22	0x3df47436	0.11936228
23	0xbe49df3a	-0.1971406
24	0x3d8a524e	0.067539796
25	0x3d14b11d	0.03630172
26	0xbe4268a6	-0.18985233
27	0x3db6a184	0.089175254
28	0xbdff1666	-0.12455444
29	0x3e30c7f9	0.17263784
30	0x3e381c84	0.17979628
31	0x3e51cf31	0.20489193
32	0xbd766036	-0.060150348
33	0x3db054a8	0.08609897
34	0xbb020c03	-0.0019843585
35	0xbc7e89fa	-0.015535826
36	0xbe1ee0ec	-0.15515488
37	0x3e00080b	0.12503068
38	0x3e48d39a	0.1961197
39	0xbdd58539	-0.10425801
40	0xbd468e3d	-0.048475493
41	0xbe2fea03	-0.17179112
42	0x3e01fafc	0.12693399
43	0xbe37b85f	-0.17941426
44	0x3d149725	0.036276955
45	0x3d37d135	0.04487725
46	0x3dfafeca	0.122556284
47	0x3e1211fa	0.1426467
48	0x3d9ff604	0.07810596
49	0x3d8b259c	0.06794283
50	0x3ddec283	0.10876944
51	0xbe224b19	-0.1584896
52	0xbe0189b1	-0.12650181
53	0xbde58d67	-0.11208611
54	0xbde41b05	-0.11137966
55	0xbd4241dc	-0.04742609
56	0x3b35d668	0.0027746204
57	0xbdb52909	-0.088457175
58	0x3dfb8af2	0.12282361
59	0xbcec2b71	-0.028829308
60	0x3d9f8d6d	0.07790647
61	0x3e275835	0.16342242
62	0x3e4f3986	0.20236787
63	0x3dd9c4e8	0.1063326
64	0x3e0530ba	0.13006869
65	0x3cb6b345	0.02230228
66	0xbe07a6ee	-0.13247272
67	0x3e50529e	0.20344016
68	0xbe13ca9c	-0.14432758
69	0xbdb8448b	-0.089974485
70	0x3d03fe10	0.032224715
71	0x3e3f1de5	0.18663748
72	0x3dd29b51	0.102835305
73	0x3dc39f75	0.095518984
74	0x3e3a87cf	0.1821587
75	0x3d3ad2f9	0.045611355
76	0x3dadb448	0.084816515
77	0xbe0c53e5	-0.13703878
78	0xbe20840d	-0.15675373
79	0x3e44a211	0.19202448
80	0xbdf75091	-0.12075914
81	0x3daa7cfd	0.08324621
82	0xbc39cbba	-0.011340076
83	0xbd1fbd1f	-0.03899872
84	0xbd197104	-0.037461296
85	0x3e23acf8	0.15983951
86	0xbdf0fc43	-0.11766865
87	0x3e0eda45	0.1395045
88	0xbe0dd933	-0.13852386
89	0x3d8f543b	0.069984876
90	0xbe38ec92	-0.18058994
91	0x3dd952bf	0.10611486
92	0x3db02b3c	0.08601996
93	0xbd8788fa	-0.06617923
94	0xbde91273	-0.11380472
95	0xbd8ff5eb	-0.07029327
96	0x3da5f81c	0.08103964
97	0xbe460205	-0.19336708
98	0x3de39afd	0.11113546
99	0xbe37f947	-0.17966186
100	0xbdb35a41	-0.08757449
101	0xbdea40a9	-0.11438114
102	0xbdbe972f	-0.0930618
103	0xbe29b91d	-0.16574521
104	0xbe202709	-0.1563989
105	0x3d245092	0.0401159
106	0xbe41f994	-0.18942863
107	0xbdd5d59a	-0.10441132
108	0x3dbbf6f9	0.09177966
109	0xbdcb556c	-0.09928402
110	0x3c8e0e42	0.017340783
111	0xbe60e070	-0.21960616
112	0xbe2103bf	-0.15724085
113	0x3d41b266	0.047289275
114	0x3d9ea304	0.077459365
115	0x3b63aef9	0.0034741743
116	0x3db1bf7e	0.08679102
117	0x3da34ede	0.07974027
118	0x3df47c1e	0.11937736
119	0x3e38d787	0.18050967
120	0xbe7545fe	-0.23952481
121	0xbe175a69	-0.14780582
122	0xbdd46d97	-0.10372465
123	0x3dbae19d	0.091250636
124	0xbe354a8f	-0.17704223
125	0xbe0e19ee	-0.13877079
126	0x3d86bf2f	0.06579434
127	0x3e140422	0.14454702
128	0x3d87f842	0.06639148
129	0x3d8aa1a0	0.06769109
130	0xbd809b70	-0.06279647
131	0x3e31da7e	0.17368504
132	0xbe0113e8	-0.1260525
133	0x3e233314	0.15937454
134	0x3cd5b3bd	0.026086682
135	0xbe252c74	-0.16130239
136	0x3df52d39	0.11971516
137	0x3e4a796f	0.19772886
138	0xbc8adae1	-0.016950073
139	0x3daac83a	0.083389714
140	0x3c0d78fd	0.008634803
141	0x3e13fe9b	0.14452593
142	0xbc58292c	-0.01319341
143	0xbde9ef50	-0.11422598

encoder.0.bias f4 [8]
0	0x3c3a39af	0.011366292
1	0x3db83197	0.089938335
2	0xbd285a84	-0.041101947
3	0x3e52e6be	0.20595834
4	0xbe2bec41	-0.16789342
5	0x3e391b17	0.1807674
6	0x3e165ff4	0.1468504
7	0xbd9d41a8	-0.076785386

encoder.1.groupnorm_1.weight f4 [8]
0	0x3f7ea3ac	0.99468493
1	0x3f82dbc4	1.0223317
2	0x3f815885	1.0105139
3	0x3f7c86e1	0.9864331
4	0x3f7b4fb7	0.9816851
5	0x3f807309	1.0035106
6	0x3f809270	1.0044689
7	0x3f80b5fd	1.0055538

encoder.1.groupnorm_1.bias f4 [8]
0	0xbb636773	-0.0034699112
1	0x3aeab45a	0.0017906532
2	0xbb5b8d36	-0.0033500916
3	0x3b922a3e	0.004460602
4	0xbab8f82a	-0.0014112045
5	0x3b82e2e6	0.0039943336
6	0xbac7f788	-0.0015256265
7	0xbbb857f9	-0.0056257215

encoder.1.conv_1.weight f4 [8, 8, 3, 3]
0	0xbd39a4f6	-0.045323335
1	0xbdb63a4e	-0.088978395
2	0xbdbe1fbd	-0.09283397
3	0x3d384b62	0.044993766
4	0xbd8c3634	-0.06846276
5	0xbd8ea16b	-0.06964382
6	0x3d575d36	0.052579127
7	0xbdccc544	-0.09998563
8	0x3d176953	0.03696568
9	0x3db61a44	0.088917285
10	0xbd6b02b3	-0.05737562
11	0x3adb5569	0.0016733828
12	0x3dbd52b3	0.09244289
13	0xbdd34e13	-0.10317626
14	0x3c9c1258	0.019051716
15	0xbd74c55d	-0.059758533
16	0xbe170ae7	-0.14750253
17	0xbdd7fa84	-0.10545829
18	0xbb851d90	-0.004062362
19	0x3d824638	0.063610494
20	0x3d173e49	0.036924634
21	0xbba70869	-0.005097438
22	0xbda0d230	-0.0785259
23	0xbd955a41	-0.07292605
24	0xbd0d9a26	-0.034570836
25	0xbc173ec8	-0.009231277
26	0xbc33dc12	-0.010977762
27	0x3d90cab6	0.07069914
28	0xbd1f5a8c	-0.03890471
29	0x3c50960c	0.012731086
30	0xbde9a570	-0.11408508
31	0x3cf5fd19	0.030027913
32	0x3d2dade3	0.04240216
33	0x3c29d08d	0.010364664
34	0x3dd3e0c5	0.10345606
35	0x3dd235ae	0.10264145
36	0x3d6b7f71	0.057494584
37	0x3d05f8ab	0.03270785
38	0xbdcb2aad	-0.09920249
39	0x3d2b5618	0.041830152
40	0xbce37678	-0.027766451
41	0x3ce3f6c8	0.027827635
42	0x3d997c8b	0.07494458
43	0xbac80261	-0.0015259498
44	0xbca796b9	-0.020457612
45	0xbdef89ed	-0.11696229
46	0x3d4c0c22	0.04981626
47	0xbdb95c48	-0.090508044
48	0xbcc7d72e	-0.024394598
49	0x3ce69607	0.02814771
50	0x3da9df8d	0.08294592
51	0xbce117a5	-0.027477095
52	0xbd184d71	-0.03718323
53	0x3d8ffa35	0.07030145
54	0x3cc8b89c	0.024502091
55	0xbd0f7202	-0.035020836
56	0xbb7a1896	-0.0038161627
57	0x3c7bf61e	0.015378503
58	0x3d0293b5	0.031879146
59	0x3d8d22b2	0.06891383
60	0x3dedaa2a	0.11604722
61	0xbd84df2f	-0.064878814
62	0xbd2b8da8	-0.04188314
63	0x3d12e137	0.035859313
64	0xbda0ea24	-0.07857159
65	0xbc9cd0d1	-0.01914254
66	0x3d96bbf8	0.07360071
67	0xbdb39304	-0.087682754
68	0xbdeb46f7	-0.11488145
69	0x3d645bde	0.055751674
70	0x3d058f6b	0.032607477
71	0xbcdcc02a	-0.0269471
72	0xbd82345f	-0.06357645
73	0x3da73559	0.08164472
74	0x3d5bfab1	0.053705875
75	0x3de72f39	0.11288304
76	0xbd83715c	-0.06418106
77	0xbdd920c8	-0.10601956
78	0x3c450339	0.012024694
79	0xbdc92758	-0.09821957
80	0xbd9da8ad	-0.07698188
81	0xbda2a4be	-0.07941578
82	0xbbac56ed	-0.005259386
83	0xbc31754c	-0.010831188
84	0x3d145f8a	0.036223926
85	0x3dc1d140	0.094637394
86	0x3d012704	0.03153135
87	0xbd3a13b8	-0.04542896
88	0x3d8e879d	0.0695946
89	0x3d81d91f	0.06340241
90	0x3cfb1be0	0.03065294
91	0x3dcf62e0	0.10126281
92	0xbdae1a3c	-0.085010976
93	0x3dff0d01	0.12453652
94	0xbc3c538a	-0.011494527
95	0xbded0816	-0.11573808
96	0xbdd0d74b	-0.10197314
97	0xbd957f8b	-0.072997175
98	0xbd6f7d0b	-0.05846886
99	0x3dc5eb97	0.09664076
100	0x3c4676d3	0.012113291
101	0x3d6a3bd6	0.05718597
102	0xbd6873f4	-0.056751207
103	0xbd92cf96	-0.071685
104	0x3d4d5045	0.05012538
105	0x3df02503	0.117258094
106	0x3d75faa8	0.060053498
107	0xbdaf426e	-0.08557592
108	0x3ce61516	0.028086226
109	0x3da363ee	0.079780445
110	0x3d69119b	0.056901556
111	0x3cc3767d	0.02386021
112	0x3d9fb7da	0.07798739
113	0x3d5d1035	0.053970534
114	0xbd753114	-0.059861258
115	0x3dc09dce	0.09405099
116	0xbd485d63	-0.048917186
117	0xbd30071e	-0.042975537
118	0x3d07beca	0.033140935
119	0xbc5eea84	-0.013605718
120	0x3d3bc2a3	0.045839917
121	0x3d8051d7	0.0626561
122	0x3db8a2e7	0.09015446
123	0x3d81c68b	0.06336697
124	0xbd8be48f	-0.068307035
125	0xbd1e8ed6	-0.038710438
126	0xbdce9dc6	-0.10088687
127	0x3dd9ffd6	0.106445
128	0x3dcba774	0.099440485
129	0xbd66eba5	-0.056377072
130	0x3d1a40bc	0.03765939
131	0xbda144ad	-0.07874427
132	0x3d9a6ee3	0.07540681
133	0x3acbd0d2	0.0015549904
134	0x3dca7fbc	0.09887645
135	0x3e011564	0.12605816
136	0xbc9a749c	-0.018854432
137	0x3e046239	0.12928094
138	0x3dc962cc	0.09833297
139	0xbce09efa	-0.027419556
140	0x3d3a8a35	0.04554196
141	0xbd61e227	-0.055147316
142	0xbd3f8e3c	-0.046766505
143	0xbc8bb371	-0.017053338
144	0x3d9765c5	0.07392458
145	0x3d2de225	0.042451996
146	0xbddbafc9	-0.10726888
147	0x3da908ab	0.082536064
148	0xbd7002e1	-0.058596496
149	0xbd9c1e64	-0.07622984
150	0x3d4066ff	0.046973225
151	0x3d0e98de	0.034813754
152	0xbbb277c5	-0.0054464065
153	0x3dc169fc	0.09444043
154	0x3e0d6eee	0.13811848
155	0x3dbf5353	0.09342065
156	0x3da38309	0.07983977
157	0x3dd09c89	0.10186107
158	0xbd990ecb	-0.07473525
159	0xbc2eb235	-0.010662605
160	0xbd8b86c6	-0.06812815
161	0xbd8a78b0	-0.067613006
162	0xbd1be17f	-0.038056847
163	0x3d82349d	0.063576914
164	0x3c1c947d	0.009556887
165	0xbd3d14eb	-0.046162527
166	0xbcabf452	-0.020990524
167	0xbd8487b3	-0.06471195
168	0xbdb8216b	-0.08990749
169	0xbd96caad	-0.07362876
170	0x3a2e45c0	0.0006647967
171	0xbdadea04	-0.084919006
172	0x3dce07e1	0.100600965
173	0xbd1bba08	-0.03801921
174	0x3d1bb978	0.038018674
175	0x3c5ea90a	0.013590107
176	0x3df863ed	0.12128434
177	0x3dc81e4e	0.09771405
178	0x3b923484	0.0044618268
179	0xbd77177c	-0.06032513
180	0x3d07e436	0.033176623
181	0xbd7fcde5	-0.062452216
182	0x3dc8701b	0.097870074
183	0x3d2380a0	0.03991759
184	0x3e042766	0.12905654
185	0x3de0703d	0.10958908
186	0x3d9b2b06	0.075765654
187	0x3db45fe2	0.08807351
188	0x3b930ff3	0.0044879853
189	0x3d85e878	0.065384805
190	0x3c1d45ae	0.009599132
191	0xbda5d5c2	-0.08097412
192	0x3c1056b5	0.008809735
193	0xbd048b59	-0.032359455
194	0xbc3d2f41	-0.011546911
195	0x3ba7da64	0.0051224697
196	0xbde872fb	-0.11350056
197	0xbc1861b8	-0.009300642
198	0xbb65cae0	-0.003506355
199	0x3dc0514a	0.09390505
200	0x3d665c7f	0.056240555
201	0xbd411248	-0.047136575
202	0x3d49e54d	0.049290944
203	0x3c87ba3c	0.016568296
204	0x3d0c58cb	0.034264367
205	0x3cba0024	0.022705145
206	0x3d9962fc	0.07489583
207	0xbd0347c0	-0.032050848
208	0x3c5deaa0	0.0135447085
209	0x3e24741a	0.16059914
210	0x3e07ccd5	0.13261731
211	0xbd0292d1	-0.031878296
212	0x3d014b05	0.031565685
213	0xbd97ba84	-0.07408622
214	0x3bf9d051	0.00762371
215	0x3db44c40	0.08803606
216	0xbcde357f	-0.027125118
217	0xbd310eba	-0.043226935
218	0xbdbd67a7	-0.09248286
219	0x3c6be079	0.01439678
220	0xbc29e99a	-0.010370636
221	0xbdb97891	-0.09056199
222	0xbdaf89ed	-0.08571229
223	0xbd68e89e	-0.056862466
224	0xbda1915f	-0.078890555
225	0x3d20533d	0.039141882
226	0x3c176e99	0.009242677
227	0xbd500f3d	-0.050795782
228	0xbd88297d	-0.06648538
229	0xbd74e0d1	-0.059784714
230	0xbc4ef3ab	-0.012631337
231	0xbd15c734	-0.036566928
232	0xbdb747bd	-0.0894923
233	0xbb579150	-0.003289301
234	0xbd2398ae	-0.03994053
235	0xbdd08d27	-0.10183173
236	0xbde43aa4	-0.11143997
237	0x3db39786	0.08769135
238	0xbcf68277	-0.030091507
239	0xbd4e995b	-0.05043922
240	0xbdb4b034	-0.088226706
241	0x3c5ad179	0.013355606
242	0xbd94d94f	-0.07268011
243	0xbd5f70c8	-0.054550916
244	0xbd2bd1dc	-0.041948184
245	0xbd72b6fa	-0.05925653
246	0xbdb84dd5	-0.0899922
247	0xbd50bd1e	-0.050961606
248	0x3da8987a	0.082322076
249	0xbc38c5bd	-0.011277613
250	0x3d12a90f	0.035805758
251	0xbca1966a	-0.019725043
252	0xbd81ff81	-0.06347562
253	0xbd4c0bba	-0.04981587
254	0xbde5c365	-0.11218909
255	0xbcb38ebc	-0.021918647

encoder.1.conv_1.bias f4 [8]
0	0xbd98d9dc	-0.074634284
1	0xbcbb994e	-0.02290025
2	0xbc1fc091	-0.009750501
3	0xbd3c9f73	-0.0460505
4	0x3cba9a91	0.022778781
5	0x3d892fbb	0.06698557
6	0x3dc31936	0.09526293
7	0x3dfd4858	0.12367314

encoder.1.groupnorm_2.weight f4 [8]
0	0x3f7fd671	0.99936587
1	0x3f7b793d	0.9823187
2	0x3f807c05	1.0037848
3	0x3f7c8705	0.98643523
4	0x3f79397a	0.9735333
5	0x3f7d6458	0.9898124
6	0x3f7fc5d7	0.99911255
7	0x3f7f389f	0.9969577

encoder.1.groupnorm_2.bias f4 [8]
0	0x3b6a5814	0.0035758065
1	0x3c4bd5d5	0.012441118
2	0x3c7b2e6f	0.015330895
3	0xbb321142	-0.002717093
4	0xbb920d6a	-0.0044571655
5	0xbb450468	-0.003006244
6	0xbb3449f2	-0.0027509895
7	0x3b4cd758	0.0031256285

encoder.1.conv_2.weight f4 [8, 8, 3, 3]
0	0xbd6c1e56	-0.057646118
1	0x3c8d28ef	0.017231433
2	0xbd8f89e8	-0.070087254
3	0xbda5eaf0	-0.081014514
4	0xbb5c7d99	-0.0033644198
5	0xbdb0917e	-0.086215004
6	0xbddd0f65	-0.10793952
7	0xbc937d81	-0.01800418
8	0x3d01a695	0.031653006
9	0xbda2c46e	-0.07947622
10	0xbc5d0200	-0.013489246
11	0xbdce56e0	-0.10075164
12	0xbda192d2	-0.07889332
13	0xbdfbfa92	-0.12303652
14	0xbd8aa704	-0.06770137
15	0xbd9467e5	-0.07246379
16	0x3d6e9022	0.058242925
17	0xbde75fe2	-0.11297585
18	0xbdf8752b	-0.12131723
19	0xbd511cf4	-0.051053002
20	0xbde1b19f	-0.11020207
21	0x3d6e3cc2	0.058163412
22	0x3d960d9f	0.07326817
23	0xbc8d1921	-0.017223896
24	0x3c7eda85	0.015555029
25	0x3d48ad0b	0.04899315
26	0x3d899c18	0.06719226
27	0xbd891fd0	-0.06695521
28	0xbd4258f1	-0.047448102
29	0xbd19edc4	-0.037580267
30	0xbd0bc996	-0.034127794
31	0xbd0e067d	-0.034674156
32	0x3db61b8b	0.08891972
33	0xbd962e64	-0.07333067
34	0x3d78dea0	0.060759187
35	0xbdcafa46	-0.09911017
36	0xbd35ed89	-0.044415984
37	0xbca20d8f	-0.019781856
38	0xbb98621e	-0.0046503684
39	0x3cf31fc7	0.029678239
40	0x3d85495e	0.06508134
41	0x3d11c579	0.035588715
42	0x3c0c6e44	0.008571211
43	0x3d48bbc8	0.049007207
44	0x3bb48e45	0.005510124
45	0xbd13340e	-0.035938315
46	0x3cda03a1	0.026613059
47	0x3d9c5784	0.0763388
48	0xbd82abec	-0.06380448
49	0x3cd7986b	0.026317796
50	0x3da303a1	0.079596765
51	0xbddada63	-0.10686185
52	0x3d52f6ea	0.051505007
53	0xbda657df	-0.08122229
54	0x3b89f92d	0.0042106123
55	0xbd9e5274	-0.077305704
56	0x3daa019f	0.083010904
57	0xbdab9a0a	-0.0837899
58	0x3dd52dea	0.10409148
59	0x3d9c67b1	0.07636965
60	0xbde7346e	-0.11289297
61	0xbc7d3aa8	-0.015455879
62	0xbd3ff582	-0.046864994
63	0xbc3b1458	-0.011418425
64	0xbd22313d	-0.03959774
65	0x3b8ff9d2	0.0043937946
66	0xbda3a072	-0.07989587
67	0x3dbecfc6	0.093169734
68	0x3d177461	0.036976222
69	0xbdc6643c	-0.09687087
70	0x3d4342b4	0.047671035
71	0xbd63c4d3	-0.055607628
72	0x3dbbb87e	0.091660485
73	0xbd4729dc	-0.048623905
74	0x3d6aa538	0.05728647
75	0x3ddc6e0e	0.10763179
76	0x3db8a1d8	0.09015244
77	0xbdaa70b5	-0.083222784
78	0xbcb4e72d	-0.02208289
79	0x3d183315	0.03715809
80	0xbc32ebb3	-0.010920453
81	0xbdc0129c	-0.093785495
82	0xbdd412fd	-0.10355184
83	0x3dc5ba1b	0.096546374
84	0xbdb56dec	-0.088588566
85	0x3cddb04f	0.02706161
86	0x3d951158	0.07278699
87	0xbc0c74c7	-0.008572764
88	0x3d4355e5	0.047689337
89	0xbd047a7e	-0.03234338
90	0xbdc2ba96	-0.09508245
91	0xbdf4b1af	-0.11947953
92	0x3d9f9589	0.077921934
93	0xbd0cbcff	-0.03435993
94	0x3d355ca1	0.04427779
95	0x3dcea9ec	0.10091004
96	0x3c488c19	0.012240433
97	0xbc0bee6f	-0.008540734
98	0xbdcf84db	-0.10132762
99	0x3cdce531	0.026964756
100	0xbdd6d660	-0.104901075
101	0xbe0e6338	-0.13905036
102	0xbd86a82e	-0.065750465
103	0xbcf61cb8	-0.030042991
104	0x3d80743e	0.062721714
105	0x3a0c4411	0.0005350719
106	0x3d21e150	0.039521515
107	0xbd380f2a	-0.044936337
108	0x3d854699	0.06507606
109	0xbc575a6d	-0.013144118
110	0xbc8e562b	-0.017375072
111	0x3cce05f1	0.025149317
112	0x3cd6b705	0.026210317
113	0xb9403b06	-0.00018332535
114	0xbc84b079	-0.01619743
115	0xbde66b3b	-0.11250921
116	0xbb0738d5	-0.002063324
117	0xbdd032ac	-0.10165915
118	0x3df9efe0	0.12203956
119	0x3d7b6401	0.061374668
120	0x3da0a3aa	0.078437164
121	0x3d8a8389	0.067633696
122	0xbd610674	-0.054937795
123	0x3e0933e6	0.13398704
124	0xbc8318d6	-0.016003054
125	0x3dcc5c41	0.099785335
126	0xbdaf79c4	-0.08568147
127	0x3da4a73d	0.08039711
128	0xbd3ee18a	-0.04660181
129	0x3dc3b06c	0.09555134
130	0xbdd40362	-0.10352208
131	0xbdebcf92	-0.115142
132	0xbd42d137	-0.047562804
133	0x3d8f9c06	0.07012181
134	0x3c5d1ba3	0.013495359
135	0xbd17df24	-0.037078038
136	0x3df69ba9	0.120414086
137	0x3c605ec9	0.013694474
138	0x3db10b86	0.08644776
139	0xbd1523a1	-0.03641093
140	0xbdc08fd3	-0.09402432
141	0x3d0de18b	0.034638923
142	0x3d6cb79e	0.0577923
143	0x3dc5de28	0.096615136
144	0x3ccadc2e	0.024763193
145	0xbd958d87	-0.07302385
146	0xbd1ff966	-0.039056204
147	0x3e043a7a	0.12912932
148	0x3cbcede2	0.02306265
149	0xbd27d69c	-0.04097615
150	0xbdc19b03	-0.09453394
151	0x3d949d00	0.07256508
152	0xbd2d009f	-0.04223692
153	0xbda08e34	-0.07839623
154	0xbd6714b4	-0.05641623
155	0xbdaa1df3	-0.083064936
156	0x3d426911	0.04746348
157	0x3d971fb2	0.07379092
158	0xbd1916d0	-0.03737527
159	0x3da9b86e	0.0828713
160	0xbd88fa45	-0.0668836
161	0xbd8d9580	-0.069132805
162	0x3e068c56	0.13139471
163	0xbd9cefb0	-0.07662904
164	0xbd2f5465	-0.042805094
165	0x3dc92641	0.098217495
166	0x3ca04fc9	0.019569295
167	0x3db2e667	0.08735352
168	0x3dcc9637	0.09989589
169	0x3c8d3e69	0.017241674
170	0x3dbdf10c	0.09274492
171	0x3de2649e	0.110543475
172	0xbd83f622	-0.064434305
173	0x3dec9304	0.115514785
174	0x3db45b0c	0.08806428
175	0xbc967fe1	-0.018371524
176	0xbe18f190	-0.14935899
177	0xbd861816	-0.06547563
178	0x3de4694c	0.11152896
179	0x3d80a79d	0.0628197
180	0xbe029e0a	-0.127556
181	0x3da9f4bd	0.08298633
182	0x3dc98045	0.098389186
183	0x3dad4449	0.0846029
184	0x3d0fb218	0.035081953
185	0x3cdaa354	0.026689209
186	0xbd820f6a	-0.06350596
187	0xbd2b756a	-0.04186002
188	0xbdd183b0	-0.102301955
189	0xbcfc3ee7	-0.030791713
190	0xbd85e844	-0.06538442
191	0x3d4e18cc	0.050316617
192	0x3da8e3fd	0.0824661
193	0x3ce63db6	0.028105598
194	0x3d11f586	0.03563454
195	0xbcfff112	-0.031242881
196	0xbd1e10f0	-0.03859037
197	0xbcf10561	-0.02942151
198	0x3d959269	0.07303316
199	0x3d7af017	0.061264124
200	0x3d415b8d	0.04720645
201	0x3db8a421	0.0901568
202	0x3988781a	0.00026029424
203	0xbd83e00c	-0.06439218
204	0x3d3ac358	0.04559645
205	0xbd86f2eb	-0.06589302
206	0x3dd5f010	0.10446179
207	0x3d4ee13b	0.050507765
208	0x3dde2942	0.10847713
209	0x3dcdf350	0.10056174
210	0x3dc7b7e2	0.0975187
211	0x3daa9e71	0.083310015
212	0x3dd0b5f6	0.10190956
213	0x3b92ff99	0.004486036
214	0x3dacf704	0.08445552
215	0x3da98831	0.082779296
216	0x3d1f6625	0.038915772
217	0x3d51d552	0.05122883
218	0x3da4c611	0.08045591
219	0xbcabb0e7	-0.020958377
220	0x3d3e1e89	0.04641584
221	0xbb85c6d5	-0.0040825405
222	0x3b97b813	0.0046300977
223	0x3ca01c84	0.019544847
224	0x3dbc278c	0.091872305
225	0xbc02ff6a	-0.007995466
226	0xbd99f554	-0.07517496
227	0x3d819408	0.06327063
228	0xbd8f70a8	-0.07003909
229	0x3d9b558a	0.07584675
230	0xbc2011c0	-0.009769857
231	0x3cdff96e	0.027340617
232	0xbdd987f4	-0.10621634
233	0x3d307d28	0.04308811
234	0x3d6f43ac	0.058414146
235	0xbcb7b8c7	-0.022426976
236	0x3d3c4f0d	0.045973826
237	0x3d121d74	0.03567262
238	0xbd93f542	-0.072245136
239	0xbd41d65a	-0.047323562
240	0x3d61cce8	0.055127054
241	0x3c762556	0.01502355
242	0xbb7d6ca3	-0.003866949
243	0x3d59b9cd	0.05315571
244	0x3d229031	0.039688293
245	0xbb6554c8	-0.003499316
246	0x3d66d7ba	0.056358077
247	0xbd3eee35	-0.04661389
248	0xbd94f6e2	-0.07273652
249	0x3da7067b	0.08155533
250	0x3c49f3a0	0.012326151
251	0x3d9f95c9	0.07792241
252	0x3c86699a	0.016407777
253	0xbc9d532f	-0.019204704
254	0xbdb0c0d5	-0.0863053
255	0xbdaed475	-0.08536617

encoder.1.conv_2.bias f4 [8]
0	0x3daceec7	0.08443981
1	0xbcd597c6	-0.026073348
2	0xbd3c3175	-0.045945603
3	0x3dda3546	0.10654692
4	0xbd68bda0	-0.056821465
5	0xbcffe8b5	-0.031238893
6	0xbda51c60	-0.08062053
7	0xbcc10a96	-0.023564618

encoder.2.weight f4 [8, 8, 3, 3]
0	0x3cfdfdc3	0.031004792
1	0xbdb217cf	-0.086959474
2	0xbc8d5a70	-0.017255038
3	0xbb830f98	-0.0039996617
4	0xbdd714c7	-0.1050201
5	0x3ce706f9	0.028201567
6	0xbd9f6e6b	-0.077847324
7	0x3cab0e0e	0.020880725
8	0x3deee9fa	0.11665721
9	0x3de1a77b	0.110182725
10	0xbdfbcb09	-0.12294585
11	0x3b05c47d	0.0020411306
12	0x3d90b2ae	0.070653304
13	0xbda5e513	-0.08100333
14	0x3da26c25	0.07930783
15	0x3d93b212	0.072116986
16	0x3c91e98c	0.01781156
17	0x3c865748	0.01639904
18	0x3c60031d	0.013672617
19	0xbd9b0db8	-0.07570976
20	0x3d87ab1b	0.06624433
21	0x3d331969	0.043725405
22	0xbdd3e2ea	-0.10346015
23	0x3c35a129	0.011085787
24	0xbd615f23	-0.05502237
25	0xbcd9d64c	-0.026591443
26	0xbd0ff844	-0.035148874
27	0x3d3f12c1	0.046648744
28	0x3c8a8c57	0.016912622
29	0x3c8e86c3	0.017398244
30	0x3c48b17e	0.012249349
31	0x3d9c8d20	0.07644105
32	0x3da34218	0.07971591
33	0x3ce7fecc	0.028319739
34	0xbdc3d88f	-0.0956279
35	0xbcb1f9b3	-0.021725511
36	0x3dbd0da7	0.092311196
37	0x3d898971	0.06715668
38	0xbd0985cf	-0.033574875
39	0x3d5785cc	0.052617833
40	0xbddea3e3	-0.10871103
41	0xbdb68694	-0.089123875
42	0x3dab9af6	0.08379166
43	0xbdb06fa0	-0.08615041
44	0x3d116e41	0.035505537
45	0xbd401ba1	-0.04690135
46	0x3e00484f	0.12527584
47	0xbb86ea50	-0.0041172877
48	0x3df4cd45	0.119532146
49	0x3d4f35eb	0.05058853
50	0x3d9cbfe2	0.07653786
51	0xbce00fb2	-0.027351234
52	0x3d6226fb	0.055212956
53	0x3d50d1dc	0.050981387
54	0xbda559af	-0.080737464
55	0xbde21a56	-0.110401794
56	0x3cb7d220	0.022439063
57	0xbcd64ad7	-0.026158733
58	0xbd85b0c2	-0.065278545
59	0xbd830841	-0.06398059
60	0x3dcf07ca	0.101089075
61	0xbda5ae2d	-0.08089862
62	0xbd7b3e36	-0.061338626
63	0xbdf19ee7	-0.11797886
64	0x3c6e6038	0.0145493075
65	0x3d19960a	0.037496604
66	0xbb2f6a15	-0.002676611
67	0xbdc8bd6b	-0.098017536
68	0x3dfa66ab	0.122266136
69	0xbdc87bb4	-0.097892195
70	0xbcf17464	-0.029474445
71	0xbd821c92	-0.063531056
72	0x3db4ace9	0.088220425
73	0x3df1f2f6	0.11813919
74	0x3ce8c7c6	0.028415572
75	0xbdb139e9	-0.086536236
76	0xbdae275c	-0.08503601
77	0x3d7aee3f	0.061262365
78	0x3d325e0c	0.04354672
79	0x3db42a01	0.08797074
80	0xbd79d796	-0.060996614
81	0x3d8fc05a	0.0701911
82	0xbdc1a26d	-0.094548084
83	0x3d7aa493	0.061192106
84	0x3bc7380d	0.00607968
85	0x3ddebc74	0.10875788
86	0xbde77c1c	-0.11302969
87	0xbc9dbf31	-0.019256206
88	0xbd7ca0c2	-0.061676748
89	0x3da1fe00	0.07909775
90	0x3db97298	0.0905506
91	0xba9e901f	-0.0012097395
92	0x3d8fcf79	0.07021994
93	0x3de0b179	0.1097135
94	0x3c5a6be9	0.013331392
95	0x3dc0a6ef	0.0940684
96	0x3d5bb5f4	0.05364032
97	0xbd9ab7f2	-0.07554616
98	0xbdb3e949	-0.0878473
99	0xbdb7d240	-0.08975649
100	0x3b67684e	0.0035309973
101	0x3dc2f3d7	0.09519165
102	0x3d505f9f	0.05087244
103	0xbdad5f6c	-0.08465466
104	0xbc9e2630	-0.019305319
105	0x3bf81254	0.0075705443
106	0xbdc838ac	-0.09776434
107	0x3dd2e17b	0.10296913
108	0x3d05afbb	0.032638293
109	0x3cc44f59	0.023963617
110	0x3d4d1a4b	0.050073903
111	0xbd82376c	-0.06358227
112	0x3d27d17c	0.040971264
113	0x3dd652f9	0.104650445
114	0x3b472782	0.0030388539
115	0x3d513da0	0.05108416
116	0x3c8e5332	0.017373655
117	0x3d650aa7	0.055918362
118	0xbcbe04ab	-0.023195585
119	0xbd3d0760	-0.04614961
120	0xbdd83efb	-0.105588876
121	0x3d819445	0.06327108
122	0xbc813716	-0.015773337
123	0x3dbdcc9c	0.09267542
124	0xbd2ee050	-0.04269439
125	0xbd11fff4	-0.035644487
126	0xbdd98f47	-0.10623031
127	0x3dbbaa2a	0.091633156
128	0xbd683fb4	-0.056701377
129	0x3c6f35e0	0.014600247
130	0x3d9f1208	0.07767111
131	0x3d9179c5	0.07103304
132	0x3dadb179	0.08481116
133	0x3d8c2bec	0.06844315
134	0xbe03cc90	-0.12871003
135	0x3deb5c76	0.11492245
136	0x3d525967	0.051354792
137	0x3dd0908e	0.101838216
138	0xbd87018c	-0.06592092
139	0x3dc52393	0.09625926
140	0x3bcdd9b5	0.006282056
141	0x3da8e960	0.08247638
142	0x3de2b000	0.110687256
143	0x3d4c67d6	0.049903713
144	0xbcf78b35	-0.030217746
145	0x3d19bc65	0.037533183
146	0x3c83c077	0.016082985
147	0xbd526e95	-0.05137499
148	0x3d477550	0.048695862
149	0x3da0f924	0.0786002
150	0xbd6b2271	-0.057405893
151	0xbda41922	-0.08012606
152	0xbda9282c	-0.08259615
153	0x3cf322d7	0.029679699
154	0x3d7a47d8	0.06110367
155	0xbd00a47a	-0.031406857
156	0x3d8409a9	0.06447155
157	0x3d9afd95	0.07567898
158	0xbde916f1	-0.11381329
159	0x3d66a69f	0.056311246
160	0x3d4b1f99	0.04959068
161	0xbda824eb	-0.082101665
162	0x3c278a43	0.010225835
163	0x3b6cbaf0	0.0036122166
164	0x3d60f82e	0.054924183
165	0xbdb228f8	-0.086992204
166	0x3deb9a75	0.1150407
167	0x3df3e89b	0.119096
168	0x3de64eeb	0.11245521
169	0xbd2bfc60	-0.04198873
170	0xbd133559	-0.03593955
171	0x3de634e7	0.11240559
172	0x3dbc1d3e	0.09185265
173	0xbd8aa273	-0.06769266
174	0xbdc8fd1a	-0.098139
175	0x3bc7bd48	0.006095562
176	0xbd3ec7e4	-0.04657735
177	0xbb833d13	-0.0040050833
178	0x3d52b7ac	0.051444694
179	0x3bb2c698	0.005455803
180	0xbbd6f2a2	-0.006559686
181	0x3bca8d30	0.0061813816
182	0x3d42539d	0.04744302
183	0x3d91dc59	0.07122106
184	0xbd199727	-0.037497666
185	0x3dd967bd	0.1061549
186	0xbda13375	-0.07871143
187	0x3d9ace56	0.07558887
188	0x3cd1ec6c	0.02562543
189	0x3aacb700	0.0013177097
190	0xbdca5657	-0.09879749
191	0xbb9cde0d	-0.0047872127
192	0xbda9efb1	-0.08297671
193	0xbced1a81	-0.028943302
194	0xbe00d180	-0.12579918
195	0x3d051a7c	0.03249596
196	0xbcaa613d	-0.02079832
197	0xbd0b7d43	-0.034055006
198	0xbd351760	-0.044211745
199	0x3d6a6c8b	0.05723242
200	0xbe05b914	-0.13058883
201	0xbb758694	-0.0037464248
202	0x3dbcb1de	0.09213613
203	0x3dceb15a	0.10092421
204	0xbd1f6f19	-0.03892431
205	0x3c945fa5	0.018112013
206	0xbcd44c67	-0.025915338
207	0x3ccd4782	0.025058512
208	0x3dc10cbd	0.09426258
209	0xbd8098da	-0.06279154
210	0x3d329856	0.04360231
211	0x3d4c71ad	0.049913097
212	0xbd1fa0c5	-0.03897168
213	0xbd9e455e	-0.077280745
214	0x3cf48e62	0.02985305
215	0xbcd5d1a2	-0.026100937
216	0xbd9d1b6b	-0.07671245
217	0x3da49a40	0.08037233
218	0xbd876933	-0.06611862
219	0xbdc2fc5e	-0.095207915
220	0xbc22a7e2	-0.009927722
221	0xbd28495d	-0.04108559
222	0xbd173764	-0.03691806
223	0x3d658502	0.05603505
224	0x3c4a4dcc	0.01234765
225	0xbd8b2eac	-0.06796011
226	0x3c5bb175	0.013409008
227	0xbcbc75ef	-0.023005454
228	0xbdea3c94	-0.114373356
229	0x3c6e8335	0.014557649
230	0x3dc37141	0.09543086
231	0xbd9a2864	-0.07527235
232	0xbb0c608b	-0.0021419849
233	0x3db9d2e4	0.09073427
234	0xbcfd44d1	-0.030916603
235	0x3e066541	0.13124563
236	0x3c67593f	0.014120399
237	0xbc93c39d	-0.018037612
238	0xbd1985c5	-0.03748109
239	0xbb13ad82	-0.0022533839
240	0x3dc2a259	0.095036216
241	0x3c8d578d	0.017253662
242	0xbd843ef4	-0.0645732
243	0x3d160351	0.036624257
244	0x3de019bb	0.10942408
245	0xbc51149e	-0.012761263
246	0xbcc6e45d	-0.024278814
247	0x3dc99dca	0.09844549
248	0xbd6c5750	-0.057700455
249	0xbd6ba2f5	-0.057528455
250	0x3da2ed6a	0.079554394
251	0xbd6f01e0	-0.058351398
252	0x3cebb90a	0.028774757
253	0xbd41bfbf	-0.047302004
254	0xbde02f15	-0.1094648
255	0xbd4d3ae6	-0.050104998

encoder.2.bias f4 [8]
0	0xbd613b81	-0.054988388
1	0xbcc882ca	-0.024476428
2	0xbdcd16cd	-0.100141145
3	0xbc7aefdc	-0.015315976
4	0xbdb81ba0	-0.08989644
5	0x3d396974	0.045266584
6	0x3ddeeb91	0.108847745
7	0x3dcf6d73	0.10128298

encoder.3.groupnorm_1.weight f4 [8]
0	0x3f7d3387	0.9890675
1	0x3f7cb8ff	0.9871978
2	0x3f813d7a	1.0096886
3	0x3f7f5f4f	0.99754804
4	0x3f7daf24	0.9909537
5	0x3f7d7ef0	0.99021816
6	0x3f7d5750	0.98961353
7	0x3f82e3dd	1.0225788

encoder.3.groupnorm_1.bias f4 [8]
0	0xbc0b7ba6	-0.008513367
1	0xbc1c2da2	-0.009532364
2	0x3cbbb0f1	0.02291152
3	0x3bd7688b	0.006573742
4	0x3a9ee6eb	0.0012123262
5	0x3c36b9ab	0.011152665
6	0xbc11f81a	-0.00890925
7	0x3d447b9e	0.047969453

encoder.3.conv_1.weight f4 [16, 8, 3, 3]
0	0x3d99236b	0.074774586
1	0xbd106777	-0.03525492
2	0xbd79dd09	-0.06100181
3	0xbd5c29c6	-0.053750776
4	0x3d56b9e9	0.05242339
5	0x3dbd5a02	0.09245683
6	0x3d8f327e	0.069920525
7	0x3cb95187	0.022621883
8	0x3bd7dc07	0.0065875086
9	0x3d82ae2f	0.06380879
10	0x3d9db6ab	0.07700857
11	0x3dbf1c14	0.09331527
12	0x3c7abb9b	0.015303518
13	0xbce74e25	-0.028235504
14	0xbcbf801e	-0.02337652
15	0x3c59c651	0.013291911
16	0x3cd9cb52	0.026586208
17	0x3cc430d0	0.023949057
18	0x3cfb76a6	0.030696224
19	0x3da0b53d	0.078470685
20	0x3d7a1776	0.06105753
21	0x3e18322b	0.14862888
22	0x3d8aea2c	0.06782946
23	0x3d775cef	0.060391363
24	0xbd7c17c6	-0.06154611
25	0xbda331a5	-0.07968453
26	0x3ce5751d	0.028009946
27	0x3ddc6d47	0.107630305
28	0xbdb3090b	-0.08741959
29	0xbcaba735	-0.020953754
30	0x3dcffe61	0.10155941
31	0x3db4e8e0	0.0883348
32	0x3de98d21	0.11403871
33	0xbd25e1bb	-0.040498476
34	0xbc9d0fad	-0.019172514
35	0x3d378ee0	0.04481399
36	0xbd4fa994	-0.05069883
37	0x3d18f25c	0.037340507
38	0xbdabc62e	-0.08387409
39	0x3d2e71dc	0.042589054
40	0xbcb10aeb	-0.021611651
41	0x3db97d59	0.09057111
42	0x3ddcb521	0.10776735
43	0x3d87f347	0.06638198
44	0xbd2e5a9c	-0.04256688
45	0x3d427e4e	0.047483735
46	0xbd018366	-0.031619452
47	0x3d5ffbe8	0.054683596
48	0xbd3a638c	-0.04550509
49	0xbda6405a	-0.08117743
50	0xbd6a8e50	-0.057264626
51	0xbcb023d3	-0.021501457
52	0xbdd64d09	-0.10463912
53	0x3d819a91	0.06328309
54	0xbd5e27f9	-0.05423734
55	0x3d65471c	0.05597602
56	0x3c256cc5	0.010096733
57	0x3d989c53	0.074516915
58	0xbd83e171	-0.06439484
59	0xbd4adc39	-0.049526427
60	0xbc5b74f4	-0.013394583
61	0x3d8b158d	0.0679122
62	0x3d380197	0.04492339
63	0xbcc4700a	-0.023979206
64	0xbd8a935a	-0.06766386
65	0x3d5416fc	0.051779732
66	0xbd0121aa	-0.031526245
67	0x3da18ce0	0.07888198
68	0x3c89e15d	0.016831094
69	0x3db448b1	0.08802927
70	0xbd31b848	-0.043388635
71	0xbd381e55	-0.044950802
72	0x3c081ba5	0.008307372
73	0x3da20f0a	0.07913025
74	0xbdbdf421	-0.092750795
75	0x3d2eb6e5	0.04265489
76	0xbc720832	-0.014772462
77	0xbdb2997f	-0.08720683
78	0xbdee6013	-0.116394185
79	0xbde0938e	-0.10965644
80	0x3d1a8c28	0.03773132
81	0xbc7d4664	-0.015458677
82	0x3ddfd3ed	0.109290935
83	0x3cd6d2e5	0.02622361
84	0xbd1ebc9b	-0.038754087
85	0x3d0d1a68	0.03444901
86	0xbd56a807	-0.052406337
87	0x3dc42a1c	0.09578344
88	0xbd91683e	-0.07099961
89	0xbc385d0c	-0.011252653
90	0xbd575e6f	-0.052580293
91	0xbb64adb5	-0.0034893577
92	0x3dbaca47	0.091206126
93	0x3db2662b	0.08710893
94	0xbdabca1c	-0.08388159
95	0xbd4cd8c8	-0.050011426
96	0x3ddd04d7	0.10791939
97	0x3dbb2645	0.09138159
98	0x3c1b33bc	0.009472784
99	0x3c9edbce	0.01939192
100	0x3c8938c0	0.016750693
101	0x3da3a14a	0.07989748
102	0xbda760b2	-0.0817274
103	0x3d74e68d	0.059790183
104	0xbbaa4763	-0.0051964982
105	0xbd8413a8	-0.06449062
106	0xbcc2ee38	-0.023795232
107	0xbdfb0d73	-0.122584246
108	0xbd2088aa	-0.039192833
109	0xbd56e2e1	-0.052462462
110	0xbdbe84c9	-0.093026705
111	0xbda3099a	-0.07960816
112	0x3d7e84fe	0.06213855
113	0xbd479660	-0.048727393
114	0x3cb72e20	0.022360861
115	0xbcc050f4	-0.023476101
116	0x3dce3949	0.1006952
117	0x3d9d51bf	0.076816075
118	0x3dc102f9	0.09424395
119	0x3de7546c	0.11295399
120	0xbd2055f3	-0.039144468
121	0x3d92a564	0.07160452
122	0x3ab31d1b	0.001366529
123	0x3d998e03	0.0749779
124	0x3ce9fb7e	0.028562304
125	0x3db46810	0.08808911
126	0xbd11cabb	-0.03559373
127	0xbc78abd3	-0.015177685
128	0xbdd9ecea	-0.10640891
129	0xbdbb6ad8	-0.09151238
130	0xbda997a6	-0.08280878
131	0xbdea8b95	-0.114524044
132	0x3c9eb064	0.019371219
133	0x3c9ca0d9	0.019119667
134	0xbd877c01	-0.06615449
135	0xbd0617b5	-0.032737453
136	0x3ce06c64	0.027395435
137	0xbcffedac	-0.03124126
138	0x3db3e159	0.08783216
139	0xbcef59c5	-0.02921761
140	0x3d856fd5	0.06515471
141	0x3d8dc5d1	0.06922496
142	0x3d588141	0.05285764
143	0x3d6eef5e	0.058333747
144	0x3da3f42e	0.08005558
145	0x3d4bed78	0.049787015
146	0xbde3c6bf	-0.11121892
147	0x3d731cce	0.059353642
148	0x3cb5bd63	0.022185033
149	0x3de2efdb	0.11080905
150	0x3d2ea907	0.042641666
151	0xbdf77c61	-0.1208427
152	0x3daff154	0.085909516
153	0xbcabe9c1	-0.020985486
154	0x3d27a23d	0.040926207
155	0x3c85f3ad	0.016351545
156	0x3d2a046d	0.041508127
157	0xbcda1c2c	-0.026624762
158	0x3d873afb	0.066030465
159	0xbc5163f9	-0.012780183
160	0xbc618cef	-0.013766511
161	0x3c84f3af	0.016229479
162	0x3d10b9bb	0.035333376
163	0x3d15ae41	0.036543135
164	0x3ddcef73	0.10787859
165	0x3ceba8b9	0.028766977
166	0xbd048201	-0.032350544
167	0xbcfe3670	-0.031031817
168	0xbdd1f254	-0.102512985
169	0x3dfd9210	0.12381375
170	0xbdd19b75	-0.10234729
171	0x3deb78f2	0.11497678
172	0xbdc8888e	-0.09791671
173	0x3d3c6f07	0.04600432
174	0x3d07dbe4	0.03316869
175	0x3ac5ba3c	0.0015085409
176	0x3d44b0bd	0.048020113
177	0xbd0b8fda	-0.034072734
178	0xbd08244c	-0.03323774
179	0xbcec4ad9	-0.028844284
180	0xbdea8631	-0.11451376
181	0xbca63b69	-0.020292
182	0x3d3328ca	0.04374007
183	0x3b8f38ad	0.00437077
184	0xbd2f8589	-0.04285196
185	0x3dafd5ad	0.08585677
186	0xbd55545d	-0.05208241
187	0x3ceaf2cd	0.02868023
188	0x3d6c0023	0.057617318
189	0x3c8441ca	0.016144652
190	0x3cd14904	0.025547512
191	0xbdf256de	-0.11832975
192	0xbdc34d34	-0.0953621
193	0xbde61181	-0.11233807
194	0x3cfe2c85	0.031027088
195	0xbd713cdf	-0.05889594
196	0x3d39e4a2	0.045384057
197	0x3c90e833	0.017688846
198	0xbdd85e4b	-0.1056486
199	0x3da66f26	0.08126669
200	0x3daaaa91	0.08333314
201	0xbcaf39c2	-0.021389846
202	0x3d673eb3	0.05645628
203	0xbd1c99a0	-0.038232446
204	0xbb974e74	-0.0046175066
205	0x3d8f8593	0.07007899
206	0x3d7a7157	0.061143246
207	0xbd20263f	-0.039098974
208	0x3d310135	0.04321404
209	0x3da80ec2	0.0820594
210	0xbe0036ad	-0.12520857
211	0xbd9f0922	-0.07765414
212	0xbd5344ff	-0.05157947
213	0xbdbc9b97	-0.09209364
214	0xbd313abf	-0.043268915
215	0xbdf303e5	-0.11865977
216	0xbca5168c	-0.020152353
217	0x3d917d43	0.0710397
218	0xbd551fc9	-0.052032266
219	0xbc6cafcd	-0.014446211
220	0x3d86d1da	0.06582995
221	0x3c90cbb1	0.017675253
222	0xbc9eebdc	-0.019399576
223	0x3d4c9aba	0.049952246
224	0x3dc775b8	0.0973925
225	0xbdc2bead	-0.09509025
226	0xbd8bc6ef	-0.06825053
227	0xbd06e38c	-0.03293185
228	0x3dc91467	0.098183446
229	0xbdf0bcf9	-0.11754794
230	0xbb810c4f	-0.003938235
231	0xbc0a2df9	-0.008433812
232	0xbdeb7646	-0.11497168
233	0x3d0185a5	0.031621594
234	0x3e01be0f	0.12670158
235	0x3de39ae0	0.111135244
236	0x3d42517f	0.047441002
237	0x3d89d129	0.06729347
238	0x3d79f968	0.061028868
239	0xbc827227	-0.015923573
240	0x3de71e64	0.112850934
241	0xbd545e1d	-0.051847566
242	0x3d91966d	0.071087696
243	0xbda13433	-0.07871284
244	0x3d97bf80	0.074095726
245	0xbdb5e817	-0.08882158
246	0x3d13fc5f	0.03612935
247	0xbd16160c	-0.03664212
248	0x3c816e25	0.015799591
249	0xbc700812	-0.014650362
250	0x3d8091ad	0.062777855
251	0x3cbc9854	0.023021854
252	0xbd24690a	-0.040139236
253	0x3db6dccc	0.089288324
254	0x3d76c7de	0.060249202
255	0xbb968ea8	-0.0045946427

encoder.3.conv_1.bias f4 [16]
0	0x3d7e6303	0.062106144
1	0x3d942b90	0.072348714
2	0xbd8be1b4	-0.06830159
3	0xbd1c76c3	-0.038199198
4	0xbdf00e06	-0.11721425
5	0xbc18d320	-0.00932768
6	0x3a65eb7e	0.0008770748
7	0xbcbe9ef2	-0.02326915
8	0xbc5581e5	-0.013031458
9	0x3d966710	0.07343876
10	0x3d754902	0.05988408
11	0x3dceb6df	0.10093474
12	0xbe0568b5	-0.13028224
13	0xbdb5be5d	-0.088741995
14	0xbdb1873d	-0.08668373
15	0x3c864160	0.016388595

encoder.3.groupnorm_2.weight f4 [16]
0	0x3f7f751b	0.99788064
1	0x3f7fdbc0	0.99944687
2	0x3f80cbf3	1.006224
3	0x3f7c0e06	0.984589
4	0x3f7cc7b2	0.9874221
5	0x3f7d2687	0.98886913
6	0x3f7c47c3	0.98547
7	0x3f7b7eed	0.9824055
8	0x3f7b0b0f	0.9806375
9	0x3f80ba72	1.0056899
10	0x3f7de8aa	0.9918314
11	0x3f7e5641	0.99350363
12	0x3f7df1df	0.9919719
13	0x3f7da890	0.9908533
14	0x3f7f0da9	0.9963022
15	0x3f7aebd5	0.980161

encoder.3.groupnorm_2.bias f4 [16]
0	0xb992310e	-0.0002788384
1	0x3b972167	0.004612136
2	0x3c7af6f2	0.015317665
3	0x3c0aeb03	0.008478883
4	0xbc45c349	-0.012070485
5	0xb8b2d721	-8.527772e-05
6	0x3a83b272	0.0010047688
7	0xb9f99223	-0.0004760186
8	0x3b2c5452	0.0026295376
9	0x3bcf1a36	0.0063202633
10	0xbc444a70	-0.011980638
11	0x3bda1aaf	0.006656013
12	0xb9e89596	-0.00044361938
13	0x3c3e3719	0.011609816
14	0xba858880	-0.0010187775
15	0xbc09cf70	-0.008411273

encoder.3.conv_2.weight f4 [16, 16, 3, 3]
0	0x3d03f513	0.032216143
1	0x3cc00371	0.023439141
2	0xbc6a83be	-0.014313636
3	0xbcdd69fd	-0.027028078
4	0xbcf6a6a2	-0.030108754
5	0xbd31374c	-0.043265626
6	0xbd0c28af	-0.034218486
7	0xbd88afe9	-0.06674177
8	0xbca3a85e	-0.019977745
9	0x3d5bf258	0.053697914
10	0xbc83708f	-0.016044883
11	0xbc8f4471	-0.01748869
12	0xbc5ddb8a	-0.013541112
13	0x3d8639b0	0.06553972
14	0x3da9afde	0.08285497
15	0x3ab01498	0.0013433872
16	0x3b796c8f	0.003805909
17	0x3d65b61a	0.05608187
18	0x3d9b91b0	0.07596147
19	0xbd81fd62	-0.06347157
20	0x3bd61cb3	0.006534183
21	0xbd7539ab	-0.05986945
22	0xbd29a2f0	-0.041415155
23	0xbd20ec16	-0.03928765
24	0xbd8477b5	-0.06468145
25	0xbd275e95	-0.040861685
26	0x3d572afc	0.052531227
27	0xbd1c9e6b	-0.038237017
28	0x3da2be2a	0.07946427
29	0xbdb56650	-0.08857405
30	0x3d9f88a4	0.07789734
31	0xbce4ca06	-0.027928364
32	0x3d799891	0.060936514
33	0x3c96efd3	0.018424904
34	0x3ceab407	0.028650297
35	0x3b880640	0.0041511357
36	0xbc05d5af	-0.008168622
37	0x3d8893e8	0.06668836
38	0xbd0245ac	-0.031804726
39	0xbd2071ea	-0.039171137
40	0xbbaa9746	-0.0052060215
41	0x3c3fb14b	0.011699985
42	0x3d5de37a	0.054172017
43	0x3ccaf702	0.024775986
44	0xbd8077c7	-0.06272846
45	0x3d639c9e	0.055569284
46	0x3d6ae794	0.057349756
47	0xbd5f0a67	-0.05445328
48	0xbd14949c	-0.036274537
49	0xbd550a14	-0.052011564
50	0xbda6f87e	-0.08152865
51	0xbda181fd	-0.078861214
52	0xbcd14a25	-0.02554805
53	0x3cddc390	0.02707079
54	0xbd97807c	-0.07397553
55	0xbba6044f	-0.0050664316
56	0x3ca8f7b8	0.020625934
57	0x3d4e6af4	0.050394967
58	0xbd6c7a18	-0.057733625
59	0xbd7962f1	-0.060885374
60	0x3d8b4b88	0.06801516
61	0xbd47a79f	-0.04874384
62	0x3c718262	0.014740558
63	0xbcf81f7b	-0.030288449
64	0x3dcbfbfd	0.09960172
65	0x3d2828b7	0.041054454
66	0x3d9476dd	0.07249234
67	0xbca34406	-0.019929897
68	0xbb997265	-0.0046828263
69	0xbd7a2bc8	-0.06107691
70	0x3d95472c	0.072889656
71	0xbcfe03e6	-0.031007718
72	0x3da71d3a	0.081598714
73	0xbd2d3014	-0.04228218
74	0xbbb04441	-0.0053792302
75	0xbcac3aff	-0.021024225
76	0x3d05a15e	0.032624595
77	0xbd63c2a4	-0.055605546
78	0x3d12e601	0.03586388
79	0xbd0e92c4	-0.034807935
80	0x3d7166e2	0.058936007
81	0x3d804947	0.062639765
82	0x3d85b1a4	0.06528023
83	0x3dae42f6	0.085088655
84	0xbd7a0162	-0.061036475
85	0x3dcded6f	0.100550525
86	0xbd654c88	-0.05598119
87	0x3cf8ee64	0.030387111
88	0xbca224fa	-0.019793022
89	0x3d247edb	0.04016004
90	0xbb2a5625	-0.0025991288
91	0x3dab0b0b	0.08351716
92	0x3d1daba7	0.03849378
93	0xbc9f12b2	-0.019418094
94	0xbc51bb05	-0.012800937
95	0x3d7a9ed1	0.061186615
96	0xbd7772c6	-0.06041219
97	0x3d0b89d5	0.034066994
98	0x3ca11717	0.01966433
99	0x3d337f2f	0.043822464
100	0xbd5c08bf	-0.05371928
101	0x3cd905c1	0.026492001
102	0xbc759bb6	-0.014990738
103	0xbd84fda1	-0.064936884
104	0x3c3b8431	0.011445091
105	0x3cffae57	0.031211061
106	0x3cb8a8f9	0.02254151
107	0xbd499d12	-0.04922206
108	0xbd7b776f	-0.061393198
109	0x3c9111e6	0.01770873
110	0x3c76ca92	0.015062945
111	0x3cc6c91f	0.024265824
112	0xba01b7c9	-0.00049483456
113	0xbd22038a	-0.039554156
114	0xbcda50ea	-0.026649911
115	0x3d5ae31d	0.05343925
116	0xbc21d39e	-0.009877114
117	0x3acf7bf2	0.0015829785
118	0x3bd9b2d0	0.0066436306
119	0xbc9788fc	-0.018497936
120	0x3d578eff	0.052626606
121	0xbd29c222	-0.041444905
122	0x3d958c64	0.07302168
123	0xbd303c2c	-0.043026134
124	0xbc7d68a1	-0.01546684
125	0xbd3afd1b	-0.045651536
126	0x3da87e43	0.082272075
127	0xbd514ca3	-0.051098477
128	0x3d0fc0fc	0.035096154
129	0xbd4172a5	-0.047228474
130	0x3d9e6eff	0.077360146
131	0x3d63201f	0.055450555
132	0x3d4b66ee	0.04965871
133	0xbd8ac1fe	-0.06775282
134	0x3cc97d47	0.02459587
135	0xbd835758	-0.06413144
136	0x3c999934	0.01874981
137	0x3da75b3c	0.081716985
138	0xbd14016d	-0.036134172
139	0x3d6fc4e8	0.058537394
140	0x3cb59b0b	0.022168657
141	0xbcea92db	-0.02863448
142	0xbd8f4767	-0.06996041
143	0xbc722015	-0.014778157
144	0xbd55b839	-0.05217764
145	0x3d09ceac	0.033644363
146	0xbd3d418d	-0.046205092
147	0x3d8ce1c8	0.06879002
148	0xbd8bb358	-0.068213165
149	0xbc5f7d9a	-0.013640786
150	0x3be1dbe4	0.006892668
151	0x3cbb9eb3	0.022902822
152	0x3d0e298e	0.0347076
153	0x3d8136e1	0.063092954
154	0x3dad444e	0.08460294
155	0x3c964c85	0.018347034
156	0xbc89658f	-0.01677206
157	0xbce8149b	-0.028330138
158	0xbcaf95d0	-0.02143374
159	0x3b63e71e	0.0034775208
160	0x3cee07e5	0.029056499
161	0xbd18e5d1	-0.037328545
162	0x3d3834bd	0.04497217
163	0xbd0a5da2	-0.0337807
164	0xbd4e1c5c	-0.050320014
165	0x3cfd5128	0.030922487
166	0x3c4f04f2	0.012635456
167	0xbd41caea	-0.047312655
168	0xbd9a3a01	-0.075305946
169	0x3da8a9ea	0.082355335
170	0xbbb5b5f6	-0.005545373
171	0x3d4f240f	0.050571498
172	0xb9b426a5	-0.00034361068
173	0xbcec9ed9	-0.028884338
174	0xbd6f868b	-0.05847792
175	0xbd226f1c	-0.039656743
176	0xbd06c1ea	-0.032899775
177	0xbca6ded8	-0.020369932
178	0xbd57eec7	-0.05271795
179	0x3d0465e2	0.032323726
180	0x3d5c80ec	0.053833887
181	0x3d902ee0	0.07040191
182	0x3d18dc88	0.03731969
183	0xbd31e32c	-0.04342954
184	0xbd23aec4	-0.03996159
185	0xbd809008	-0.06277472
186	0x3d91ba1a	0.07115574
187	0xbcf43e28	-0.029814795
188	0x3c85e6ee	0.016345467
189	0xbd4791cb	-0.048723023
190	0xbcbd901b	-0.023140004
191	0x3b23c9bc	0.002499207
192	0xbda0307f	-0.0782175
193	0x3c578cb0	0.013156101
194	0xbd27c049	-0.04095486
195	0xbc0b5252	-0.008503513
196	0xbd53f99d	-0.05175172
197	0x3d29f765	0.0414957
198	0x3d2a6373	0.04159875
199	0xbd23ac09	-0.039958987
200	0xbd430a99	-0.04761753
201	0xbd68703a	-0.056747653
202	0xbc868bcb	-0.01642408
203	0xbd86a30c	-0.065740675
204	0x3d296252	0.04135353
205	0x3b29fafe	0.0025936957
206	0xbd0fcb62	-0.03510607
207	0xbcd7f62e	-0.026362505
208	0x3cfc388b	0.03078868
209	0x3d23982e	0.03994005
210	0xbc2c5e91	-0.010520593
211	0x3c429c84	0.011878137
212	0x3d306699	0.043066595
213	0xbd1a9811	-0.037742678
214	0xbbfd0757	-0.0077218222
215	0xbcd79a38	-0.026318654
216	0x3cecfd4f	0.02892938
217	0x3c429b41	0.011877836
218	0x3c09bbbd	0.008406577
219	0x3cd2d713	0.025737321
220	0x3c72c836	0.014818242
221	0xbcd80eac	-0.026374184
222	0xbd7f6db9	-0.0623605
223	0x3d9e825c	0.07739708
224	0xbce634b8	-0.02810131
225	0xbd6ff349	-0.058581624
226	0x3d80ebef	0.06295001
227	0x3cdaf7ec	0.026729546
228	0xbadb9347	-0.0016752266
229	0xbd32dc12	-0.043666907
230	0xbd557994	-0.0521179
231	0xbd264cd7	-0.040600624
232	0x3d0ec2ef	0.034853872
233	0xbd402d73	-0.046918344
234	0x3d37a249	0.0448325
235	0xbc982a74	-0.01857493
236	0xbd4471bd	-0.04796003
237	0x3b381c0d	0.0028092891
238	0xbce0f9c4	-0.027462848
239	0xbd94ed9f	-0.07271885
240	0x3d742a6d	0.059610773
241	0x3d275169	0.040849123
242	0x3d41371d	0.0471717
243	0xbd658784	-0.05603744
244	0xbcfb2340	-0.030656457
245	0xbd941c97	-0.072320156
246	0x3c36901b	0.011142756
247	0x3bec0fd7	0.0072040367
248	0xbd64b6fb	-0.055838566
249	0x3cb01402	0.021493915
250	0x3bea2752	0.0071458006
251	0x3b5d07fc	0.0033726683
252	0xbd4783cf	-0.048709687
253	0xbd2a3c0c	-0.04156117
254	0xbd6e7265	-0.058214564
255	0x3da02647	0.07819801

encoder.3.conv_2.bias f4 [16]
0	0xbd32b6c3	-0.043631326
1	0xbd0f05e1	-0.034917716
2	0x3d494637	0.049139228
3	0x3d3a2b4c	0.045451447
4	0xbd5dd2c5	-0.054156084
5	0x3d4aff46	0.049559854
6	0xbb41851c	-0.0029528802
7	0x3d993b5c	0.07482025
8	0xbd679a91	-0.05654389
9	0x3c803725	0.015651295
10	0xbd98a7b6	-0.07453863
11	0x3d33b2d2	0.04387171
12	0x3d137b57	0.036006298
13	0x3cad1552	0.02112833
14	0xbd236b74	-0.039897397
15	0xbda1b85e	-0.078964934

encoder.3.residual_layer.weight f4 [16, 8, 1, 1]
0	0x3d7b6b9b	0.061381917
1	0x3e072a3a	0.13199702
2	0x3e987f1d	0.2978448
3	0xbdc066b7	-0.09394591
4	0x3e2da109	0.16955961
5	0xbeb4b0c4	-0.3529111
6	0xbe909ba8	-0.28243756
7	0xbd75cf2c	-0.060012028
8	0xbdd7be44	-0.10534337
9	0xbea8572b	-0.32879004
10	0x3c89bfca	0.016815085
11	0x3b8bf3f0	0.004271023
12	0x3c3cbdf3	0.011519897
13	0x3e587a58	0.2114042
14	0xbe50536a	-0.2034432
15	0x3d28398f	0.041070517
16	0x3e2750cd	0.16339417
17	0x3e4cf003	0.20013432
18	0x3df98f65	0.121855535
19	0xbe6f6256	-0.23377356
20	0xbe5e1b36	-0.21690068
21	0xbe0a996a	-0.13535085
22	0xbe9b8f11	-0.30382589
23	0x3e044dd5	0.12920316
24	0x3dcab8f8	0.09898561
25	0x3e16a01b	0.14709513
26	0x3e31bdc9	0.17357554
27	0x3e91b2e1	0.28456786
28	0x3d1a4ea0	0.03767264
29	0x3d826d06	0.06368451
30	0x3db51e72	0.088436976
31	0xbded611e	-0.11590789
32	0xbbc1c325	-0.0059131556
33	0xbea705e7	-0.3262169
34	0x3ea61f29	0.32445648
35	0x3d49cd3c	0.049267992
36	0xbac575bd	-0.0015064996
37	0x3d4504c5	0.04810025
38	0xbde0204b	-0.109436594
39	0xbe1639e4	-0.14670521
40	0x3ea32d4b	0.31870493
41	0xbdc5a792	-0.09651102
42	0x3e21c8f9	0.15799321
43	0x3e80ee1a	0.25181657
44	0x3e8092ff	0.2511215
45	0xbdf4ed19	-0.11959285
46	0xbe55f530	-0.20894313
47	0x3e798827	0.24368344
48	0x3e34a236	0.17640004
49	0xbe9126c8	-0.283499
50	0xbe35e39c	-0.17762607
51	0x3dd7499a	0.10512085
52	0x3e44b63e	0.19210145
53	0x3e9725b5	0.29520956
54	0xbea52f7e	-0.32262796
55	0x3e417457	0.18892036
56	0xbe072f36	-0.13201603
57	0xbeaf1bfc	-0.34201038
58	0xbe1f8dba	-0.15581408
59	0x3cf2c7a5	0.029636214
60	0xbd1b3f98	-0.037902445
61	0xbe125986	-0.14291963
62	0x3dce6a21	0.10078836
63	0xbe7e83ad	-0.24854918
64	0xbead9d2d	-0.33908978
65	0xbdcddefe	-0.10052298
66	0xbe865155	-0.26233926
67	0xbd8c86de	-0.068616614
68	0x3dcb5306	0.09927945
69	0xbc375219	-0.011189007
70	0xbddaa4ad	-0.10675941
71	0x3d83667c	0.06416032
72	0x3e6544c3	0.22389512
73	0xbb265819	-0.00253821
74	0x3e8614d3	0.26187763
75	0x3e1868ce	0.1488373
76	0x3e86e3ae	0.2634558
77	0x3e2e0862	0.16995385
78	0xbd271041	-0.040786985
79	0x3e174ef8	0.14776218
80	0xbe5bf24a	-0.21479145
81	0xbe7e24d4	-0.24818736
82	0xbea5fc61	-0.32419112
83	0xbdf30b47	-0.11867385
84	0x3e4c3f2c	0.19945973
85	0xbad831e7	-0.0016494364
86	0x3b453504	0.0030091414
87	0x3e27aaf7	0.16373812
88	0x3c637a79	0.01388418
89	0xbe2cb972	-0.16867617
90	0xbe3c63b8	-0.18397415
91	0x3c1c6829	0.009546318
92	0x3e44fcca	0.19237056
93	0xbe90ede8	-0.28306508
94	0xbd82a86f	-0.063797824
95	0xbd87ea8c	-0.06636533
96	0x3e4c0ba9	0.19926323
97	0x3e5e0f9c	0.21685642
98	0x3da66ea6	0.08126573
99	0x3e24f182	0.16107753
100	0x3e361d7e	0.17784688
101	0xbdddd709	-0.1083203
102	0x3e09c052	0.1345227
103	0xbc8c4874	-0.017124392
104	0xbd98af54	-0.07455316
105	0xbe5bcc70	-0.21464705
106	0x3ea2c29c	0.317891
107	0xbe53d47e	-0.20686528
108	0xbbeb99be	-0.0071899584
109	0x3ea96430	0.3308425
110	0x3e3d155f	0.18465184
111	0x3eb626cf	0.35576484
112	0xbe19f2ed	-0.15034075
113	0x3db5a47f	0.08869266
114	0xbe0882cd	-0.13331147
115	0xbe54ca5a	-0.20780316
116	0x3e09c683	0.13454632
117	0xbe9aade8	-0.30210805
118	0xbe0409da	-0.12894383
119	0xbda54051	-0.08068908
120	0x3ea39ca4	0.31955445
121	0x3e367e6c	0.17821664
122	0xbdd02464	-0.10163191
123	0x3e8a57b5	0.2702004
124	0xbb3203ae	-0.0027162838
125	0xbe35f51d	-0.17769285
126	0xbda7a845	-0.08186392
127	0xbc889803	-0.016674047

encoder.3.residual_layer.bias f4 [16]
0	0xbe9b081c	-0.30279624
1	0x3e869243	0.26283464
2	0x3c3fdd5a	0.011710489
3	0xbe885514	-0.2662741
4	0x3e0c471a	0.13698998
5	0x3d30ba64	0.043146506
6	0xbe8db20e	-0.27674907
7	0xbe9a868f	-0.30180785
8	0x3e919d99	0.2844055
9	0xbe7f02e5	-0.24903448
10	0xbe89cf85	-0.26916137
11	0xbcbcea0f	-0.023060827
12	0x3c031eb6	0.0080029275
13	0xbe775ccd	-0.24156494
14	0x3eaef25a	0.34169275
15	0x3e63ef04	0.22259146

encoder.4.groupnorm_1.weight f4 [16]
0	0x3f80f1f1	1.0073835
1	0x3f80e773	1.0070633
2	0x3f80f965	1.0076109
3	0x3f7f5c86	0.99750555
4	0x3f7eaaed	0.9947956
5	0x3f7e852e	0.99421966
6	0x3f7d37ea	0.98913443
7	0x3f7ebf49	0.9951063
8	0x3f7cdfda	0.9877907
9	0x3f7df5ef	0.9920339
10	0x3f7e67bd	0.9937704
11	0x3f80ea0c	1.0071425
12	0x3f816587	1.0109109
13	0x3f80d925	1.0066267
14	0x3f7fd1ea	0.9992968
15	0x3f805f14	1.0029016

encoder.4.groupnorm_1.bias f4 [16]
0	0x3c3bbc15	0.0114584165
1	0x3b271e5f	0.002550028
2	0x3a9a586a	0.0011775617
3	0x3ca2d0a9	0.019874888
4	0x3b9e497b	0.004830537
5	0x3bcbfbbc	0.0062250774
6	0xba3f0de4	-0.00072881416
7	0x3b46c991	0.0030332545
8	0xbc4579b6	-0.012052944
9	0xbcb104c5	-0.02160872
10	0xbb9c4170	-0.004768543
11	0xbbb37272	-0.0054762894
12	0x3c4c62d8	0.012474738
13	0x3c33066f	0.010926827
14	0x3c20efca	0.009822795
15	0x3c17540b	0.009236346
