stubs/saved_models/large_convvae_v2_01.pt (torch, 307918 bytes, 126 tensors)

encoder.0.weight f4 [8, 2, 3, 3]
0	0xbddef876	-0.10887234
1	0xbd1e600a	-0.03866581
2	0x3e7ca450	0.24672055
3	0xbe26a491	-0.16273715
4	0xbe65b1c5	-0.22431095
5	0x3d0c5438	0.034260005
6	0x3d1ddf27	0.038542893
7	0x3cba9170	0.022774428
8	0xbc36f902	-0.0111677665
9	0xbd30b80e	-0.04314428
10	0xbe4487bf	-0.19192408
11	0x3e79b8a3	0.2438684
12	0x3e1071ad	0.14105864
13	0xbe67d183	-0.22638516
14	0x3d7f7a83	0.062372696
15	0x3d2e8833	0.04261036
16	0x3e2c4d0f	0.1682627
17	0xbe0f4549	-0.13991274
18	0x3e291624	0.16512352
19	0x3dd228ac	0.10261664
20	0xbdb7c6a4	-0.089734346
21	0xbd5c93c1	-0.053851847
22	0x3d13a649	0.036047254
23	0x3e600087	0.21875201
24	0xbe124811	-0.14285304
25	0x3e22078b	0.1582319
26	0x3e291954	0.16513568
27	0xbcf5da79	-0.030011402
28	0x3d50dacc	0.05098991
29	0x3d2a26d8	0.04154095
30	0xbe120397	-0.14259182
31	0x3d0d5619	0.034505937
32	0x3e73b46b	0.23799293
33	0x3c8d9ba5	0.017286131
34	0x3e0e9f34	0.13927919
35	0x3e3aa5a2	0.18227246
36	0xbb1dc44d	-0.0024073303
37	0xbe1834bd	-0.14863868
38	0x3e39ebf8	0.18156421
39	0x3ddbdfb9	0.10736031
40	0xbe20dfc6	-0.15710363
41	0xbd8bfb8c	-0.06835088
42	0x3d87806d	0.06616292
43	0xbdca4744	-0.09876874
44	0x3c956eec	0.018241368
45	0xbd9823fd	-0.07428739
46	0xbe2e2b58	-0.17008722
47	0xbdd5a1e7	-0.10431271
48	0xbd1c1183	-0.038102638
49	0xbe6cdde2	-0.23131517
50	0x3e306246	0.17224988
51	0xbe0d4af1	-0.13798119
52	0x3da3f0e0	0.08004928
53	0x3e4c5059	0.19952525
54	0xbe26f2d7	-0.16303574
55	0xbcf97bda	-0.030454565
56	0x3e398fc1	0.18121244
57	0x3e6b3f67	0.22973405
58	0x3e5b0e6e	0.21392223
59	0xbdfb412d	-0.12268291
60	0xbd8cc3be	-0.06873272
61	0x3d5af324	0.053454533
62	0x3dc32ab2	0.09529628
63	0x3da47fd9	0.080321975
64	0xbb06cdf7	-0.0020569542
65	0xbdaca83b	-0.08430525
66	0x3e1943e7	0.14967309
67	0x3e4880fb	0.19580452
68	0x3dec9048	0.11550957
69	0xbdf9a080	-0.12188816
70	0xbe30da2b	-0.17270724
71	0xbdb18d17	-0.08669489
72	0xbe8fc649	-0.28080967
73	0xbe1b1fcf	-0.15148853
74	0xbe23583e	-0.1595163
75	0x3e0d6050	0.13806272
76	0xbdfd89ca	-0.12379797
77	0x3e11da7c	0.14243501
78	0xbc595268	-0.013264276
79	0x3dc2a9e7	0.095050626
80	0xbe31967b	-0.1734256
81	0xbe740c92	-0.2383292
82	0xbdb43eef	-0.08801066
83	0x3e4fafe3	0.20281939
84	0x3da54a85	0.08070854
85	0xbdfaaad1	-0.12239612
86	0x3da956b1	0.08268488
87	0xbb6d2cac	-0.0036189957
88	0xbdc979ed	-0.098377086
89	0xbd60f922	-0.05492509
90	0xbe155d40	-0.14586353
91	0xba166f46	-0.0005738627
92	0x3d511a57	0.05105051
93	0x3de352be	0.11099766
94	0xbd9c4e89	-0.07632167
95	0xbcc03bec	-0.023466073
96	0xbe015119	-0.12628593
97	0xbb3fb5db	-0.0029252681
98	0x3e4afc87	0.19822894
99	0x3dd8c795	0.10584942
100	0xbe4c5118	-0.1995281
101	0x3e14d24f	0.14533351
102	0xbdb22edf	-0.08700346
103	0xbe3296ca	-0.17440334
104	0xbe3c3bc2	-0.18382171
105	0xbe199e07	-0.15001689
106	0xbe23cf79	-0.15997113
107	0x3d030f11	0.03199679
108	0x3e44edea	0.19231382
109	0xbdde2d61	-0.10848499
110	0xbe550633	-0.20803146
111	0x3e3ec7f6	0.18630967
112	0x3d5b4aea	0.05353824
113	0xbb2e0fa9	-0.0026559627
114	0x3dca7690	0.09885895
115	0xbdd1bc52	-0.102409974
116	0x3db400e4	0.087892324
117	0x3d1b746f	0.037952837
118	0xbcdc01ac	-0.026856266
119	0xbe11947a	-0.14216796
120	0x3e62336b	0.22089927
121	0x3d92edca	0.07174261
122	0xbe2b2e18	-0.16716802
123	0xbd896eec	-0.0671061
124	0xbc47cfb5	-0.012195517
125	0xbe00d251	-0.1258023
126	0x39c81389	0.00038161527
127	0x3db06631	0.086132415
128	0xbd0c5a04	-0.034265533
129	0x3e68a84c	0.2272045
130	0xbe2572c0	-0.16157055
131	0x3d722ce8	0.059124857
132	0x3e050347	0.12989531
133	0xbe2972e1	-0.16547729
134	0x3d4aee33	0.04954357
135	0xbd7d3bf3	-0.06182475
136	0x3d6a0c31	0.057140533
137	0xbdc8f964	-0.098131925
138	0x3dd5e167	0.10443383
139	0x3e7878db	0.24264853
140	0xbdb25c01	-0.087089546
141	0x3d695af5	0.05697151
142	0x3df0022c	0.11719164
143	0xbe2bacb7	-0.16765104

encoder.0.bias f4 [8]
0	0x3e1880c6	0.14892873
1	0x3e3d718b	0.18500344
2	0x3dd9e0dd	0.106385924
3	0xbe400b10	-0.1875422
4	0xbd04b09e	-0.032394998
5	0xbe229946	-0.15878782
6	0xbd46f50d	-0.048573542
7	0xbe02df08	-0.12780392

encoder.1.groupnorm_1.weight f4 [8]
0	0x3f7e0114	0.99220395
1	0x3f848c5a	1.0355332
2	0x3f78fae1	0.9725781
3	0x3f8148f5	1.010039
4	0x3f7a30db	0.977308
5	0x3f7b9fdf	0.9829082
6	0x3f84cac1	1.0374376
7	0x3f7a1eae	0.97703063

encoder.1.groupnorm_1.bias f4 [8]
0	0x3bb1e706	0.0054291515
1	0xbb9a0ada	-0.0047010006
2	0xba2e6b7e	-0.0006653591
3	0xbbeae23e	-0.0071680835
4	0x3c65fe1b	0.014037634
5	0xbc2763d0	-0.010216668
6	0x3c01ddba	0.007926399
7	0x39d6a8f0	0.0004094313

encoder.1.conv_1.weight f4 [8, 8, 3, 3]
0	0x3d0ea5cb	0.03482608
1	0x3deac260	0.11462855
2	0xbcc03e9b	-0.023467353
3	0xbd8bb36c	-0.068213314
4	0x3d9c293f	0.076250546
5	0xbdbdbf20	-0.0926497
6	0xbcc6ffe7	-0.024291946
7	0x3dcdf2b2	0.10056056
8	0x3cc152ff	0.023599146
9	0xbdab38e7	-0.08360463
10	0xbe0bc84b	-0.13650624
11	0xbdb5d2b3	-0.08878078
12	0x3dba335d	0.09091828
13	0xbd39137b	-0.045184594
14	0x3dbe0074	0.0927743
15	0x3d3f0c5d	0.04664265
16	0xbd39f566	-0.045400046
17	0x3dbcf74e	0.09226857
18	0xbdd2ef85	-0.10299591
19	0x3be7c700	0.007073283
20	0xbe08d061	-0.1336074
21	0x3cb57b5d	0.02215355
22	0x3c002a26	0.007822549
23	0xbc977f2a	-0.018493254
24	0x3c459ad8	0.012060843
25	0xbcc7efc5	-0.024406323
26	0xbd9c1d66	-0.07622795
27	0xbdf06fb2	-0.11740054
28	0x3d9979de	0.074939474
29	0xbdc0aece	-0.09408341
30	0x3d8859c7	0.06657749
31	0xbda460a8	-0.08026248
32	0x3da27591	0.0793258
33	0x3db2735b	0.087134086
34	0xbdf34c3a	-0.118797734
35	0x3d058b75	0.0326037
36	0xbab42b84	-0.0013745879
37	0x3dcf6fe2	0.10128762
38	0xbdb210a4	-0.0869458
39	0xbd82696e	-0.06367765
40	0xbd267a32	-0.04064388
41	0x3c772f47	0.015086955
42	0x3dafb3dc	0.08579227
43	0x3c779092	0.015110152
44	0x3d049e47	0.032377508
45	0x3c9d94f6	0.01923607
46	0xbd8e5688	-0.06950098
47	0xbcacfa6b	-0.021115502
48	0xba64952f	-0.000871974
49	0x3e150ffb	0.14556877
50	0xbd277a27	-0.040887978
51	0xbd49354e	-0.0491231
52	0x3db314dd	0.08744214
53	0xbde12e66	-0.10995178
54	0x3c76a3c7	0.015053696
55	0xbdb9b8c8	-0.09068447
56	0xbd6104f9	-0.054936383
57	0x3d844bce	0.06459771
58	0x3c9a3d96	0.018828195
59	0xbdeaf9ac	-0.114734024
60	0x3d5c99aa	0.053857483
61	0xbd3bac3e	-0.04581856
62	0xbdd48798	-0.10377425
63	0xba6ee7ca	-0.0009113519
64	0xbd6ccf56	-0.05781492
65	0x3d43cb55	0.047801334
66	0xbd431cba	-0.047634818
67	0x3cc3a4da	0.023882318
68	0x3db570e8	0.08859426
69	0xbb76a04e	-0.003763217
70	0xbbc6aaf0	-0.006062858
71	0xba01cd64	-0.0004951565
72	0xbdbf6c06	-0.09346776
73	0xbacdd45f	-0.001570355
74	0xbc2c1301	-0.010502578
75	0x3da98596	0.082774326
76	0xbde18ce0	-0.11013198
77	0xbd13ef55	-0.036116917
78	0x3dc35c3e	0.09539078
79	0x3b972c3b	0.004613427
80	0x3d081a4b	0.0332282
81	0x3ac39a45	0.0014923295
82	0x3d9e05ab	0.07715925
83	0xbd772971	-0.060342256
84	0x3d8e72e1	0.06955505
85	0x3ce89082	0.02838922
86	0xbdb97eea	-0.0905741
87	0xbd5ce6b5	-0.053930957
88	0x3d3b6916	0.045754515
89	0x3daf6d7c	0.08565804
90	0xbcf9f885	-0.030514011
91	0xbd9fe5d8	-0.07807511
92	0x3b942a5a	0.0045216503
93	0x3de17f7c	0.11010644
94	0x3d0cdc06	0.03438952
95	0xbcd09d69	-0.025465684
96	0x3d29af36	0.04142686
97	0xbd87a781	-0.06623746
98	0x3d82f1f4	0.06393805
99	0x3d617d46	0.05505111
100	0x3dabddb2	0.083918944
101	0xbda26513	-0.079294346
102	0xbccb8b8b	-0.024846813
103	0xba063653	-0.0005119789
104	0xbd73799b	-0.059442144
105	0x3d6bdc34	0.05758305
106	0x3cef75f2	0.029231045
107	0x3cb26519	0.021776723
108	0x3da86c71	0.082238086
109	0x3db1fa20	0.08690286
110	0xbc218ff8	-0.009860985
111	0xbe041745	-0.12899502
112	0xbd808560	-0.06275439
113	0xbd940962	-0.07228352
114	0x3d56604e	0.052337937
115	0x3b040369	0.0020143634
116	0xbd9aeb3b	-0.07564398
117	0xbd949f31	-0.07256926
118	0x3d9aa0c2	0.07550193
119	0x3d150228	0.03637901
120	0xbd1fe643	-0.039037954
121	0xbd55758d	-0.05211406
122	0xbc532f18	-0.012889646
123	0xbd0cbc13	-0.03435905
124	0x3b690653	0.0035556748
125	0x3cd169dd	0.025563175
126	0x3d30ebc8	0.04319361
127	0x3d1889e5	0.03724088
128	0x3df032fe	0.11728476
129	0xbe03650a	-0.12831512
130	0xbdee7634	-0.11643639
131	0x3bd303c3	0.0064396574
132	0xbd3d5f4d	-0.046233464
133	0x3ca8658a	0.02055623
134	0x3de052be	0.10953282
135	0x3d2c9d26	0.042142056
136	0xbdbbfb49	-0.09178788
137	0x3cf527b9	0.029926168
138	0x3ae55309	0.001749606
139	0xbded48f7	-0.115861826
140	0xbce84f90	-0.02835825
141	0x3da92dfe	0.082607254
142	0x3d1b6a25	0.037943024
143	0x3cb2974f	0.021800665
144	0xbdc582b7	-0.096440725
145	0xbdc66c06	-0.096885726
146	0xbb6b8c49	-0.003594177
147	0xbc978fc5	-0.018501172
148	0x3d277b45	0.040889043
149	0x3d9423a4	0.072333604
150	0xbd7db56a	-0.061940588
151	0xbc6476b9	-0.013944321
152	0x3d95516e	0.07290922
153	0x3cc6b730	0.024257272
154	0x3cade630	0.021227926
155	0x3d86825e	0.06567834
156	0xbd2b6179	-0.041841004
157	0x3cad9b01	0.021192076
158	0x3de13861	0.109970815
159	0xbdd7b5ae	-0.105326995
160	0xbda83285	-0.08212761
161	0xbd6932e8	-0.056933314
162	0xbd9ae969	-0.07564051
163	0xbdb17bc5	-0.08666185
164	0x3d9fcfaa	0.07803281
165	0xbcf02ee9	-0.029319244
166	0xbc2955d2	-0.010335403
167	0x3d4640ee	0.048401766
168	0x3cd45ef4	0.025924183
169	0xbdba1618	-0.09086245
170	0xbc75ce64	-0.015002821
171	0x3db03eb4	0.0860571
172	0x3dedea35	0.11616937
173	0xbd76709b	-0.060165983
174	0xbdce98cf	-0.1008774
175	0xbdb0509c	-0.08609125
176	0xbd8ddd35	-0.069269575
177	0xbc197b57	-0.009367785
178	0x3da90dee	0.0825461
179	0x3d857f10	0.06518376
180	0xbd1ef144	-0.038804308
181	0x3d265b09	0.04061416
182	0xbb71158a	-0.003678652
183	0xbcf0e944	-0.029408105
184	0x3dfd0af4	0.12355605
185	0x3d41c584	0.047307506
186	0x3daa1f72	0.08306779
187	0xbd575a4b	-0.052576344
188	0xbdadf3b5	-0.08493749
189	0x3ddf6212	0.10907377
190	0x3de1d021	0.110260256
191	0xbceec012	-0.02914432
192	0xbd5bcbec	-0.053661272
193	0x3db1c76f	0.08680617
194	0x3de524f3	0.11188688
195	0x3cf898f3	0.03034637
196	0xbca029ee	-0.019551244
197	0xbde4f70b	-0.11179932
198	0x3d585975	0.052819688
199	0xbd4e6174	-0.050385907
200	0xbd9e527b	-0.07730576
201	0x3d99e7f5	0.075149454
202	0xbc02e355	-0.0079887705
203	0xbd97e961	-0.0741756
204	0xbdcafb20	-0.099111795
205	0xbe137090	-0.14398408
206	0xbc1977b4	-0.009366918
207	0xbd993f4e	-0.074827775
208	0xbd1220d1	-0.035675827
209	0xbc6e4e90	-0.014545098
210	0xbdf195c2	-0.11796142
211	0xbda34a98	-0.07973212
212	0xbe0f59bc	-0.13999075
213	0x3cc85dfd	0.02445888
214	0xbd392f7c	-0.0452113
215	0x3d20c1e8	0.039247423
216	0xbd2f81bc	-0.042848334
217	0x3d626788	0.055274516
218	0x3d1d344e	0.03837996
219	0xbdb3ae27	-0.08773451
220	0xbda1c003	-0.078979515
221	0x3d1769e6	0.036966227
222	0x3d289f38	0.041167468
223	0x3bdbede2	0.0067117075
224	0xbd156b8a	-0.03647951
225	0x3dbde7a1	0.09272695
226	0xbd9f9c73	-0.07793512
227	0x3d9d44e2	0.07679154
228	0x3d067f0c	0.032836005
229	0xbd7a163b	-0.061056357
230	0xbd598b2d	-0.053111244
231	0x3dd58114	0.1042501
232	0xbcfa394b	-0.030544898
233	0x3d2d762a	0.04234902
234	0xbd48bc5a	-0.04900775
235	0xbd7c3f64	-0.06158389
236	0xbd36ea42	-0.044657
237	0xbc1d1518	-0.009587549
238	0xbd18b1a5	-0.03727879
239	0x3d43b111	0.047776286
240	0xbd7a7e9f	-0.06115591
241	0x3dbe55e4	0.09293726
242	0xbd5621a5	-0.05227818
243	0x3d22dc3c	0.039760813
244	0xbd80b24b	-0.06284007
245	0xbde1f7b3	-0.11033573
246	0x3dbffa2f	0.093738906
247	0x3da7875d	0.08180115
248	0xbd5a436d	-0.05328696
249	0xbdcf43f6	-0.101203844
250	0xbd1da4e6	-0.038487338
251	0xbd7a94be	-0.061177008
252	0xbd936c58	-0.07198399
253	0xbdfd0e20	-0.1235621
254	0xbd5f5b56	-0.054530464
255	0x3ca3e9ae	0.020008888

encoder.1.conv_1.bias f4 [8]
0	0xbda3ae92	-0.07992281
1	0x3dce83ff	0.1008377
2	0xbdd83dbb	-0.10558649
3	0x3d51c956	0.0512174
4	0x3db0fd16	0.08642022
5	0x3d8ddd59	0.06926984
6	0x3c7db616	0.015485307
7	0xbdb10fb6	-0.08645575

encoder.1.groupnorm_2.weight f4 [8]
0	0x3f7de478	0.9917674
1	0x3f75f42c	0.960757
2	0x3f7c0a27	0.9845299
3	0x3f7984ff	0.9746856
4	0x3f7f02eb	0.9961383
5	0x3f7aadce	0.97921455
6	0x3f70a680	0.9400406
7	0x3f83ce5a	1.0297348

encoder.1.groupnorm_2.bias f4 [8]
0	0x3b1a4491	0.0023539404
1	0xbadb854b	-0.0016748098
2	0xbc808575	-0.015688637
3	0x3bf6ad6f	0.007527999
4	0x3b84f6db	0.004057748
5	0xbbbe5d6d	-0.005809477
6	0xbc82d348	-0.015969887
7	0x3c528d53	0.012851077

encoder.1.conv_2.weight f4 [8, 8, 3, 3]
0	0x3cafab2e	0.02144393
1	0x3d9b176b	0.07572826
2	0x3b785ebb	0.003789826
3	0xbdc18554	-0.094492584
4	0xbd8d8b4a	-0.06911333
5	0x3acef33f	0.0015789046
6	0xbda254a2	-0.07926299
7	0xbc023939	-0.007948213
8	0xbbd1d027	-0.0064029875
9	0x3cdf6eb8	0.027274475
10	0x3c0dfab5	0.00866573
11	0xbc937a19	-0.018002557
12	0x3d9e09b8	0.077166975
13	0xbd5d64c1	-0.054051165
14	0xbcbc9dd3	-0.023024475
15	0x3d91995b	0.07109328
16	0x3db99458	0.090614974
17	0xbcd584e8	-0.026064351
18	0x3d96adae	0.073573455
19	0xbcd6a2ff	-0.02620077
20	0xbae76ce2	-0.0017656351
21	0x3d615541	0.055012945
22	0xbcc606b1	-0.024173113
23	0x3d521fd8	0.0512999
24	0x3caefeff	0.021361826
25	0x3c8fb219	0.017540978
26	0xbd544408	-0.051822692
27	0xbd4a16fc	-0.049338326
28	0xbb914eaa	-0.0044344263
29	0xbda26445	-0.07929281
30	0xbb905ca3	-0.0044055744
31	0x3d6a5ef1	0.05721945
32	0xbd59b84a	-0.053154267
33	0xbd2e82ad	-0.04260509
34	0x3d0b7916	0.034051023
35	0xbcb01231	-0.02149305
36	0x3d3a6974	0.045510724
37	0x3bef9bd3	0.007312277
38	0xbdc443fd	-0.0958328
39	0xbd0c227d	-0.034212578
40	0x3d6526db	0.05594526
41	0xbc2aee9a	-0.010432864
42	0xbd58ae73	-0.052900743
43	0xbb6e2904	-0.0036340365
44	0x3d9bc221	0.076053865
45	0xbdd8dd8b	-0.10589131
46	0x3c477af2	0.012175309
47	0xbd603c15	-0.0547448
48	0xbd877e3d	-0.06615875
49	0x3ddad724	0.10685566
50	0x3cbf0144	0.023316033
51	0x3c392abe	0.011301694
52	0x3dfe3fff	0.1241455
53	0xbd9a1b3e	-0.07524727
54	0xbd30e380	-0.04318571
55	0x3e039e36	0.12853321
56	0xbd94a4bf	-0.07257985
57	0x3d3ea63f	0.046545263
58	0xbcd169a4	-0.025563069
59	0x3cc3d0bf	0.023903249
60	0xbc32b6af	-0.010907813
61	0x3cf8d676	0.0303757
62	0x3d80cece	0.06289445
63	0x3d97f0c7	0.074189715
64	0xbcb0dbda	-0.021589208
65	0xbc455dad	-0.01204626
66	0xbd295160	-0.04133737
67	0xba02871a	-0.0004979238
68	0x3d89e2ef	0.06732737
69	0x3dd17416	0.1022722
70	0xbd0645be	-0.032781355
71	0xbd9bcaf1	-0.076070674
72	0x3d9fb87e	0.07798861
73	0xbd914cf6	-0.07094757
74	0x3d1ff77b	0.039054375
75	0xbc8da0c2	-0.01728857
76	0x3d566286	0.052340053
77	0x3dcb8bd6	0.09938781
78	0xbd7e40ad	-0.0620734
79	0xbdb9047a	-0.09034057
80	0xbc79a3be	-0.015236793
81	0xbdb7e5a1	-0.08979345
82	0x3d4889d2	0.04895956
83	0x3c22c520	0.009934694
84	0x3ba3072f	0.0049752216
85	0xbdcb76cc	-0.09934768
86	0x3d16e0d6	0.036835514
87	0x3d1e6eff	0.038680073
88	0x3d94074f	0.072279565
89	0x3d7ef9c0	0.0622499
90	0x3d7cfc11	0.061763827
91	0xbdcc0c7c	-0.09963319
92	0xbbbe6c27	-0.0058112326
93	0xbd8c2eb3	-0.06844845
94	0xbcc49b8c	-0.023999952
95	0x3d4f4192	0.050599642
96	0xbdaf87f4	-0.08570853
97	0x3dd179d5	0.10228316
98	0xbc14287e	-0.009042857
99	0x3db3048c	0.087411016
100	0xbd093f7f	-0.03350782
101	0xbdba954f	-0.091105096
102	0x3dd5ab60	0.10433078
103	0xbd02cb47	-0.03193214
104	0xbc468bd5	-0.0121182995
105	0x3d1248b0	0.03571385
106	0x3d9146f2	0.0709361
107	0xbce34fc0	-0.027747989
108	0x3cda3617	0.02663712
109	0x3d89041a	0.066902354
110	0xbd385b47	-0.045008924
111	0x3cdf6591	0.02727011
112	0x3d69c090	0.057068408
113	0xbdea528c	-0.11441526
114	0xbdc14e77	-0.09438794
115	0x3cf7c55f	0.030245481
116	0xbde60b07	-0.11232572
117	0xbe1517fb	-0.14559929
118	0xbd662cda	-0.056195118
119	0x3d772656	0.060339294
120	0xbd3b7312	-0.045764036
121	0xbdbcf30c	-0.09226045
122	0x3cce3990	0.025173932
123	0xbc0812b6	-0.008305242
124	0xbdb81e8a	-0.089902
125	0x3dafc24c	0.08581981
126	0xbd818f5c	-0.06326172
127	0x3d115f60	0.035491347
128	0xbdc89389	-0.09793765
129	0xbd3e9441	-0.046528105
130	0x3d8f871d	0.07008193
131	0x3d47c859	0.04877505
132	0xbd92dddf	-0.07171225
133	0x3d16f41d	0.0368539
134	0xbdd4b5a8	-0.10386211
135	0xbd42f8f1	-0.04760069
136	0xbd816a62	-0.06319119
137	0x3d251df4	0.04031177
138	0xbb8db8dd	-0.004325016
139	0x3c4ab53b	0.01237231
140	0xbdf82150	-0.12115729
141	0x3d2a55af	0.04158562
142	0xbdab7ef1	-0.083738215
143	0x3d78240f	0.060581263
144	0xbd9eb383	-0.07749083
145	0x3dbe24b9	0.09284348
146	0xbc058f6a	-0.008151868
147	0xbd8297bb	-0.063765965
148	0x3dbe25c8	0.0928455
149	0x3da58515	0.08082024
150	0x3d1713d0	0.03688413
151	0x3c01b030	0.0079155415
152	0xbd8b9449	-0.068153925
153	0x3bae5d04	0.005321147
154	0xbd604360	-0.054751754
155	0xbd83072a	-0.06397851
156	0xbdc7ebb8	-0.09761757
157	0x3da88103	0.08227732
158	0xbdaf8feb	-0.08572372
159	0xbd146d6f	-0.036237177
160	0xbd5ade66	-0.053434752
161	0x3d2d34b3	0.042286586
162	0x3ca457bf	0.020061372
163	0x3d9506f8	0.0727672
164	0x3d536f21	0.051619653
165	0x3d69130b	0.056902926
166	0x3c0cc76f	0.008592471
167	0xbd4b0a3d	-0.04957031
168	0xbdd6309f	-0.104584925
169	0x3d21775d	0.039420474
170	0x3da89457	0.082314186
171	0xbd1ca318	-0.038241476
172	0x3c814a34	0.015782453
173	0xbba843bf	-0.005135029
174	0xbd68c15c	-0.056825027
175	0xbd25d1ea	-0.040483393
176	0x3d3d442a	0.046207584
177	0x3dade760	0.08491397
178	0x3bed7000	0.0072460175
179	0xbd5d8329	-0.054080162
180	0x3d8f6756	0.07002132
181	0xbd60bb07	-0.054865863
182	0x3d9ed294	0.07755008
183	0x3d7a14d1	0.06105501
184	0x3d0966b7	0.033545222
185	0x3d33a318	0.04385671
186	0x3d71b81a	0.059013464
187	0xbdceb111	-0.100923665
188	0xbce39f34	-0.027785875
189	0x3e182b77	0.1486033
190	0xbb8f6132	-0.0043756003
191	0xbc8f7ba7	-0.017515017
192	0xbcbe9438	-0.023264036
193	0xbd7f0dd5	-0.06226905
194	0xbdbe4872	-0.092911616
195	0xbd27646b	-0.04086725
196	0xbd362223	-0.04446615
197	0x3b148961	0.0022664892
198	0x3d3c96ca	0.04604224
199	0x3da1cacf	0.07900011
200	0x3c318fb2	0.010837482
201	0x3d1becf3	0.03806777
202	0xbdae7a3e	-0.085194096
203	0xbda91849	-0.08256585
204	0x3d89edc1	0.06734801
205	0x3d259f4d	0.040435124
206	0xbc0db049	-0.008647987
207	0x3d114c82	0.035473354
208	0x3c5dfbb4	0.01354878
209	0x3e011991	0.12607409
210	0xbd4787ee	-0.048713617
211	0xbdb9dfb0	-0.09075868
212	0xbd4eca1c	-0.050485715
213	0x3c562ccf	0.013072207
214	0x3cb3c692	0.021945272
215	0xbcb5dfd0	-0.022201449
216	0xbd87dbcb	-0.06633719
217	0xbda85a06	-0.082202956
218	0xbcde7e0a	-0.02715971
219	0xbde294bb	-0.11063524
220	0x3d4af096	0.049545847
221	0x3d8c2c06	0.06844334
222	0xbd21d876	-0.039513074
223	0xbda79f47	-0.081846766
224	0xbb1dd1b5	-0.0024081294
225	0xbd81e797	-0.063430004
226	0xbd01d757	-0.031699505
227	0x3c340c08	0.010989197
228	0xbcfcc764	-0.030856796
229	0xbcd23365	-0.025659272
230	0xbbcb6eca	-0.0062082754
231	0xbd3cfa41	-0.0461371
232	0xbdb432bd	-0.0879874
233	0xbcca01e5	-0.024659107
234	0xbda4a8c6	-0.080400035
235	0x3ddfb84a	0.10923822
236	0xbba9b007	-0.005178455
237	0xbca5f3b8	-0.020257816
238	0xbba152db	-0.004923207
239	0xbcef4acb	-0.029210469
240	0xbcd7e44e	-0.026353981
241	0x3c97c975	0.01852868
242	0xbcba4aa6	-0.022740673
243	0x3db27236	0.0871319
244	0xbde484a0	-0.11158109
245	0xbd00301f	-0.03129589
246	0x3d9cf9d3	0.07664838
247	0xbdbc2d8c	-0.09188375
248	0xbcba8c4b	-0.022771975
249	0x3ca2e396	0.019883912
250	0x3de285c3	0.11060669
251	0xbc763c90	-0.015029088
252	0xbc1b4509	-0.0094769085
253	0x3c7f7a7a	0.0155931655
254	0xbdd67fe6	-0.104736134
255	0x3d20f51e	0.039296262

encoder.1.conv_2.bias f4 [8]
0	0xbcc80979	-0.02441858
1	0x3dcb922c	0.099399894
2	0xbda2a91a	-0.0794241
3	0xbde8bde3	-0.11364343
4	0xbd99f7d4	-0.075179726
5	0x3bd2c683	0.006432356
6	0x3b85f543	0.0040880754
7	0x3d2361b0	0.039888084

encoder.2.weight f4 [8, 8, 3, 3]
0	0x3d16c7d4	0.036811665
1	0xbd94f3db	-0.07273074
2	0xbd3a4e64	-0.045484915
3	0x3b059629	0.0020383692
4	0xbcbe29c2	-0.023213271
5	0xbd577b72	-0.05260796
6	0x3ddd09d3	0.107928894
7	0xbd2918c3	-0.04128338
8	0xbd517eab	-0.05114619
9	0xbbf027e1	-0.0073289727
10	0xbb8250ab	-0.0039769015
11	0x3de9b97e	0.11412333
12	0xbd67e773	-0.05661721
13	0x3da5ca5f	0.0809524
14	0x3da60d17	0.081079654
15	0x3d1a64ff	0.037693974
16	0x3cf32ba6	0.0296839
17	0x3df739ef	0.12071597
18	0x3c9105d0	0.017702967
19	0xbd3aa064	-0.045563117
20	0xbd942c0f	-0.07234966
21	0xbd8a33c6	-0.06748156
22	0xbda01835	-0.07817117
23	0xbd994a73	-0.07484903
24	0xbdbbe766	-0.09174995
25	0xbd3ea93d	-0.046548117
26	0x3d60ac88	0.05485204
27	0x3dc4d7b7	0.09611457
28	0x3c562178	0.013069503
29	0x3d9255c4	0.07145265
30	0xbcd42a37	-0.025899036
31	0xbcf69ccd	-0.030104065
32	0xbc9c08c8	-0.019047156
33	0x3b8f85d6	0.004379968
34	0xbd6adabf	-0.05733752
35	0x3c211574	0.009831775
36	0xbd339aad	-0.043848682
37	0xbc45fb5f	-0.012083857
38	0x3de38d6d	0.11110959
39	0x3d1fcfd4	0.03901656
40	0xbdc20c06	-0.094749495
41	0xbd1b31a0	-0.037889123
42	0xbd9c7dca	-0.0764118
43	0x3a14242b	0.00056511414
44	0xbd71f6af	-0.059073146
45	0xbe0faae5	-0.14030035
46	0xbd14af1c	-0.03629981
47	0x3d280701	0.041022304
48	0x3d23519e	0.039872758
49	0xbd62513e	-0.05525326
50	0xbd931e38	-0.07183498
51	0x3dd6a5f6	0.10480873
52	0xbc706454	-0.014672358
53	0xbd040ba6	-0.03223767
54	0x3d618e26	0.055067204
55	0xbbea2949	-0.007146035
56	0x3d696d1d	0.056988824
57	0xbd7d50da	-0.061844684
58	0xbcd817c6	-0.026378524
59	0xbd8aa55d	-0.06769822
60	0xbdb8efd6	-0.0903012
61	0x3dab2430	0.083565116
62	0x3c85c928	0.01633127
63	0x3d951aff	0.0728054
64	0xbd40b68b	-0.047049087
65	0xbd52463c	-0.051336512
66	0x3dbce54e	0.09223424
67	0x3d846a32	0.06465568
68	0x3d2a47ca	0.04157237
69	0x3d163333	0.03666992
70	0xbd8eb980	-0.06968975
71	0x3c599c0f	0.013281836
72	0xbd7beb00	-0.06150341
73	0xbdae3ff8	-0.08508295
74	0x3d0492b5	0.032366473
75	0x3dcb42a9	0.09924824
76	0xbdc13daf	-0.09435593
77	0x3c00fe39	0.007873111
78	0xbd13899d	-0.03601991
79	0xbc94fe02	-0.018187527
80	0x3d45488e	0.048164897
81	0x3d5deed9	0.05418286
82	0xbde591fc	-0.11209485
83	0x3cebe530	0.028795809
84	0x3cb88a91	0.022527011
85	0x3d704565	0.05865993
86	0xbde3dc64	-0.111260206
87	0xbd2170ae	-0.0394141
88	0xbd560fa1	-0.052261
89	0xbdba0296	-0.090825245
90	0x3ddfabba	0.10921426
91	0xbd57721b	-0.052599054
92	0xbd2510bc	-0.040299162
93	0xbdd191db	-0.10232898
94	0x3db94aef	0.090474956
95	0xbc4598c3	-0.012060347
96	0xbbb9ba20	-0.00566794
97	0xbd1bbb0d	-0.038020182
98	0xbc06594b	-0.0082
99	0xbdd11c52	-0.1021048
100	0xbd552671	-0.052038614
101	0x3de15dd1	0.11004222
102	0x3c5fc56e	0.013657911
103	0x3df0b1a1	0.1175263
104	0xbdda8403	-0.106697105
105	0x3ab840d3	0.0014057405
106	0x3ced0065	0.028930852
107	0xbd3420ca	-0.043976583
108	0x3c5bb396	0.013409516
109	0x3d8e73dc	0.06955692
110	0xbd9dec05	-0.07711033
111	0xbd11f4a8	-0.035633713
112	0x3e0494c2	0.12947372
113	0x3b24ef86	0.002516718
114	0x3bae9291	0.0053275307
115	0x3d8ca962	0.06868245
116	0x3ddfe0a4	0.10931519
117	0x3d8f6032	0.0700077
118	0x3cad9a1f	0.021191655
119	0x3be2b5db	0.0069186515
120	0xbd5442af	-0.051821407
121	0xbc1b4472	-0.009476768
122	0xbd37b08c	-0.044846103
123	0xbd872b85	-0.066000976
124	0x3d2aa782	0.041663654
125	0x3c5ecd33	0.013598728
126	0x3c0fd4fa	0.008778805
127	0xbd09383c	-0.033500895
128	0x3d0a2171	0.0337233
129	0xbd162e1a	-0.03666506
130	0x3d4c516e	0.049882345
131	0x3d7214ec	0.059101984
132	0xbc970712	-0.018435989
133	0xbda649b9	-0.0811953
134	0xbca86745	-0.020557055
135	0x3e0e3413	0.13887052
136	0x3d5dfa8f	0.05419403
137	0xbdd76d3f	-0.10518884
138	0xbd72e813	-0.059303354
139	0x3d17a2b0	0.037020385
140	0x3d970a7a	0.07375045
141	0x3c470a9a	0.012148524
142	0x3d8a4dcf	0.06753122
143	0x3d9422c1	0.07233191
144	0xbd6ce953	-0.057839703
145	0xbd8853ee	-0.06656633
146	0xbccdfe77	-0.025145752
147	0x3d3cb5c3	0.04607178
148	0x3c989245	0.018624434
149	0xbda308fb	-0.07960697
150	0x3d6f796c	0.058465406
151	0x3d3fe677	0.046850648
152	0x3ce9bb4d	0.028531695
153	0xbd75f9ff	-0.060052868
154	0xbb1e83c9	-0.0024187437
155	0xbbe0592f	-0.006846569
156	0xbc01de41	-0.007926525
157	0xbcec2002	-0.028823856
158	0x3da7ab76	0.081870005
159	0xbc660bcc	-0.0140408985
160	0x3cb5639f	0.02214223
161	0x3daf77fb	0.08567806
162	0xbd802498	-0.0625698
163	0x3d8a14ac	0.06742224
164	0x3b1db396	0.002406334
165	0x3d9fb675	0.07798473
166	0xbdbc0c2c	-0.09182009
167	0x3dc1c175	0.09460727
168	0x3ace01be	0.0015717072
169	0xbb982d87	-0.004644099
170	0xbd507dd9	-0.050901268
171	0xbdcca55c	-0.09992477
172	0x3d618bbd	0.055064905
173	0xbdca2669	-0.098706074
174	0xbd5ea663	-0.054357897
175	0xbcb98a1c	-0.022648863
176	0xbba50479	-0.0050359336
177	0x3cb21362	0.021737758
178	0x3d48740b	0.048938792
179	0x3ae38f6e	0.0017361471
180	0x3d9e2b0f	0.077230565
181	0x3d3ad352	0.045611687
182	0x3d740d89	0.05958322
183	0x3de503bc	0.11182353
184	0x3d2307fb	0.039802533
185	0x3cc0ed68	0.023550704
186	0x3d9509a6	0.07277231
187	0x3d8c11d5	0.06839339
188	0xbc4c4456	-0.012467464
189	0xbd8a4a74	-0.06752482
190	0x3db693f7	0.08914941
191	0xbd6bced2	-0.057570286
192	0xbc608000	-0.013702393
193	0xbd70d7eb	-0.058799665
194	0xbcf8629e	-0.030320462
195	0xbcae85d8	-0.021304056
196	0x3df0cc0d	0.117576696
197	0xbd98db8a	-0.07463749
198	0xbd447dad	-0.047971416
199	0x3de8e4c5	0.11371759
200	0x3d94a523	0.0725806
201	0xbc46b0ee	-0.012127144
202	0xbdad6f0a	-0.08468445
203	0x3d8b062d	0.06788287
204	0x3da33c38	0.0797047
205	0xbd2b5a76	-0.041834317
206	0x3cd1bb27	0.025601937
207	0xbd3a1b64	-0.045436278
208	0xbb2d7f4a	-0.0026473575
209	0x3d82a79b	0.063796245
210	0xbd60a1b5	-0.054841716
211	0x3d8baf56	0.06820552
212	0xbd12f503	-0.035878193
213	0x3ccacacc	0.024754904
214	0x3dd430d0	0.10360873
215	0x3d6ffe63	0.05859221
216	0x3db74ce9	0.08950216
217	0x3cd46145	0.025925288
218	0xbd7805be	-0.06055235
219	0x3cbddcc8	0.023176566
220	0x3c887cfc	0.01666116
221	0x3d71b5a6	0.059011124
222	0x3dafe6ca	0.085889414
223	0x3ca0fbf6	0.019651394
224	0xbd162f28	-0.036666065
225	0x3dbaebde	0.09127019
226	0x39205f72	0.00015294345
227	0x3a8013c1	0.0009771512
228	0x3d94f617	0.072735004
229	0xbd8f7333	-0.070043944
230	0xbdb74253	-0.08948197
231	0x3dd96227	0.10614424
232	0xbdaf7d50	-0.08568823
233	0xbdc20232	-0.09473075
234	0x3d81bfa5	0.063353814
235	0xbd0f260f	-0.034948405
236	0x3debeda7	0.11519938
237	0x3c87ca46	0.016575944
238	0x3d88f6f3	0.06687727
239	0xbcd9a1bc	-0.026566379
240	0x3d6676d9	0.056265686
241	0x3de9ed09	0.11422164
242	0xbd5916c0	-0.05300021
243	0x3d53fdaa	0.051755585
244	0x3ba99b78	0.005176004
245	0xbd964c2e	-0.07338749
246	0xbde0f4d5	-0.10984198
247	0xba2b2cd9	-0.0006529815
248	0x3b5eae77	0.00339785
249	0xbcd7a22a	-0.026322443
250	0xbc11f8f5	-0.008909454
251	0x3d2f2bda	0.04276643
252	0xbba529ea	-0.005040397
253	0xbd546c8a	-0.051861323
254	0xbd6bd205	-0.057573337
255	0xbcbd84e9	-0.023134666

encoder.2.bias f4 [8]
0	0xbceeba13	-0.029141461
1	0xbd2d0646	-0.04224231
2	0xbd57b96f	-0.052667078
3	0xbd1a6a03	-0.037698757
4	0x3da560f8	0.08075136
5	0xbd02ec26	-0.03196349
6	0x3d324144	0.043519273
7	0xbd7d350d	-0.06181817

encoder.3.groupnorm_1.weight f4 [8]
0	0x3f86ecef	1.0541056
1	0x3f71c258	0.9443717
2	0x3f631cd1	0.88715845
3	0x3f7c3e9b	0.9853303
4	0x3f86c1b5	1.0527865
5	0x3f816f2d	1.0112053
6	0x3f740945	0.95326644
7	0x3f741975	0.95351344

encoder.3.groupnorm_1.bias f4 [8]
0	0x3cc749ea	0.024327237
1	0xbc95a46c	-0.018266879
2	0xbc870a9a	-0.016484547
3	0xbcb05bce	-0.02152815
4	0x3cc3fc91	0.023924144
5	0xb9a12f87	-0.00030743724
6	0xbc6821ec	-0.014168244
7	0x38edd2b3	0.000113402864

encoder.3.conv_1.weight f4 [16, 8, 3, 3]
0	0x3d806176	0.06268589
1	0xbcabd0f5	-0.020973662
2	0xbcff22fd	-0.031144613
3	0xbd8164dc	-0.063180655
4	0xbddf49cb	-0.10902747
5	0xba4dc478	-0.00078494055
6	0xbd10accf	-0.035321053
7	0xbd3ac864	-0.045601264
8	0xbd06b81e	-0.03289043
9	0x3cffc9a4	0.03122408
10	0x3cfa514b	0.030556342
11	0xbd6be084	-0.05758716
12	0x3d8a29d7	0.067462616
13	0x3d9c13f1	0.07620991
14	0xbd983703	-0.07432368
15	0xbd4dbf91	-0.05023152
16	0xbd7a2710	-0.06107241
17	0x3d81955d	0.06327317
18	0x3d82bf43	0.063841365
19	0x3d9ddb49	0.07707841
20	0x3db3d5f1	0.087810405
21	0x3bb6401a	0.0055618407
22	0xbdc11744	-0.09428266
23	0xbd4da387	-0.05020478
24	0x3d6f7139	0.058457587
25	0xbd4f0b08	-0.05054763
26	0x3bfa4958	0.007638138
27	0xbc6dcfa5	-0.014514838
28	0xbd290368	-0.041263014
29	0xbcb93393	-0.0226076
30	0x3b9b9e50	0.004749097
31	0xbc2febdc	-0.010737386
32	0x3bca5b47	0.006175432
33	0xbde3fd9a	-0.11132355
34	0x3d87d409	0.06632239
35	0xbc6c0a93	-0.014406818
36	0x3e01e24c	0.12683982
37	0xbda2d486	-0.07950692
38	0xbcccf2a1	-0.025018038
39	0x3d3aa7b5	0.045570094
40	0xbdbcd32b	-0.092199646
41	0xbd5620a7	-0.052277233
42	0x3da40229	0.080082245
43	0x3daece03	0.08535387
44	0xbdb16a3d	-0.086628415
45	0x3d25582b	0.040367287
46	0xbd3f4b66	-0.046702765
47	0x3d988171	0.07446564
48	0x3c655d5b	0.013999308
49	0x3cea2c59	0.0285856
50	0xbac87a25	-0.0015295191
51	0xbd69d06a	-0.057083525
52	0xbd96b23b	-0.073582135
53	0xbdbad45f	-0.09122538
54	0x3b16a5bc	0.002298697
55	0xbdf8e0c7	-0.12152248
56	0x3d7ce67d	0.06174325
57	0xbae77503	-0.0017658774
58	0xbc25f176	-0.01012837
59	0x3d60490c	0.054757163
60	0x3c8c1f79	0.017104851
61	0xbdca1713	-0.09867682
62	0xbd9001d5	-0.070315994
63	0x3dc1d6f3	0.094648264
64	0xbd90f59b	-0.070780955
65	0x3d21cacf	0.039500054
66	0xbd476b0d	-0.048686076
67	0x3d6e6b3b	0.05820773
68	0xbdefb5e3	-0.11704614
69	0xbd697064	-0.05699195
70	0xbd98cd8c	-0.0746108
71	0x3cdc9136	0.02692471
72	0xbb3d7766	-0.0028910278
73	0x3d8cfa51	0.068836816
74	0xbd0f7118	-0.035019964
75	0xbdcb69ef	-0.099323146
76	0xbd7014ca	-0.058613576
77	0xbb95d364	-0.004572319
78	0x3d429eb7	0.047514644
79	0xbdf36451	-0.11884368
80	0xbdf63b8f	-0.12023079
81	0xbc44ced0	-0.012012199
82	0x3ce888cd	0.028385544
83	0x3d962042	0.073303714
84	0xbd12ec1f	-0.035869714
85	0xbc45a7b1	-0.0120639065
86	0x3da8e176	0.08246128
87	0xbd2e34b6	-0.042530738
88	0x3dce60c1	0.10077048
89	0x3dce1f38	0.10064548
90	0xbda45a22	-0.08025004
91	0xbccbaf1e	-0.024863776
92	0xbdee53bb	-0.11637064
93	0x3d82bc10	0.06383526
94	0x3cff60dd	0.031174118
95	0x3d660bb2	0.056163497
96	0x3c20237f	0.009774088
97	0xbd9305a7	-0.071788125
98	0xbdb56624	-0.088573724
99	0x3c03448b	0.008011947
100	0x3d748ebe	0.059706442
101	0xbddb13c3	-0.106971286
102	0xbc569ea6	-0.013099348
103	0x3d110133	0.035401534
104	0x3d819f37	0.06329196
105	0x3d57cbf4	0.05268474
106	0x3d19bc7a	0.03753326
107	0xbdb058a9	-0.086106606
108	0xbded8eb8	-0.11599487
109	0xbe012cf4	-0.12614805
110	0xbdb47271	-0.088108905
111	0xbdece8c9	-0.11567838
112	0x3c6d3378	0.014477603
113	0xbd9d4792	-0.076796666
114	0xbe003c06	-0.12522897
115	0xbdd2eb7a	-0.1029882
116	0xbdab9614	-0.083782345
117	0x3db7fcf2	0.08983792
118	0x3d3885ae	0.045049362
119	0x3d3cc7dc	0.04608904
120	0x3bb86094	0.0056267474
121	0xbe035bd0	-0.12827992
122	0xbdf2efaf	-0.11862122
123	0x3d438e4d	0.04774313
124	0xbcb5ab6b	-0.022176465
125	0xbddf87dd	-0.10914586
126	0x3d756c46	0.05991771
127	0xbdcbf17e	-0.0995817
128	0x3d6d2ab0	0.057902038
129	0x3d21824f	0.039430913
130	0xbdc110b8	-0.09427017
131	0xbddd7fcf	-0.10815393
132	0x3d9956da	0.07487269
133	0x3dba752b	0.09104379
134	0xbd3a394e	-0.045464806
135	0x3d58b494	0.052906588
136	0xbc76e726	-0.0150697585
137	0x3d1058e1	0.03524101
138	0xbdd2c9fc	-0.10292432
139	0x3c96976c	0.01838275
140	0x3d7980a7	0.060913708
141	0x3cae8c83	0.021307236
142	0xbd66a8b6	-0.05631324
143	0xbd7835aa	-0.060598053
144	0x3d073ff0	0.03301996
145	0x3d2d2af0	0.042277277
146	0x3d581590	0.05275494
147	0xbd536e02	-0.051618584
148	0x3dac65ea	0.08417876
149	0x3ce6e647	0.028185977
150	0xbcf5cc77	-0.030004723
151	0x3dfcf489	0.12351329
152	0x3c883ad7	0.01662962
153	0x3d7bd320	0.06148064
154	0x3c7f6ac3	0.015589419
155	0x3da82f10	0.082121015
156	0xbd2afac3	-0.04174305
157	0x3ab7b3f9	0.0014015428
158	0xbdb6115e	-0.08890031
159	0x3b47486e	0.0030408162
160	0xbcdb16a6	-0.026744198
161	0x3c1ec740	0.00969106
162	0xb9892d74	-0.00026164541
163	0xbd5d8d5b	-0.054089885
164	0xbd95165c	-0.07279655
165	0x3dc207ef	0.094741695
166	0xbd0cd5fb	-0.034383755
167	0x3dd4aba6	0.10384302
168	0x3c2166cd	0.00985117
169	0xbd05bd1e	-0.03265106
170	0x3c66a62a	0.014077703
171	0xbdd6a428	-0.10480529
172	0xbd868b3b	-0.06569525
173	0x3d4cfc0f	0.05004507
174	0x3d0c7a21	0.03429616
175	0x3cdd66f2	0.027026627
176	0x3d830a93	0.06398501
177	0xbc85ae95	-0.016318599
178	0x3d7a012a	0.061036266
179	0x3c54d499	0.01299014
180	0xbd43257a	-0.047643162
181	0xbd19c9bf	-0.037545916
182	0x3df66bf4	0.12032309
183	0x3be48ece	0.0069750315
184	0x3d62f10d	0.055405665
185	0xbd5d606b	-0.05404703
186	0xbd2181b3	-0.03943033
187	0x3d871569	0.065958805
188	0xbdafcc92	-0.085839406
189	0xba15a75b	-0.0005708837
190	0x3db5cc26	0.08876829
191	0x3d12ad0b	0.035809558
192	0xbdd23cb3	-0.10265484
193	0xbdaaf397	-0.08347242
194	0x3c5bda8b	0.013418804
195	0xbd1762a2	-0.036959298
196	0xbcdcc1ef	-0.026947943
197	0xbdb92e5e	-0.09042047
198	0xbcc9feb2	-0.024657581
199	0xbd970f1a	-0.07375927
200	0xbc26a9c1	-0.010172308
201	0xbd165ff9	-0.03671262
202	0x3c5863ae	0.013207359
203	0x3dad3ec7	0.084592395
204	0x3d865144	0.06558469
205	0xbcbef6e4	-0.023311086
206	0xbc4931d8	-0.01227995
207	0x3d96ee85	0.07369713
208	0x3dbf1beb	0.09331497
209	0xbbc61418	-0.006044876
210	0x3bed2c2a	0.007237931
211	0xbc9a668b	-0.018847724
212	0xbd963a9e	-0.07335399
213	0xbbe05fde	-0.0068473658
214	0xbd29081a	-0.041267492
215	0xbdef7867	-0.11692887
216	0xbd55bc0a	-0.05218128
217	0xbde0db5c	-0.109793395
218	0x3dc9ecd1	0.09859622
219	0x3d71a463	0.058994662
220	0xbe0394ab	-0.12849681
221	0xbda82a2b	-0.08211168
222	0xbc5a0c5e	-0.013308613
223	0xbc6f02f3	-0.0145881055
224	0x3d990afb	0.074727975
225	0x3b8bfd3b	0.004272131
226	0x3b3e6046	0.0029049083
227	0x3dbaa46d	0.09113393
228	0x3cee30a4	0.029075928
229	0xbc73dacf	-0.014883711
230	0xbca5ef76	-0.020255785
231	0x3df3e065	0.11908034
232	0x3c0b4afc	0.008501764
233	0xbc3ade66	-0.011405563
234	0xbdc2c46b	-0.0951012
235	0xbd22590a	-0.039635696
236	0xbb9988e4	-0.004685508
237	0xbda15f07	-0.07879453
238	0x3db81bac	0.08989653
239	0x3da1cfb1	0.07900942
240	0xbca49760	-0.020091712
241	0xbd675e50	-0.056486428
242	0x3dad1d0b	0.08452805
243	0x3d5cbb59	0.053889606
244	0xbd1fe0f1	-0.03903288
245	0x3b651742	0.003495649
246	0x3d70780b	0.058708232
247	0xbc9d79a0	-0.019223034
248	0xbd0e80f8	-0.034790963
249	0xbd8917d0	-0.06693995
250	0x3dbf38d5	0.09337012
251	0x3d8a69ae	0.06758438
252	0xbdf1dddb	-0.11809894
253	0xbe0547d2	-0.13015679
254	0x3ca1e789	0.019763725
255	0xbbeac147	-0.0071641537

encoder.3.conv_1.bias f4 [16]
0	0xbd8384cc	-0.06421813
1	0x3cc33b55	0.023832003
2	0x3cc3f24e	0.02391925
3	0xbc3773e9	-0.011197069
4	0x3a909351	0.0011030232
5	0xbd7e226d	-0.06204455
6	0x3df3260c	0.11872491
7	0xbdfc3b34	-0.123159796
8	0xbce6754d	-0.028132105
9	0xbdba6f3d	-0.09103248
10	0xbd036859	-0.032081936
11	0x3a6d0c1e	0.0009042638
12	0xbdbd1f0b	-0.092344366
13	0x3d1b5e1b	0.037931543
14	0xbd87a2db	-0.06622859
15	0xbd9db93f	-0.077013485

encoder.3.groupnorm_2.weight f4 [16]
0	0x3f79e51c	0.9761522
1	0x3f7ac9b6	0.97964036
2	0x3f7bdd1e	0.98384273
3	0x3f7c3a98	0.98526907
4	0x3f829f57	1.0204877
5	0x3f795d76	0.97408235
6	0x3f7b5372	0.981742
7	0x3f7967cc	0.97424006
8	0x3f7514d9	0.95734936
9	0x3f7ed0ca	0.99537337
10	0x3f7a6296	0.9780668
11	0x3f7e79cf	0.99404615
12	0x3f7565a8	0.9585824
13	0x3f7de2b2	0.99174035
14	0x3f7d5bc7	0.98968166
15	0x3f8009dd	1.000301

encoder.3.groupnorm_2.bias f4 [16]
0	0x3c8e1914	0.017345943
1	0x3c105d99	0.008811378
2	0xbc86b476	-0.016443472
3	0x3c151c92	0.00910105
4	0x3ca81b23	0.020520752
5	0xbacfd31e	-0.0015855765
6	0xbb6ef19a	-0.0036459924
7	0xbc7d7827	-0.015470541
8	0xb92836ff	-0.00016042216
9	0x3c0ba3ae	0.008522911
10	0x3adf6da8	0.001704623
11	0x3c11fa9c	0.008909848
12	0x3a1cff89	0.00059890054
13	0x3bcf0de5	0.006318795
14	0xbc8af78a	-0.016963739
15	0xbc1ceef6	-0.009578457

encoder.3.conv_2.weight f4 [16, 16, 3, 3]
0	0xbd439c12	-0.047756262
1	0x3d887015	0.06662003
2	0xbd094298	-0.033510774
3	0xbbd87c91	-0.0066066463
4	0xbd7e14ba	-0.062031485
5	0x3c054c22	0.008135827
6	0xbbbbac1f	-0.0057273055
7	0xbbf8d873	-0.007594162
8	0x3d3af17b	0.04564045
9	0x3d8acb0c	0.06777009
10	0xbd62921f	-0.055315133
11	0xbd401fc0	-0.04690528
12	0x3d36ffb3	0.044677448
13	0x3d1a0b60	0.037608504
14	0xbd0a0c43	-0.0337031
15	0x3b425af3	0.002965626
16	0xbcc17bb4	-0.023618557
17	0x3c151acd	0.009100628
18	0xbd8817e2	-0.0664518
19	0xbd28ff6a	-0.041259207
20	0x3d5cd340	0.0539124
21	0x3d9144d0	0.07093203
22	0x3d998759	0.07496519
23	0x3bd2f3a9	0.006437738
24	0xbd26c417	-0.04071435
25	0xbdad4e47	-0.08462196
26	0x3cf218ba	0.029552806
27	0xbcb0a959	-0.021565126
28	0x3ce0dda8	0.027449444
29	0x3cb31bae	0.021863785
30	0xbd4ed9b5	-0.05050059
31	0xbc4c092e	-0.0124533605
32	0xbd6a0ef9	-0.057143185
33	0x3d0dfdb7	0.03466579
34	0x3d2e2947	0.042519834
35	0xbcbc01f5	-0.022950152
36	0xbc807ab8	-0.015683517
37	0x3dcfc973	0.10145845
38	0x3d10352a	0.03520695
39	0x3be460b0	0.006969534
40	0xbcfa8e9b	-0.030585578
41	0x3c6869d5	0.014185389
42	0xbd0c55e1	-0.034261588
43	0xbc936d3e	-0.017996427
44	0xbd9c8a36	-0.07643549
45	0x3bbb2b7a	0.00571197
46	0x3d998f68	0.07498056
47	0x3cf8cd05	0.030371198
48	0x3cd88fc0	0.026435733
49	0x3c9ae0ef	0.018906085
50	0x3b5c2f65	0.0033597585
51	0xbd8f21b6	-0.06988852
52	0x3d3699b4	0.044580176
53	0xbd04929d	-0.032366384
54	0xbc1e385f	-0.009656995
55	0xbd86c11a	-0.065798
56	0xba18cdb6	-0.0005828993
57	0xbd5db486	-0.05412724
58	0xbd036df7	-0.032087293
59	0xbcec44ac	-0.028841339
60	0xbc031db2	-0.008002685
61	0x3cda2f11	0.026633771
62	0xbd4a86f9	-0.049445126
63	0x3d8210d6	0.063508675
64	0xbc9101bd	-0.017701024
65	0x3c91b601	0.017786982
66	0xbc10865e	-0.008821098
67	0xbd17b6a0	-0.0370394
68	0x3d4f729a	0.050646402
69	0x3c0d762a	0.00863413
70	0x3d8b5d7d	0.06804941
71	0xbc95bfe6	-0.01827998
72	0xbc5f41a8	-0.0136264935
73	0xbccd32dd	-0.025048668
74	0x3c441e79	0.011970156
75	0xbd27f121	-0.041001443
76	0x3d25daea	0.040491976
77	0x3c87b8bd	0.016567582
78	0x3d680a8e	0.05665069
79	0xbd4ab2e4	-0.04948701
80	0x3d549690	0.0519014
81	0x3bf55e0e	0.007488019
82	0xbcd6f0f5	-0.026237944
83	0x3d908551	0.07056678
84	0xbd1ecfcf	-0.0387724
85	0x3a0034a6	0.0004890658
86	0x3d6e913f	0.058243986
87	0x3d6d7efa	0.057982422
88	0x3d0da65d	0.034582485
89	0x3b80f28c	0.003935164
90	0x3d433f6c	0.047667906
91	0x3da09340	0.07840586
92	0xbd0db0a2	-0.03459228
93	0x3d2302b0	0.039797485
94	0x3c447955	0.011991818
95	0xbd7cc01b	-0.061706644
96	0xbd03e87e	-0.032204144
97	0xbb661e42	-0.003511325
98	0x3d81a1d9	0.06329698
99	0x3d3c7061	0.04600561
100	0x3ba20998	0.0049449913
101	0x3d87fe4b	0.066402994
102	0xbbc8f47f	-0.006132662
103	0xbd2d84c9	-0.042362962
104	0x3cd53140	0.02602446
105	0xbd4c6804	-0.049903885
106	0xbb247f78	-0.0025100391
107	0x3c9346ef	0.01797816
108	0x3ce4adc1	0.027914884
109	0x3d829b67	0.06377297
110	0x3d41f673	0.047354173
111	0x3d4520bb	0.048126917
112	0xbda7f823	-0.08201625
113	0xbb957054	-0.0045605097
114	0x3d225468	0.039631277
115	0x3d0e8688	0.034796268
116	0x3c95483e	0.018222924
117	0xbc8e76b1	-0.01739058
118	0xbc88ec29	-0.016714172
119	0x3d8e93ee	0.06961809
120	0xbd819555	-0.06327311
121	0x3d847f56	0.064696
122	0x3d57abc6	0.05265405
123	0x3cad8bf6	0.021184903
124	0xbd3cacf6	-0.046063386
125	0x3cf6540e	0.030069377
126	0xbca960ed	-0.0206761
127	0xbd5ff00a	-0.05467228
128	0xbd4ac913	-0.049508166
129	0x3be20270	0.006897263
130	0xbd91fae6	-0.07127933
131	0xbc2b980f	-0.010473265
132	0xbd453b23	-0.0481521
133	0x3daa8df0	0.08327854
134	0x3d136bfa	0.035991646
135	0xbc7771ea	-0.015102843
136	0xbd472a3b	-0.04862426
137	0x3b8b9763	0.00425999
138	0x3c8ecd07	0.017431749
139	0x3d9c4845	0.07630972
140	0x3d653ba9	0.0559651
141	0xbd2c4b09	-0.042063747
142	0xbd4dc8f6	-0.05024048
143	0x3d301f88	0.04299882
144	0xbd048cea	-0.03236095
145	0xbc189495	-0.0093127685
146	0x3d9837af	0.07432496
147	0x3d542396	0.05179175
148	0x3cf642a0	0.030061066
149	0x3da9b689	0.08286769
150	0xbd01196b	-0.03151838
151	0x3ccad98a	0.024761934
152	0xbd1cab75	-0.03824945
153	0x3c788aa4	0.015169773
154	0xbbbe5d14	-0.0058094356
155	0x3d8c7666	0.0685852
156	0x3d5763e6	0.052585505
157	0xbd3ecb87	-0.046580818
158	0x3cde39ee	0.027127232
159	0x3c817fae	0.015807953
160	0xbd0809d5	-0.0332125
161	0x3d415ef5	0.0472097
162	0x3d8c6184	0.06854537
163	0xbc8d3104	-0.017235287
164	0x3d977994	0.07396236
165	0xbd6df463	-0.058094393
166	0xbd6427a4	-0.055701867
167	0xbd82d81c	-0.06388876
168	0x3cd88081	0.026428463
169	0x3d639c47	0.05556896
170	0x3d8b012c	0.06787333
171	0xbd555b43	-0.052088987
172	0x3d28de67	0.041227724
173	0x3c3288f0	0.010896906
174	0x3c6c8c55	0.014437755
175	0x3cd4b6f1	0.02596614
176	0x3d875de2	0.066097036
177	0xbd8f2a30	-0.069904685
178	0x3c9d240e	0.019182231
179	0x3d0b29f2	0.03397555
180	0x3b169286	0.0022975518
181	0xbd5d5fd8	-0.05404648
182	0x3bc1fcb7	0.0059200185
183	0x3da179ef	0.07884585
184	0xbd14dde1	-0.036344413
185	0xbd3e50c4	-0.046463743
186	0xbd6aa61c	-0.05728732
187	0xbce16c02	-0.027517322
188	0xbba7cf25	-0.005121129
189	0x3da566ed	0.08076272
190	0x3ce78c28	0.028265074
191	0xbc87e16d	-0.016586984
192	0xbdb9e75e	-0.09077333
193	0xbda667c4	-0.081252605
194	0xbd78652a	-0.060643353
195	0x3d3b4ad5	0.045725662
196	0xbda2d159	-0.07950086
197	0x3da89e6c	0.082333416
198	0x3cc4f027	0.024040295
199	0x3d224260	0.03961408
200	0xbd456b13	-0.048197817
201	0xbc94ac93	-0.018148696
202	0x3c5792dd	0.0131575735
203	0xbcd2680a	-0.025684375
204	0xbd9134be	-0.07090138
205	0x3d52207a	0.051300503
206	0xbc98721c	-0.0186091
207	0x3cad356b	0.021143636
208	0xbd3c469b	-0.045965772
209	0x3c8d32d5	0.017236153
210	0x3d89b00f	0.06723034
211	0x3cfbada2	0.030722443
212	0xbd15fd79	-0.036618683
213	0x3d44df51	0.048064534
214	0x3d83a538	0.06427997
215	0x3cf07fec	0.029357873
216	0xbb992b46	-0.004674348
217	0x3c684047	0.014175481
218	0x3ca2ea59	0.019887136
219	0xbd23923b	-0.039934378
220	0x3cb8c8e9	0.022556739
221	0x3d6db1a6	0.058030747
222	0xbcee8c2d	-0.029119575
223	0xbc39dc13	-0.011343974
224	0xbcb9e3c3	-0.022691613
225	0xbc805e54	-0.01566998
226	0x3d987ab1	0.074452765
227	0x3bfe8d24	0.00776829
228	0xbb9ae741	-0.0047272746
229	0xbc2db043	-0.010601106
230	0xbb0870b0	-0.002081912
231	0xbd9ba325	-0.07599477
232	0xbd4d706f	-0.050156053
233	0x3a87e0b8	0.0010366654
234	0xbda642f4	-0.08118239
235	0x3d02dd6e	0.031949453
236	0x3dbd595a	0.09245558
237	0xbd4cfbc8	-0.050044805
238	0x3d69315e	0.056931846
239	0x3ba68c6e	0.0050826585
240	0x3c346a81	0.011011721
241	0x3d601571	0.054707948
242	0xbd5785a4	-0.052617684
243	0x3d6a3a6f	0.057184633
244	0xbbc81b6c	-0.0061067846
245	0xbba6fbbb	-0.0050959266
246	0x3b8fbc80	0.0043864846
247	0xbd9d749f	-0.07688259
248	0x3cb0cca6	0.021581959
249	0x3d45355a	0.048146583
250	0x3c0dfd31	0.008666323
251	0x3d6065e0	0.054784656
252	0xbbd82f5a	-0.0065974416
253	0xbcef02a8	-0.029176071
254	0x3c91a957	0.017780943
255	0x3d8d8023	0.06909206

encoder.3.conv_2.bias f4 [16]
0	0xbc382d77	-0.011241308
1	0xbd0a2499	-0.03372631
2	0x3d17d29e	0.037066095
3	0xbdf4d8f6	-0.119554445
4	0x3d30a5a6	0.043126725
5	0x3d539fdb	0.051666122
6	0xbd5c6faf	-0.053817447
7	0xbd975407	-0.07389074
8	0xbce714ea	-0.028208215
9	0x3da10d5d	0.07863877
10	0x3d82a355	0.06378809
11	0xbd1bd2bd	-0.038042773
12	0x3d4574c8	0.048207074
13	0xbd15d416	-0.036579214
14	0xbda7f44d	-0.082008936
15	0xbd3c0d87	-0.04591134

encoder.3.residual_layer.weight f4 [16, 8, 1, 1]
0	0x3e19fbe4	0.15037495
1	0xbd60e63d	-0.054907072
2	0x3e7f0088	0.24902546
3	0xbd2e732a	-0.042590298
4	0x3e039579	0.12849988
5	0x3ddbc45b	0.10730811
6	0xbea20f00	-0.3165207
7	0xbe5d5c9c	-0.21617359
8	0x3eadeb0f	0.33968398
9	0x3e94c485	0.29056183
10	0x3e0e4501	0.1389351
11	0xbe3149a8	-0.17313254
12	0xbba2ae8f	-0.0049646567
13	0x3e6af9ac	0.22946805
14	0xbd5261f8	-0.05136296
15	0xbe9362d7	-0.28786346
16	0x3d185f92	0.037200518
17	0x3e04ab14	0.12955886
18	0x3e1604c2	0.14650252
19	0x3dd7c088	0.10534769
20	0xbea391f9	-0.31947306
21	0xbe83e992	-0.25764138
22	0x3e53ddbe	0.20690057
23	0xbe972671	-0.29521516
24	0xbe6c5871	-0.23080613
25	0x3e122c9e	0.14274833
26	0xbe3e0aa0	-0.1855874
27	0x3c85ecfa	0.01634835
28	0xbe054514	-0.13014632
29	0x3e97dfb9	0.29662874
30	0xbe17fe6c	-0.14843148
31	0xbe812a6b	-0.25227675
32	0xbe79d911	-0.2439921
33	0x3e8dbd74	0.27683604
34	0x3dfe6cfd	0.124231316
35	0x3e39ced2	0.18145302
36	0xbe422559	-0.1895956
37	0xbea39209	-0.31947353
38	0xbe5206e4	-0.20510441
39	0x3d2640a7	0.040589
40	0x3e79a92f	0.24380945
41	0x3ea2c40e	0.31790203
42	0x3d83d782	0.06437589
43	0xbe8dd73a	-0.27703267
44	0x3c97c58d	0.018526817
45	0xbc91c8d0	-0.01779595
46	0xbdce545e	-0.100746855
47	0x3d967e0f	0.073482625
48	0x3ea39c60	0.31955242
49	0xbde508e7	-0.111833386
50	0x3caa6362	0.020799343
51	0xbe93997f	-0.28828046
52	0xbdb0f8dd	-0.08641217
53	0x3d232b2a	0.039836086
54	0xbe6f00b7	-0.23340116
55	0x3dd89ef5	0.10577194
56	0xbc305ae9	-0.010763862
57	0xbe91a5fa	-0.28446943
58	0x3e97caa1	0.2964678
59	0xbe1ff67c	-0.1562137
60	0x3d2a0280	0.04150629
61	0xbdd82b88	-0.10555178
62	0xbd7b1d44	-0.061307207
63	0xbe0fd29d	-0.14045186
64	0x3c473c8e	0.012160433
65	0xbeb09e39	-0.34495714
66	0xbe6d9471	-0.23201157
67	0xbe459626	-0.19295558
68	0x3a3a8b8e	0.0007116132
69	0x3ea41e53	0.32054386
70	0x3ded9f50	0.11602652
71	0xbe49d3da	-0.19709721
72	0x3e2b9d0e	0.1675913
73	0xbd9d4a05	-0.07680134
74	0xbdb42aec	-0.08797249
75	0xbd43aaa2	-0.04777015
76	0xbe5a5ec4	-0.21325213
77	0xbd855012	-0.06509413
78	0xbe158899	-0.14602889
79	0x3e4eccca	0.20195308
80	0xbcfc998f	-0.030834941
81	0xbe586d9e	-0.21135566
82	0xbe8bb3d6	-0.2728564
83	0xbd820fef	-0.06350695
84	0xbe3d8815	-0.18508942
85	0xbe66e4e3	-0.22548251
86	0xbdca6868	-0.09883195
87	0x3e153ac7	0.14573203
88	0x3d0c6247	0.034273412
89	0x3d9bf76c	0.07615551
90	0x3e522755	0.20522816
91	0xbd892e47	-0.0669828
92	0x3ddc3c97	0.10753744
93	0xbe5eeb50	-0.21769452
94	0xbe326b16	-0.17423663
95	0x3db2c8bd	0.08729694
96	0xbe69394e	-0.22775766
97	0xbe9be8ff	-0.304512
98	0xbe84c738	-0.25933242
99	0xbdef7e97	-0.11694067
100	0xbe75bf84	-0.23998839
101	0x3e7c9d46	0.2466937
102	0xbe8c2f83	-0.2738
103	0x3e95024b	0.29103312
104	0x3e8ef800	0.27923584
105	0x3e54c3c4	0.20777804
106	0xbeac4032	-0.33642727
107	0x3e1dbe1c	0.15404552
108	0xbd9f6e2f	-0.07784688
109	0x3ea97264	0.33095086
110	0xbd20bd72	-0.03924317
111	0x3db5ac69	0.08870775
112	0xbea17bdc	-0.3153981
113	0x3e8fc15e	0.28077215
114	0x3e226508	0.15858853
115	0xbe3e4e59	-0.18584575
116	0x3e72c5ee	0.23708317
117	0x3d7be3c9	0.06149653
118	0x3ea26655	0.31718698
119	0x3df2a952	0.118487015
120	0x3e80c06e	0.25146812
121	0x3d909517	0.07059687
122	0x3bc8dd1b	0.0061298735
123	0x3e28633d	0.16444106
124	0xbe885b89	-0.26632336
125	0x3cb88c5b	0.022527864
126	0x3e46579f	0.19369362
127	0x3e069b46	0.1314517

encoder.3.residual_layer.bias f4 [16]
0	0xbc046f94	-0.008083243
1	0x3e9c129f	0.30482957
2	0x3db263cf	0.08710443
3	0xbeb72517	-0.35770485
4	0xbe8fa884	-0.28058255
5	0x3e253a52	0.16135529
6	0xbe8e88f1	-0.27838853
7	0xbead2763	-0.33819112
8	0xbd3b9b92	-0.04580266
9	0xbded325f	-0.11581873
10	0x3c249f06	0.01004768
11	0x3b7327c7	0.0037102567
12	0xbe371366	-0.17878494
13	0xbe69cb76	-0.2283152
14	0x3da86691	0.08222688
15	0x3e06f7ac	0.13180417

encoder.4.groupnorm_1.weight f4 [16]
0	0x3f8388bd	1.0276104
1	0x3f810c46	1.008187
2	0x3f77ad60	0.96748924
3	0x3f7db53d	0.9910467
4	0x3f819b0a	1.0125439
5	0x3f821288	1.0161905
6	0x3f7f0c78	0.996284
7	0x3f7e5c16	0.9935926
8	0x3f804354	1.0020547
9	0x3f7b42a8	0.98148584
10	0x3f7bbdf6	0.9833673
11	0x3f80c5af	1.0060328
12	0x3f7d142b	0.988589
13	0x3f805a6c	1.0027595
14	0x3f7cac23	0.9870016
15	0x3f80d673	1.0065445

encoder.4.groupnorm_1.bias f4 [16]
0	0x3c875d67	0.01652403
1	0xbacf59fe	-0.0015819666
2	0x3aac5105	0.0013146704
3	0xbc3edeeb	-0.0116498275
4	0xbbc3b3c2	-0.0059723565
5	0x3c865db4	0.016402103
6	0xbba98d4f	-0.005174316
7	0x3c28e299	0.010307931
8	0xbc0ba86f	-0.008524044
9	0x3c022249	0.0079427445
10	0x3b5cf858	0.003371736
11	0x3cb02fb0	0.021507114
12	0xbc1d0e8f	-0.009585991
13	0xbc42ff27	-0.011901653
14	0x3c1f8499	0.009736204
15	0xbad9de5f	-0.0016622058
